UnityEnv/results/drone_goal_009/DroneAgent/checkpoint.pt (torch, 546594 bytes, 12 tensors)

network_body._body_endoder.seq_layers.0.weight f4 [256, 1]
00000000: f220 3d3f 75a3 233d 2829 3d3f 1e7c 1d3f
00000010: 5651 643f 6409 76bc d914 813f 6c9e d23f
00000020: 10f0 f4bf 8a4c 343f 8f3d 713f 21ca 3dbe
00000030: 6127 d43d 2aee d63f 6fae 1340 8ff5 c9be
00000040: 9ceb 123f 5f01 e1bf 4bc3 d13f 6d8d 0240
00000050: 760b f2be 4b0e 653f 46db 64bf 4eb3 c3bf
00000060: 7dd1 d3bf 1c00 10bf 66bf 163f f7b8 313e
00000070: 2d90 a0be aaaf b9bf b08c 7fbf 20ff bd3c
00000080: bd24 04be 1ff2 7abe 3261 e63e 0ead 09c0
00000090: 36e6 8f3e ac3f 9fbe e2c7 9cbd f065 0b3e
000000a0: 1de6 f7be c189 6fbf dfcc 4a3c 197c cb3f
000000b0: 14fa b6be bd9c e93f 0de4 8b3e 05ec 64be
000000c0: 7529 c03f 42cb df3e b633 68bd 7f69 58bd
000000d0: 5a17 8bbe c40f a73e b429 bdbf dec4 b53f
000000e0: 6faa 7fbf 50be f53e 715d e43e a853 0a3f
000000f0: fdd1 263f a2f2 873f 098d 943f 05dd e33c
00000100: 1691 893e a440 1cbf da22 f8be 9537 83bd
00000110: a5a9 b4bf 5de0 c9bf 82b9 5b3f 9a84 4e3f
00000120: 3751 853f 0c10 a8be 084d 3fbf 9878 0a3f
00000130: ac20 083f ebb3 e2be 9bb4 863f 7c76 c53e
00000140: ddc4 1dbe 67e6 f5bf e117 cabd 1930 e23e
00000150: 63c0 33bf 1e64 993f 88ce b9bf 1d3e c0be
00000160: 7d48 2d3e 2abb a93e b7d7 6cbe 8d48 ee3e
00000170: d613 89bf aa9d 3abf ec13 283e a7b8 563f
00000180: 3895 04c0 a105 0bbf 2774 89bf ffc2 f9bf
00000190: c993 b43f 7657 943e 3629 9b3e 0144 32bf
000001a0: 5bfc 4f3f 94cf 7c3e 0260 bbbf 2ec1 5c3e
000001b0: 0745 a93e 47e3 4fbf 3e08 893f a4bb ad3f
000001c0: 29cb c93e ecf5 b33c c0d4 16be 4359 40bf
000001d0: 7aba 513e db7a 23bd 30ef d93f 3474 9abf
000001e0: eb97 ae3f 0a64 25bf 81e0 383e c8fd bb3d
000001f0: 6576 39c0 7390 b83e 6e63 813f 6730 8e3f
00000200: 8634 313f e4c5 c6be 5dd5 e7be 8b56 dabe
00000210: fdcc bdbf 3e00 e2bf 1b00 923e 40ca 96bf
00000220: 5477 f13e 40be 3f3f b700 0040 53fb 17bf
00000230: 7dcf 413f af60 5abe 5459 843f 7bd7 7d3f
00000240: 6908 263f 8e40 09c0 0c10 ba3e e3f0 17c0
00000250: d2e5 023e 645c 98bf 918b 9cbf 6e18 b73f
00000260: 01a9 edbe cd6c 923f 2b7c 05bf bca9 233f
00000270: 0226 4bbf 600e 3dbf ef5b e0bf 5e70 02c0
00000280: dbf0 a6be ba84 60be e1d0 9ebe 0fc3 2ac0
00000290: a886 b33e 9cf6 00bf eaf1 913d 1508 01c0
000002a0: 6191 d23f ece2 5abf 3e2d 9dbf 0bf0 7e3f
000002b0: 922e 853e 477f 57bf 3b76 863f b28a 00c0
000002c0: 8645 433f 5c4b 503f b28b a33e eef4 b5bf
000002d0: b7bb 3ebf da52 643f e60a f3bf 4792 993f
000002e0: c4c6 3ebd d2f0 8d3f 5ef5 91be 2f8b ae3e
000002f0: 35eb 2abe fcb4 a7bf bfb4 22bf f8f0 4dbf
00000300: aa2c 7d3f 8343 713e a8c8 8cbe 1a81 293e
00000310: 2f21 303f cee4 e23f a7a5 76be 3f0b 273f
00000320: a1d4 0140 7f50 923e 533c a4be 3f01 abbf
00000330: 254b c4bf c205 e9be e6a6 31bf 7ed3 4b3f
00000340: 8b9f 323f 70a5 d93f fca9 b3be 7bd1 0a3f
00000350: 369f e7bd 1f42 573f 214c 513f bb32 4ebe
00000360: b00d d7bf b134 57be c244 0b40 4d2b 0ebf
00000370: 1001 b63f c7f1 38bf 52b1 3b3f fcee a4bf
00000380: 81ef c93e 1c96 d93f 5567 a6bf 912d 973e
00000390: a017 da3f bd6d 9f3f 9b4b b4bf 35fc 093f
000003a0: e154 2a3f 0b92 ed3f c406 dabe e4cb 663f
000003b0: cfdd 09be 158b 58bf 1a15 87bf 6913 783e
000003c0: eeb5 3ebe 0adf 8f3f 7891 933e 80fe c13e
000003d0: ab12 1140 8f93 413f b21a 803f a369 90be
000003e0: 92df 103e 84f0 eabf 3f7f bf3f 5380 3cbf
000003f0: 4331 70bf 2810 f23f d6e6 41be a6ab ec3d
0.73878396 0.039950807 0.73890924 0.6151751 0.8918661 -0.015016887 1.0084487 1.6454597
-1.9135761 0.7042929 0.94234556 -0.18534137 0.103590734 1.6791432 2.3075216 -0.3944516
0.5739076 -1.7578543 1.6387724 2.039882 -0.4727437 0.89474934 -0.89397085 -1.5289094
-1.6548306 -0.56250167 0.588858 0.17355715 -0.31359997 -1.4506733 -0.9982405 0.023192942
-0.1290464 -0.24506424 0.4499603 -2.1511874 0.28105325 -0.31103265 -0.07655312 0.13613105
-0.4841775 -0.9356957 0.012377947 1.5897247 -0.3573767 1.8250958 0.27322426 -0.2235566
1.5012652 0.4370976 -0.05668994 -0.052834984 -0.27166253 0.32629216 -1.4778352 1.4200704
-0.99869436 0.4799676 0.4460254 0.540339 0.65164167 1.0620921 1.160554 0.027815351
0.26868504 -0.61036134 -0.4846409 -0.06407086 -1.4114271 -1.5771595 0.8582994 0.80671084
1.041541 -0.32824743 -0.74726915 0.5409026 0.53174853 -0.44277892 1.0523866 0.3856696
-0.15407129 -1.9210938 -0.09867836 0.4417732 -0.70215434 1.1983678 -1.4516153 -0.3754739
0.16922183 0.33150607 -0.23129164 0.46539727 -1.0709178 -0.72896826 0.1641385 0.8387551
-2.0716076 -0.54305464 -1.0738572 -1.9512633 1.41076 0.28972977 0.3030488 -0.69635016
0.8124444 0.2468856 -1.4638674 0.21558067 0.33060476 -0.8120617 1.070564 1.3572888
0.3941281 0.02196785 -0.14729595 -0.751362 0.20481291 -0.039912086 1.7026119 -1.2066712
1.3640112 -0.6460577 0.18054391 0.09179264 -2.8978512 0.36047706 1.0108469 1.1108521
0.6922077 -0.38822854 -0.4527997 -0.42644152 -1.4828182 -1.7656324 0.28515705 -1.1780472
0.47161353 0.74899673 2.0000436 -0.59367865 0.75707227 -0.21325944 1.0339761 0.9915692
0.6485658 -2.144565 0.36340368 -2.3740776 0.12782982 -1.1903195 -1.2230092 1.430433
-0.46418002 1.1439453 -0.5214259 0.6393087 -0.7935487 -0.7385006 -1.7528056 -2.0381083
-0.32605633 -0.21925631 -0.31018737 -2.6681554 0.35063672 -0.50376296 0.071262196 -2.0161183
1.6450616 -0.85502505 -1.2279432 0.99585027 0.26012093 -0.84178585 1.0504831 -2.0084653
0.7627796 0.8136499 0.31942517 -1.4215372 -0.7450518 0.8918892 -1.8987701 1.1997765
-0.046576276 1.1089118 -0.28507513 0.34090564 -0.16691287 -1.3102107 -0.63557047 -0.80445814
0.98896277 0.2356091 -0.2749684 0.16553155 0.68800634 1.7726076 -0.24086629 0.65251535
2.0286028 0.2857704 -0.32077274 -1.3359755 -1.5335432 -0.45512205 -0.6939529 0.79619586
0.69774693 1.7003613 -0.35090625 0.5422589 -0.11309664 0.8408527 0.8175679 -0.2013654
-1.6801052 -0.21016194 2.1760716 -0.5553482 1.4219074 -0.7224392 0.73317444 -1.2885432
0.3944054 1.6998935 -1.3000284 0.29526952 1.703846 1.2455364 -1.4085573 0.5390046
0.66535765 1.8560194 -0.42583287 0.9015486 -0.1346352 -0.8458722 -1.0553315 0.24226154
-0.18624088 1.1239941 0.2882192 0.3788948 2.2667644 0.7561578 1.0008147 -0.28205594
0.14147785 -1.835465 1.4960707 -0.7363331 -0.9382517 1.891118 -0.18935713 0.11556177

network_body._body_endoder.seq_layers.0.bias f4 [256]
00000000: 0000 0000 0000 0000 0000 0000 0000 0000
00000010: 0000 0000 0000 0000 0000 0000 0000 0000
00000020: 0000 0000 0000 0000 0000 0000 0000 0000
00000030: 0000 0000 0000 0000 0000 0000 0000 0000
00000040: 0000 0000 0000 0000 0000 0000 0000 0000
00000050: 0000 0000 0000 0000 0000 0000 0000 0000
00000060: 0000 0000 0000 0000 0000 0000 0000 0000
00000070: 0000 0000 0000 0000 0000 0000 0000 0000
00000080: 0000 0000 0000 0000 0000 0000 0000 0000
00000090: 0000 0000 0000 0000 0000 0000 0000 0000
000000a0: 0000 0000 0000 0000 0000 0000 0000 0000
000000b0: 0000 0000 0000 0000 0000 0000 0000 0000
000000c0: 0000 0000 0000 0000 0000 0000 0000 0000
000000d0: 0000 0000 0000 0000 0000 0000 0000 0000
000000e0: 0000 0000 0000 0000 0000 0000 0000 0000
000000f0: 0000 0000 0000 0000 0000 0000 0000 0000
00000100: 0000 0000 0000 0000 0000 0000 0000 0000
00000110: 0000 0000 0000 0000 0000 0000 0000 0000
00000120: 0000 0000 0000 0000 0000 0000 0000 0000
00000130: 0000 0000 0000 0000 0000 0000 0000 0000
00000140: 0000 0000 0000 0000 0000 0000 0000 0000
00000150: 0000 0000 0000 0000 0000 0000 0000 0000
00000160: 0000 0000 0000 0000 0000 0000 0000 0000
00000170: 0000 0000 0000 0000 0000 0000 0000 0000
00000180: 0000 0000 0000 0000 0000 0000 0000 0000
00000190: 0000 0000 0000 0000 0000 0000 0000 0000
000001a0: 0000 0000 0000 0000 0000 0000 0000 0000
000001b0: 0000 0000 0000 0000 0000 0000 0000 0000
000001c0: 0000 0000 0000 0000 0000 0000 0000 0000
000001d0: 0000 0000 0000 0000 0000 0000 0000 0000
000001e0: 0000 0000 0000 0000 0000 0000 0000 0000
000001f0: 0000 0000 0000 0000 0000 0000 0000 0000
00000200: 0000 0000 0000 0000 0000 0000 0000 0000
00000210: 0000 0000 0000 0000 0000 0000 0000 0000
00000220: 0000 0000 0000 0000 0000 0000 0000 0000
00000230: 0000 0000 0000 0000 0000 0000 0000 0000
00000240: 0000 0000 0000 0000 0000 0000 0000 0000
00000250: 0000 0000 0000 0000 0000 0000 0000 0000
00000260: 0000 0000 0000 0000 0000 0000 0000 0000
00000270: 0000 0000 0000 0000 0000 0000 0000 0000
00000280: 0000 0000 0000 0000 0000 0000 0000 0000
00000290: 0000 0000 0000 0000 0000 0000 0000 0000
000002a0: 0000 0000 0000 0000 0000 0000 0000 0000
000002b0: 0000 0000 0000 0000 0000 0000 0000 0000
000002c0: 0000 0000 0000 0000 0000 0000 0000 0000
000002d0: 0000 0000 0000 0000 0000 0000 0000 0000
000002e0: 0000 0000 0000 0000 0000 0000 0000 0000
000002f0: 0000 0000 0000 0000 0000 0000 0000 0000
00000300: 0000 0000 0000 0000 0000 0000 0000 0000
00000310: 0000 0000 0000 0000 0000 0000 0000 0000
00000320: 0000 0000 0000 0000 0000 0000 0000 0000
00000330: 0000 0000 0000 0000 0000 0000 0000 0000
00000340: 0000 0000 0000 0000 0000 0000 0000 0000
00000350: 0000 0000 0000 0000 0000 0000 0000 0000
00000360: 0000 0000 0000 0000 0000 0000 0000 0000
00000370: 0000 0000 0000 0000 0000 0000 0000 0000
00000380: 0000 0000 0000 0000 0000 0000 0000 0000
00000390: 0000 0000 0000 0000 0000 0000 0000 0000
000003a0: 0000 0000 0000 0000 0000 0000 0000 0000
000003b0: 0000 0000 0000 0000 0000 0000 0000 0000
000003c0: 0000 0000 0000 0000 0000 0000 0000 0000
000003d0: 0000 0000 0000 0000 0000 0000 0000 0000
000003e0: 0000 0000 0000 0000 0000 0000 0000 0000
000003f0: 0000 0000 0000 0000 0000 0000 0000 0000
0.0 0.0 0.0 0.0 0.0 0.0 0.0 0.0
0.0 0.0 0.0 0.0 0.0 0.0 0.0 0.0
0.0 0.0 0.0 0.0 0.0 0.0 0.0 0.0
0.0 0.0 0.0 0.0 0.0 0.0 0.0 0.0
0.0 0.0 0.0 0.0 0.0 0.0 0.0 0.0
0.0 0.0 0.0 0.0 0.0 0.0 0.0 0.0
0.0 0.0 0.0 0.0 0.0 0.0 0.0 0.0
0.0 0.0 0.0 0.0 0.0 0.0 0.0 0.0
0.0 0.0 0.0 0.0 0.0 0.0 0.0 0.0
0.0 0.0 0.0 0.0 0.0 0.0 0.0 0.0
0.0 0.0 0.0 0.0 0.0 0.0 0.0 0.0
0.0 0.0 0.0 0.0 0.0 0.0 0.0 0.0
0.0 0.0 0.0 0.0 0.0 0.0 0.0 0.0
0.0 0.0 0.0 0.0 0.0 0.0 0.0 0.0
0.0 0.0 0.0 0.0 0.0 0.0 0.0 0.0
0.0 0.0 0.0 0.0 0.0 0.0 0.0 0.0
0.0 0.0 0.0 0.0 0.0 0.0 0.0 0.0
0.0 0.0 0.0 0.0 0.0 0.0 0.0 0.0
0.0 0.0 0.0 0.0 0.0 0.0 0.0 0.0
0.0 0.0 0.0 0.0 0.0 0.0 0.0 0.0
0.0 0.0 0.0 0.0 0.0 0.0 0.0 0.0
0.0 0.0 0.0 0.0 0.0 0.0 0.0 0.0
0.0 0.0 0.0 0.0 0.0 0.0 0.0 0.0
0.0 0.0 0.0 0.0 0.0 0.0 0.0 0.0
0.0 0.0 0.0 0.0 0.0 0.0 0.0 0.0
0.0 0.0 0.0 0.0 0.0 0.0 0.0 0.0
0.0 0.0 0.0 0.0 0.0 0.0 0.0 0.0
0.0 0.0 0.0 0.0 0.0 0.0 0.0 0.0
0.0 0.0 0.0 0.0 0.0 0.0 0.0 0.0
0.0 0.0 0.0 0.0 0.0 0.0 0.0 0.0
0.0 0.0 0.0 0.0 0.0 0.0 0.0 0.0
0.0 0.0 0.0 0.0 0.0 0.0 0.0 0.0

network_body._body_endoder.seq_layers.2.weight f4 [256, 256]
00000000: b4b0 75bd a623 a13b 8e96 383d 37b2 bc3c
00000010: 9775 edbc 325d ff3c fa7a 04bc 2e1c 163d
00000020: ccf1 d83d 9dc3 e43d 182b 063c ca7d d23c
00000030: 1ab2 5b3d 783b c0bc 4e89 973c 25ef 13bc
00000040: f993 013d 50f9 82bc 600d 1dbc da34 883d
00000050: 6ec9 8fbd 1f65 5ebd 6b62 5a3c 9f40 413d
00000060: e62c 83bd 4051 17be 04cb 1abd 2f1b f7bc
00000070: 529c 48bd f190 e1bd b2b0 33be 2d36 0c3d
00000080: 8ae9 bfbc 9c8f 27bd 16cc c13d f615 b8bd
00000090: 41fc 083d ca91 3f3c 1bf5 113c 5e20 0bbc
000000a0: 23ad 733c 1e0f 2bbd a2f0 b63b cb37 883d
000000b0: 9efa b43d 26f3 16bd 9ac3 623d 0f48 2d3c
000000c0: a533 93bb 0ccc 1abe 3f48 37bd 74f7 a8bd
000000d0: 887e d2bb 4be8 403d c249 00bd 9dfd d63c
000000e0: 4951 93bd 2aaa 4cbb 55ad 3cbd 1e5f 83bc
000000f0: 795a d6bd 8d90 85bd becd 42bd a96d 593c
00000100: bbc2 69bd 9379 24bd 983b 80bd 767a 8d3d
00000110: 4cf0 8ebb cea2 9c3d bbf5 0f3c 23e8 cd3c
00000120: e24a 24bd 6dbd b1bd 6cf9 873d 13c4 483d
00000130: dc2f 3bbe 80db debd a4a1 a5bd 2abb 85bd
00000140: 59c2 b3bd c8d4 123c ea3b afbc d58d 24bc
00000150: 503f 373a b806 83bd cd49 b53c 0d7a a4bd
00000160: bd36 593d 34c2 04bd 25de 9bbd 1459 2d3e
00000170: 0fa0 b5bd 245e 1dbd d65e 503d b65e 2d3c
00000180: a4d6 22bd b960 723d c2d4 563d d4ae 47bb
00000190: 9789 20bc 0dd9 a6bd 5db3 ed3c a73e dc3a
000001a0: d3c2 80bd 2e30 4fbd ddfc c9bc c8a8 573b
000001b0: 5ff2 c03c 4cbc 3eba 0cae 88bd 022c 843d
000001c0: bab2 b43c 0fe6 58bd d86f 2f3d a9fe 31bb
000001d0: 4ce2 453d ca41 38bd 1a38 a73d d84a f2bc
000001e0: dfe5 47bd 7859 2abc 7dee 963c b030 bd3d
000001f0: c5ad 733d 0e69 2a3d b1bb 053d 98b8 823c
00000200: 4ce2 ad3d 9cac 203e 2304 883c 79f4 74bc
00000210: 5ceb b63c a9b4 2ebd 7d64 8c3d df1c 243a
00000220: 570d 8d3c 21fe 2c3d bdb1 b93d 5360 bdbc
00000230: edfe 92b9 e07a 4cbd 1d6e e9ba f44f a13c
00000240: f090 863c 73a0 2abd 8fbf 643d 0f6f 2abd
00000250: 9fd5 6a3d a2df b13d 2805 b0bd f985 163d
00000260: b8a3 913d ddde f7bc 5a47 75bd 93c9 303d
00000270: dcc0 c7bc cde6 95bd b9d3 3dbd d765 94bb
00000280: 5153 71bd bb85 40bd 079f 0e3c 0008 133d
00000290: f1e3 10be b5a8 5c3d 7aeb de3d 17f4 b6bd
000002a0: 09e9 bf3d 9da2 f03c 411f 6c3c 6ba4 0ebc
000002b0: e858 803d f68d c2bb 3ca7 913d c363 7e3b
000002c0: 3368 7fbd 84c2 923c b709 1fbc bb4d 47bd
000002d0: 85d2 42bd 5bc8 afbd 81f1 d83c 86b8 be3d
000002e0: 7f68 9a3d 278a 963d beb8 863a 99ec 44bb
000002f0: eaa0 60bd cc58 a5bd 3f68 6abd 0f32 b5bd
00000300: 1c0e 8abd 6062 c33c a25e 773b d449 15be
00000310: 0962 803d 8eaa da3d 3196 7dbd 6454 b53d
00000320: 1355 41bb f133 373e 82c7 603d aff6 803d
00000330: 30ba 3b3d d435 bfbd c014 93bd 2fd7 dbbd
00000340: 42bc c43b 3352 90bd b40a f0bd fff5 9e3d
00000350: 926d c03d 43dd d93c 716a a8bc cd30 bb3c
00000360: 3d07 99bd 6d51 61bd 08ef 8ebc d4b6 593c
00000370: a807 cbbc 571e 163d 932f 8abc d7b8 2f3d
00000380: 4bc5 37bd 3e62 8a3c 4be5 a63d 6864 b4bd
00000390: 67e6 2bbc 4996 b33c 5f69 e13c e005 253d
000003a0: 4e04 b23d c718 e73c 57bd 18bd 0a75 e63c
000003b0: b9dd df3d 4362 0b3d cedf 5a3d bc8f 743c
000003c0: 9d66 c43d bfc9 d8bc b09e 06be 9f1d 103d
000003d0: f6d5 4ebd 22f5 b53d 50c8 57bd fe8f d43d
000003e0: efd8 d7bd cc5e a4bd 17a3 063e c377 d2bb
000003f0: ccc9 fbba 9156 4abd 19b4 2abd 3ddc 98bb
-0.05998297 0.0049175797 0.045065455 0.023034198 -0.028986735 0.031172369 -0.0080859605 0.036647968
0.10592994 0.11170123 0.008188985 0.025694747 0.053636648 -0.023465857 0.01849809 -0.0090291845
0.03163526 -0.015988022 -0.009585708 0.06650706 -0.070208415 -0.054295655 0.013329129 0.047180768
-0.06405048 -0.14777088 -0.037791267 -0.03016433 -0.048977204 -0.110139735 -0.17547873 0.034231354
-0.02342679 -0.04090844 0.094627544 -0.08988564 0.033443693 0.011692474 0.008908535 -0.008491604
0.014872822 -0.041762464 0.005582885 0.06651267 0.08836864 -0.03685298 0.05536232 0.010576262
-0.0044922405 -0.151169 -0.044746634 -0.08250323 -0.006423775 0.04709653 -0.03132034 0.02624398
-0.07193238 -0.0031229355 -0.04606374 -0.016036566 -0.10466475 -0.065217115 -0.047559492 0.013270774
-0.057070475 -0.040155005 -0.062613666 0.06908123 -0.0043621417 0.0764824 0.008786614 0.025135105
-0.040110476 -0.08678708 0.0663937 0.049015116 -0.18279976 -0.1088171 -0.08087471 -0.06529839
-0.08777303 0.008961864 -0.021390874 -0.010043581 0.00069903303 -0.06397766 0.022129918 -0.08031092
0.053030718 -0.03241177 -0.0761073 0.16928512 -0.088684194 -0.038419858 0.050871693 0.010581663
-0.03975548 0.059174273 0.052448995 -0.0030469196 -0.009798429 -0.08146868 0.029016191 0.001680334
-0.0628716 -0.050583057 -0.024656707 0.0032906998 0.023553072 -0.0007275983 -0.06673822 0.06453706
0.02205788 -0.052953776 0.042831272 -0.0027159846 0.048311517 -0.044984616 0.081649974 -0.029576704
-0.048803207 -0.010397308 0.018424267 0.09237802 0.05949189 0.041604094 0.0326497 0.015957162
0.08490428 0.15690845 0.016603535 -0.014950865 0.022329025 -0.04265276 0.06855104 0.00062604056
0.017218275 0.042234544 0.09067104 -0.02311722 -0.00028037225 -0.04992187 -0.0017809306 0.019691445
0.016426533 -0.041656923 0.055846747 -0.04160982 0.05733263 0.08685233 -0.085947335 0.03674886
0.07111305 -0.030257637 -0.0598825 0.043160986 -0.024383955 -0.073194124 -0.046344493 -0.004528742
-0.058917347 -0.047002535 0.008704907 0.0358963 -0.14149453 0.05387183 0.10884757 -0.08933275
0.0937062 0.029374415 0.014411748 -0.0087061925 0.062669575 -0.005937333 0.071119756 0.0038816787
-0.06235523 0.017915018 -0.009706906 -0.048658114 -0.04756405 -0.08583137 0.026482346 0.09312539
0.07539462 0.07350569 0.0010278446 -0.003004825 -0.05484096 -0.08073577 -0.057228323 -0.088474385
-0.067409724 0.02385062 0.0037745615 -0.14578944 0.06268699 0.10677062 -0.06191081 0.08853987
-0.002950017 0.17890908 0.054877765 0.06297051 0.04583186 -0.09336439 -0.07181692 -0.107344024
0.0060038874 -0.07046928 -0.117207915 0.07761764 0.09395899 0.026594764 -0.020558568 0.022850418
-0.07472084 -0.055009294 -0.017447963 0.0132882185 -0.024783924 0.036650028 -0.016868388 0.042900886
-0.044865888 0.016892549 0.08149203 -0.088082135 -0.010491944 0.021922247 0.027516065 0.040288806
0.08692227 0.028210057 -0.037289944 0.02813198 0.10930962 0.034029257 0.053436093 0.014926847
0.095898844 -0.026463388 -0.13146472 0.0351845 -0.050497018 0.08884646 -0.052681267 0.10379027
-0.10539424 -0.080258936 0.13148151 -0.006422968 -0.001920992 -0.049398962 -0.04167566 -0.0046649263

network_body._body_endoder.seq_layers.2.bias f4 [256]
00000000: 0000 0000 0000 0000 0000 0000 0000 0000
00000010: 0000 0000 0000 0000 0000 0000 0000 0000
00000020: 0000 0000 0000 0000 0000 0000 0000 0000
00000030: 0000 0000 0000 0000 0000 0000 0000 0000
00000040: 0000 0000 0000 0000 0000 0000 0000 0000
00000050: 0000 0000 0000 0000 0000 0000 0000 0000
00000060: 0000 0000 0000 0000 0000 0000 0000 0000
00000070: 0000 0000 0000 0000 0000 0000 0000 0000
00000080: 0000 0000 0000 0000 0000 0000 0000 0000
00000090: 0000 0000 0000 0000 0000 0000 0000 0000
000000a0: 0000 0000 0000 0000 0000 0000 0000 0000
000000b0: 0000 0000 0000 0000 0000 0000 0000 0000
000000c0: 0000 0000 0000 0000 0000 0000 0000 0000
000000d0: 0000 0000 0000 0000 0000 0000 0000 0000
000000e0: 0000 0000 0000 0000 0000 0000 0000 0000
000000f0: 0000 0000 0000 0000 0000 0000 0000 0000
00000100: 0000 0000 0000 0000 0000 0000 0000 0000
00000110: 0000 0000 0000 0000 0000 0000 0000 0000
00000120: 0000 0000 0000 0000 0000 0000 0000 0000
00000130: 0000 0000 0000 0000 0000 0000 0000 0000
00000140: 0000 0000 0000 0000 0000 0000 0000 0000
00000150: 0000 0000 0000 0000 0000 0000 0000 0000
00000160: 0000 0000 0000 0000 0000 0000 0000 0000
00000170: 0000 0000 0000 0000 0000 0000 0000 0000
00000180: 0000 0000 0000 0000 0000 0000 0000 0000
00000190: 0000 0000 0000 0000 0000 0000 0000 0000
000001a0: 0000 0000 0000 0000 0000 0000 0000 0000
000001b0: 0000 0000 0000 0000 0000 0000 0000 0000
000001c0: 0000 0000 0000 0000 0000 0000 0000 0000
000001d0: 0000 0000 0000 0000 0000 0000 0000 0000
000001e0: 0000 0000 0000 0000 0000 0000 0000 0000
000001f0: 0000 0000 0000 0000 0000 0000 0000 0000
00000200: 0000 0000 0000 0000 0000 0000 0000 0000
00000210: 0000 0000 0000 0000 0000 0000 0000 0000
00000220: 0000 0000 0000 0000 0000 0000 0000 0000
00000230: 0000 0000 0000 0000 0000 0000 0000 0000
00000240: 0000 0000 0000 0000 0000 0000 0000 0000
00000250: 0000 0000 0000 0000 0000 0000 0000 0000
00000260: 0000 0000 0000 0000 0000 0000 0000 0000
00000270: 0000 0000 0000 0000 0000 0000 0000 0000
00000280: 0000 0000 0000 0000 0000 0000 0000 0000
00000290: 0000 0000 0000 0000 0000 0000 0000 0000
000002a0: 0000 0000 0000 0000 0000 0000 0000 0000
000002b0: 0000 0000 0000 0000 0000 0000 0000 0000
000002c0: 0000 0000 0000 0000 0000 0000 0000 0000
000002d0: 0000 0000 0000 0000 0000 0000 0000 0000
000002e0: 0000 0000 0000 0000 0000 0000 0000 0000
000002f0: 0000 0000 0000 0000 0000 0000 0000 0000
00000300: 0000 0000 0000 0000 0000 0000 0000 0000
00000310: 0000 0000 0000 0000 0000 0000 0000 0000
00000320: 0000 0000 0000 0000 0000 0000 0000 0000
00000330: 0000 0000 0000 0000 0000 0000 0000 0000
00000340: 0000 0000 0000 0000 0000 0000 0000 0000
00000350: 0000 0000 0000 0000 0000 0000 0000 0000
00000360: 0000 0000 0000 0000 0000 0000 0000 0000
00000370: 0000 0000 0000 0000 0000 0000 0000 0000
00000380: 0000 0000 0000 0000 0000 0000 0000 0000
00000390: 0000 0000 0000 0000 0000 0000 0000 0000
000003a0: 0000 0000 0000 0000 0000 0000 0000 0000
000003b0: 0000 0000 0000 0000 0000 0000 0000 0000
000003c0: 0000 0000 0000 0000 0000 0000 0000 0000
000003d0: 0000 0000 0000 0000 0000 0000 0000 0000
000003e0: 0000 0000 0000 0000 0000 0000 0000 0000
000003f0: 0000 0000 0000 0000 0000 0000 0000 0000
0.0 0.0 0.0 0.0 0.0 0.0 0.0 0.0
0.0 0.0 0.0 0.0 0.0 0.0 0.0 0.0
0.0 0.0 0.0 0.0 0.0 0.0 0.0 0.0
0.0 0.0 0.0 0.0 0.0 0.0 0.0 0.0
0.0 0.0 0.0 0.0 0.0 0.0 0.0 0.0
0.0 0.0 0.0 0.0 0.0 0.0 0.0 0.0
0.0 0.0 0.0 0.0 0.0 0.0 0.0 0.0
0.0 0.0 0.0 0.0 0.0 0.0 0.0 0.0
0.0 0.0 0.0 0.0 0.0 0.0 0.0 0.0
0.0 0.0 0.0 0.0 0.0 0.0 0.0 0.0
0.0 0.0 0.0 0.0 0.0 0.0 0.0 0.0
0.0 0.0 0.0 0.0 0.0 0.0 0.0 0.0
0.0 0.0 0.0 0.0 0.0 0.0 0.0 0.0
0.0 0.0 0.0 0.0 0.0 0.0 0.0 0.0
0.0 0.0 0.0 0.0 0.0 0.0 0.0 0.0
0.0 0.0 0.0 0.0 0.0 0.0 0.0 0.0
0.0 0.0 0.0 0.0 0.0 0.0 0.0 0.0
0.0 0.0 0.0 0.0 0.0 0.0 0.0 0.0
0.0 0.0 0.0 0.0 0.0 0.0 0.0 0.0
0.0 0.0 0.0 0.0 0.0 0.0 0.0 0.0
0.0 0.0 0.0 0.0 0.0 0.0 0.0 0.0
0.0 0.0 0.0 0.0 0.0 0.0 0.0 0.0
0.0 0.0 0.0 0.0 0.0 0.0 0.0 0.0
0.0 0.0 0.0 0.0 0.0 0.0 0.0 0.0
0.0 0.0 0.0 0.0 0.0 0.0 0.0 0.0
0.0 0.0 0.0 0.0 0.0 0.0 0.0 0.0
0.0 0.0 0.0 0.0 0.0 0.0 0.0 0.0
0.0 0.0 0.0 0.0 0.0 0.0 0.0 0.0
0.0 0.0 0.0 0.0 0.0 0.0 0.0 0.0
0.0 0.0 0.0 0.0 0.0 0.0 0.0 0.0
0.0 0.0 0.0 0.0 0.0 0.0 0.0 0.0
0.0 0.0 0.0 0.0 0.0 0.0 0.0 0.0

action_model._continuous_distribution.log_sigma f4 [1, 3]
00000000: 0000 0000 0000 0000 0000 0000
0.0 0.0 0.0

action_model._continuous_distribution.mu.weight f4 [3, 256]
00000000: 1229 4f3c e1ac 95bb 27a2 26bc 9bfb 073c
00000010: 5366 4c3c 98ad 5c3c fd0d d33a d95a 17bc
00000020: 2872 6cbc d82a 933c 8c79 a13c a01b 233c
00000030: 486a a53b 42ff 1bbb a03f 2abc f3a0 9fbc
00000040: 3260 89bc 3d60 903c ba4f 6e3c 351c f839
00000050: 5c3c a7bb 5bac d0bc bae0 44ba 0f8c 2d3b
00000060: 6302 e8bb f33b 59bb 6767 b53c 85d4 33bb
00000070: 9ae0 edbb 585d 733c e76c 813c 9ae4 f1bb
00000080: 8240 9eba b7ba 593b dd46 edbb e3df 8d3c
00000090: f26d 623b d29d 0d3c 2300 2d3c 1e22 1abc
000000a0: f781 18bc 084c b23b fb4d 293c 6a4b 383c
000000b0: 8b63 963a cbaf 5bba 0702 283c 37f7 a73b
000000c0: 017e 873c 33d9 dd3b 82c9 113c b731 543b
000000d0: dfb3 c9bc fe8c 06bc 7b76 9cbc 11e7 223b
000000e0: 006c b3bb d06d c73c 5f48 d03c 92bd 8fba
000000f0: 42f9 f3ba 8f58 41bb 0ac5 563b dbbd 64bc
00000100: 802f bf3c 6ea4 06bc 55ec a0bb 0208 80bc
00000110: d0c2 253c 638f 8e3c dba3 6f3c ebb1 ef3b
00000120: f0d1 05bc 9f6b 903c e194 41bc a714 793c
00000130: ed7b b13c 90d1 2c3c dbf6 fdbb 2ffc 913c
00000140: 3372 13bc c30b 203a c8f7 ad3c 3739 ccbc
00000150: dfb2 0abc 5764 333c b37a e93b 581c 883c
00000160: b5b3 5abc efc8 813c 6730 adbc 3460 18bc
00000170: 9870 153c 33e8 6f3a 6831 293c 731c 47bb
00000180: f781 ca3b f35c 953c 3f0f dc3b 6db2 6dbc
00000190: d305 2a3c 6d27 bdbb 0378 24bb 2fed 943b
000001a0: 80b1 10bb e2c6 6cb9 a278 093b 7d85 df3b
000001b0: c6e4 09bd 9636 a33b 67a2 0bbc f914 2a3c
000001c0: 696e 993b af8e fc3a 3d9a 62bc 6317 d2bc
000001d0: cf0d 903c 9210 dfbc e257 1ebc 865c 9ebc
000001e0: 913c 47bc d00d 8f3a 6be6 b0bc f892 fabb
000001f0: 188c 9cba c2a1 10bc b768 e73c 63e5 a3bb
00000200: b3c0 aa3c 074a d1bb 7771 653c 308b 763c
00000210: 020e 843c fc5d a9bb 9f18 813c b423 b83c
00000220: 234a 67b8 0064 e7bb 5b7b bcba 7c61 c43b
00000230: d3df 943c 3737 8a3c 3050 c83a 9ff0 5dbb
00000240: 0769 653b 7d91 5abb fe03 223c a350 1abc
00000250: 4d85 b5bc 826a d7bb 89a7 053c 8743 77bb
00000260: 0587 9b3b e1d3 cb3c 1a2b d13b 56ab 983c
00000270: 6087 79bb ac3d 18bc 6786 3dbc 9439 bf3a
00000280: b2f1 ffbc 1b95 01bc 2b37 203b 692a caba
00000290: ffaf 5fbc 796d 293c 0716 a3bb 70e4 00bc
000002a0: 980e 5cbc 61a9 24bc d68a c63b 75d9 96bb
000002b0: 5f44 b9bb 8dab 63bc d559 613b 7a4a 383c
000002c0: e3e8 9b3b f3d1 4c3b 0eaa 90bc ac8c 1dbc
000002d0: 3763 003c 6337 603b 88c0 cb3c ef0f a93b
000002e0: 7214 cfba ffc4 d2bb 984b 5dbc 7bc7 96bc
000002f0: 632b 23bb e20d d13b 3c47 3ebc 7805 2cbc
00000300: 0791 aaba 577a 4bbb 395c a2bb 7717 a3bb
00000310: 2314 8eb9 5a22 873c 3352 72b9 b70a 9abb
00000320: 88d6 283c 7bd9 08bc f20b 053c 97e5 5b3c
00000330: e235 a9bb 3b83 3fbc eadc 1b3b f85e 38bc
00000340: 27b0 b33a 0214 69bb 2572 3abc 2bd6 9dbc
00000350: 7ba6 26bc e750 54bc 3dcb d63b fac1 1bbc
00000360: 06e3 a93b 75bf a73c 5114 2d3c 1dea ad3b
00000370: 722c 523b 3b5d 5a3b c025 9c3b 03f8 1cbc
00000380: 9235 2dbb 900b 943c ab30 8cbb a415 a3b7
00000390: 8f9b dfbb 5ad0 2fbc 7132 47bc aa37 7c3b
000003a0: 68d7 413c bfe5 20bc 0c8b 9f3b 5a29 98bb
000003b0: 128b 8a3b 69bc 87bc 8f47 a53c 312e 05bc
000003c0: 49e2 aabb db3f 193c 6dc2 ce3c 4d61 213a
000003d0: c175 bf3b a5a5 9b3b 7e56 883b dbb2 a8bb
000003e0: d218 34bb 5d2d d2bb bbbc c23b 0d34 a93b
000003f0: b2a3 a23b d850 76bb 1ff9 9d3b e2af 94bb
0.012644069 -0.004567728 -0.010170496 0.0082997335 0.012475568 0.013469122 0.0016102191 -0.009237968
-0.014431514 0.017964765 0.019711278 0.009955317 0.00504807 -0.0023803269 -0.010391146 -0.019485926
-0.016769502 0.017624015 0.0145453755 0.00047323262 -0.005103631 -0.02547281 -0.00075102935 0.0026481187
-0.0070803626 -0.0033147305 0.022144033 -0.0027439904 -0.0072594406 0.014853798 0.015798999 -0.0073819878
-0.0012073668 0.0033222863 -0.0072411136 0.017318672 0.0034550396 0.008643584 0.010559115 -0.009407548
-0.00930833 0.0054411925 0.010333533 0.011248449 0.0011473758 -0.0008380382 0.01025439 0.005125906
0.016539576 0.006770277 0.008898141 0.0032378265 -0.024621902 -0.008212326 -0.019099465 0.0024856965
-0.005475521 0.024344355 0.025425134 -0.001096653 -0.0018613713 -0.0029502248 0.0032771253 -0.013961281
0.02333808 -0.008217914 -0.0049109855 -0.015628818 0.010117248 0.017402356 0.0146264685 0.0073149106
-0.008167729 0.017629443 -0.011815281 0.015202678 0.021665538 0.0105480105 -0.0077503747 0.017820446
-0.008999395 0.0006105268 0.021236315 -0.024929626 -0.008465498 0.010949216 0.0071252226 0.016615078
-0.01334851 0.015842883 -0.021141244 -0.00930028 0.009121083 0.0009151727 0.010326721 -0.0030381947
0.006180044 0.018232798 0.0067156847 -0.014507872 0.010377365 -0.005772522 -0.0025095947 0.004544876
-0.0022078454 -0.00022580803 0.0020976444 0.006821333 -0.03366544 0.0049808724 -0.008522606 0.010380977
0.0046823514 0.0019268597 -0.013830719 -0.025645917 0.01758471 -0.027229581 -0.009664508 -0.019331228
-0.012160436 0.0010914151 -0.021594247 -0.0076469146 -0.0011943607 -0.008827629 0.028248174 -0.0050017103
0.02084384 -0.0063869986 0.014004103 0.015047833 0.01611996 -0.0051686745 0.01575881 0.022477962
-5.5143737e-05 -0.0070614815 -0.0014380025 0.0059930664 0.018173134 0.016872032 0.0015282687 -0.0033865345
0.0035005228 -0.0033350878 0.009888647 -0.009418639 -0.02215829 -0.006573976 0.008157619 -0.0037729458
0.00474632 0.024881305 0.006383312 0.018636387 -0.0038075075 -0.0092920475 -0.011567689 0.0014589303
-0.031243179 -0.007909085 0.0024446945 -0.0015424016 -0.013652801 0.010341042 -0.004976991 -0.007866964
-0.013431214 -0.010050149 0.006059031 -0.0046035596 -0.0056539024 -0.013895881 0.003438582 0.011248225
0.004757987 0.003125307 -0.017659213 -0.009616058 0.007836155 0.00342127 0.02487208 0.00515937
-0.001579894 -0.006432175 -0.0135067925 -0.018405667 -0.0024897687 0.006379829 -0.011613663 -0.010499351
-0.0013013192 -0.0031048262 -0.0049548415 -0.0049771625 -0.00027099354 0.016495872 -0.0002310954 -0.0047009843
0.0103050545 -0.008352633 0.008120524 0.013421438 -0.005163894 -0.011689003 0.0023782798 -0.011253111
0.0013709114 -0.0035564904 -0.011379753 -0.019267162 -0.010171528 -0.012958742 0.0065549896 -0.009506697
0.005184534 0.020477036 0.010563926 0.0053074495 0.0032069949 0.003331973 0.0047652423 -0.009580615
-0.0026429635 0.01807192 -0.0042782626 -1.9441191e-05 -0.006823964 -0.010730827 -0.012158022 0.0038485327
0.011831142 -0.009820401 0.0048688706 -0.0046436014 0.0042280043 -0.016569333 0.020175723 -0.008128689
-0.0052149636 0.009353603 0.025239194 0.00061561615 0.005842895 0.004749971 0.0041607013 -0.0051482744
-0.0027480614 -0.006414099 0.0059429086 0.0051636756 0.0049633617 -0.0037584808 0.0048209573 -0.0045375684

action_model._continuous_distribution.mu.bias f4 [3]
00000000: 0000 0000 0000 0000 0000 0000
0.0 0.0 0.0

network_body._body_endoder.seq_layers.0.weight f4 [256, 1]
00000000: 7aa6 a83f a320 023e 3299 9cbc a334 d4bf
00000010: d22d cfbf e449 80bf a289 4640 7eb4 b0bf
00000020: e979 ee3f e482 aebf b851 e7bf 52bf 99be
00000030: 37ab 90bf 968b 1bbf 2431 553f ff2c 42bf
00000040: 80ef da3e a669 a9bf 94f3 50be 2f77 cebe
00000050: 551b 2fbf ff30 c53f 0ae2 d0be 4de6 b13f
00000060: bd19 c33e 00b3 2dbf e477 e6bf 09b1 b4be
00000070: 894a 8fbe ff6c 2a3e 8376 623f e4b2 c3bf
00000080: ec5b 93be b729 43c0 8ac3 97bf b8ff 6f3e
00000090: 4f9a a23e 73db 223f f3a2 03bf 1a72 c3bd
000000a0: b72f 9e3e f0de ef3f 1031 21bf 45bc 653f
000000b0: b0ae a53f f0b2 1a3f 1dc3 66bf d705 bf3e
000000c0: 7a65 693f a69b a8be 22ac 393e 557c ab3f
000000d0: c3b1 a9bf eeaf 1fbf 45ec af3e a455 57bf
000000e0: 0a6b 7bbf 9a47 9e3c b286 af3e 68eb 153c
000000f0: 30ef 473e e885 9f3f 938e 40c0 8905 75bf
00000100: 3be2 febf 6ac3 853f 2995 22bf e1ae a23f
00000110: 169d d13f aa15 1a3e 23ec 6cbe f1f5 233f
00000120: 27cb a7be da66 553d d233 663f 865e 723f
00000130: 6752 323f f1ab 1d3d 66b0 f1bc c17b 873e
00000140: a403 0b3e 3363 c6bf 9639 c0bf ab8f 683e
00000150: 34b5 18bf cc8d 25bf 5815 bb3f 9b59 5a3f
00000160: 66b3 123e 6a86 153f 2201 dd3f d7f9 ad3e
00000170: aeca b9be ff1a d1be ca09 293f b456 0cbd
00000180: 7754 bf3e 1b1b 95bf bae1 043f d4e3 15bf
00000190: 6f11 24bf 64ec 153f 2709 1cbf 5f83 88bf
000001a0: dd27 d3be b9f0 053f d8a5 4bbf ee55 0fbf
000001b0: 9135 0bbf 3a4b 933e 1dc3 25bf 8dae 58bf
000001c0: 8682 42bf ad4f 90bf 7625 563e 026d 1a3f
000001d0: ac3e 7e3f 01fb 0fbf 5c46 9ebe 27d8 393f
000001e0: 7afc b3be 5055 383f f9df 91bf 9465 75bf
000001f0: a0e9 853d c4a5 5b3f 3b94 493e 4098 82bf
00000200: c12c 033f d3e6 83bc 43f3 54be b91f 00be
00000210: 50ad 423f 690c e1be bda6 8d3f f840 0d3f
00000220: ace4 d33c 24b5 28bf 8259 7e3e 47c6 f5be
00000230: 866b 96bf c767 ed3d 312b c93a 1c77 2abf
00000240: 04fe 273e 5261 1bbe e18f e23f 35f5 2a3f
00000250: 7a8e cf3e d3cb 81be 1a8c 783f 38c3 1bbf
00000260: acaa 4f3d 4bc1 2abf e5e7 d7bc 60bb 873f
00000270: 1aea e1be 3182 a1bd 3cd3 f3bf 1c6c 1a3f
00000280: 03c3 963e 8352 e2be b09e 243f 7962 473f
00000290: f764 123f ddda babf bd3c bc3f 973b 5cbf
000002a0: 5532 873f f5b2 2e3e 95d8 643e aec8 73bf
000002b0: 11f4 853e 52ba fb3e 870c 2a3f a59a d03e
000002c0: 884c 483f 9e62 be3f e27b d4be b8f9 82bf
000002d0: f181 47bf b1f8 6e3f 1d09 c53e a193 72bf
000002e0: bbed 24c0 649c babf bcd9 263f 974e 40bf
000002f0: 9a65 a53d 6f4b 1fbf 53d0 39bf 4aa7 98be
00000300: cb2b 1cc0 8d47 a73e 7410 80bf ac16 a23d
00000310: fac6 95bf 7564 38bf 47ba 8cbd a7d6 ce3e
00000320: 01a8 cbbf f14f 41bf dca6 a9be 3ff4 98bf
00000330: b39d 6cbf 3b6d 0f3f 7117 163f a62a 88be
00000340: d992 60bf 392b 823f 3c58 f03f a2f2 e63f
00000350: ba53 bbbf 0b9d 68bf 3da5 0abf 8070 623f
00000360: 86ff 3fbf f515 c0be c0b8 223f 75fc 1a3f
00000370: c39a 643e 13b9 0abf f3fa 49bf 3e9b 203f
00000380: 7939 8c3e b7ce 69bf 79ae 4f3f 24f5 a83f
00000390: 0757 833d c0df 09bf 1807 943f c1e0 cfbf
000003a0: 9179 943e 94bb 093e 986d 583f e41b 10bf
000003b0: d2a9 833e 4e4a 603e d209 69bf a0bf 97be
000003c0: 01ab 8d3f 5a6d 33bf 92de 6bc0 f28c b8be
000003d0: ec54 acbf 714f a13e 68e3 3dbe 8261 0340
000003e0: 1d31 c63e eb8e 05c0 bb5d edbf 1947 88bf
000003f0: a58b 9bbf 59a6 8dbf a026 07bf cfeb 1fbe
1.3175805 0.12707762 -0.019116018 -1.6578563 -1.6185858 -1.002255 3.1021504 -1.3805082
1.8630954 -1.3633695 -1.8071814 -0.30028778 -1.1302251 -0.60759866 0.8327811 -0.7584991
0.4276085 -1.3235366 -0.20405418 -0.40325305 -0.6840108 1.5405577 -0.40797454 1.3898407
0.38105574 -0.6785126 -1.8005338 -0.35291317 -0.27986553 0.16643141 0.88462085 -1.5288968
-0.28781068 -3.049421 -1.1856549 0.23437393 0.31758353 0.636161 -0.51420516 -0.095432475
0.3089578 1.873991 -0.6296549 0.897404 1.2943935 0.60429287 -0.9014147 0.37309143
0.91170466 -0.3293125 0.1813207 1.3397318 -1.3257374 -0.6237782 0.34359947 -0.8411505
-0.98210204 0.019321252 0.34282452 0.0091503635 0.19524837 1.246274 -3.008702 -0.9571157
-1.991279 1.0450261 -0.6350885 1.2709619 1.6376064 0.15047327 -0.23136954 0.6404715
-0.3277218 0.05210004 0.8992282 0.9467548 0.69656986 0.038494054 -0.029503059 0.26461604
0.13575608 -1.5499023 -1.5017574 0.22711055 -0.59651494 -0.6466949 1.4615889 0.8529298
0.14326248 0.58408225 1.7265971 0.33979675 -0.36287445 -0.4084091 0.6603056 -0.034262374
0.3736913 -1.1648897 0.5190693 -0.58550763 -0.640891 0.5856383 -0.60951465 -1.0665091
-0.4124135 0.5232044 -0.7954993 -0.55990493 -0.5437861 0.2876833 -0.64750844 -0.84641343
-0.7598041 -1.1274315 0.20912728 0.6032258 0.9931438 -0.56242377 -0.30913055 0.7259545
-0.35153562 0.72005177 -1.1396476 -0.9585812 0.06538701 0.85799813 0.19685452 -1.0202713
0.51240164 -0.016101277 -0.20795922 -0.12512101 0.76045704 -0.4395478 1.106651 0.5517726
0.025865875 -0.659014 0.24838832 -0.48002836 -1.1751564 0.115920596 0.0015347955 -0.66587996
0.16405493 -0.15173844 1.7700158 0.66780406 0.40538388 -0.25350818 0.9708878 -0.60844755
0.050699875 -0.6670119 -0.026355693 1.0604057 -0.44123918 -0.0788616 -1.9048839 0.6032121
0.29445657 -0.44203576 0.6430464 0.7788463 0.5718531 -1.4598042 1.4706036 -0.86028427
1.0562235 0.17060454 0.22348244 -0.9522809 0.2616277 0.4916559 0.66425365 0.40742984
0.7824178 1.4873846 -0.41500765 -1.0232458 -0.7793265 0.9334822 0.38483515 -0.94756514
-2.57701 -1.4578977 0.65175986 -0.7511992 0.080760196 -0.6222448 -0.725835 -0.2981513
-2.440173 0.32671776 -1.0005021 0.079144806 -1.1701348 -0.72028285 -0.06871467 0.40398142
-1.5910646 -0.75512606 -0.33135116 -1.1949538 -0.9242813 0.5602605 0.5862952 -0.26595038
-0.8772407 1.016944 1.8776927 1.8042796 -1.4634926 -0.9086463 -0.54158384 0.8845291
-0.7499927 -0.37516752 0.63563156 0.6054147 0.22324662 -0.5418865 -0.78898543 0.6273688
0.27387598 -0.91331047 0.811256 1.3199811 0.064130835 -0.5385704 1.1564665 -1.6240464
0.28998998 0.13450462 0.84542227 -0.5629256 0.257155 0.21903345 -0.9103061 -0.29638386
1.1067811 -0.7008873 -3.6854596 -0.36045033 -1.3463416 0.3150592 -0.1854378 2.0528264
0.38709345 -2.086848 -1.8544229 -1.0646697 -1.2151991 -1.106639 -0.5279331 -0.15617298

network_body._body_endoder.seq_layers.0.bias f4 [256]
00000000: 0000 0000 0000 0000 0000 0000 0000 0000
00000010: 0000 0000 0000 0000 0000 0000 0000 0000
00000020: 0000 0000 0000 0000 0000 0000 0000 0000
00000030: 0000 0000 0000 0000 0000 0000 0000 0000
00000040: 0000 0000 0000 0000 0000 0000 0000 0000
00000050: 0000 0000 0000 0000 0000 0000 0000 0000
00000060: 0000 0000 0000 0000 0000 0000 0000 0000
00000070: 0000 0000 0000 0000 0000 0000 0000 0000
00000080: 0000 0000 0000 0000 0000 0000 0000 0000
00000090: 0000 0000 0000 0000 0000 0000 0000 0000
000000a0: 0000 0000 0000 0000 0000 0000 0000 0000
000000b0: 0000 0000 0000 0000 0000 0000 0000 0000
000000c0: 0000 0000 0000 0000 0000 0000 0000 0000
000000d0: 0000 0000 0000 0000 0000 0000 0000 0000
000000e0: 0000 0000 0000 0000 0000 0000 0000 0000
000000f0: 0000 0000 0000 0000 0000 0000 0000 0000
00000100: 0000 0000 0000 0000 0000 0000 0000 0000
00000110: 0000 0000 0000 0000 0000 0000 0000 0000
00000120: 0000 0000 0000 0000 0000 0000 0000 0000
00000130: 0000 0000 0000 0000 0000 0000 0000 0000
00000140: 0000 0000 0000 0000 0000 0000 0000 0000
00000150: 0000 0000 0000 0000 0000 0000 0000 0000
00000160: 0000 0000 0000 0000 0000 0000 0000 0000
00000170: 0000 0000 0000 0000 0000 0000 0000 0000
00000180: 0000 0000 0000 0000 0000 0000 0000 0000
00000190: 0000 0000 0000 0000 0000 0000 0000 0000
000001a0: 0000 0000 0000 0000 0000 0000 0000 0000
000001b0: 0000 0000 0000 0000 0000 0000 0000 0000
000001c0: 0000 0000 0000 0000 0000 0000 0000 0000
000001d0: 0000 0000 0000 0000 0000 0000 0000 0000
000001e0: 0000 0000 0000 0000 0000 0000 0000 0000
000001f0: 0000 0000 0000 0000 0000 0000 0000 0000
00000200: 0000 0000 0000 0000 0000 0000 0000 0000
00000210: 0000 0000 0000 0000 0000 0000 0000 0000
00000220: 0000 0000 0000 0000 0000 0000 0000 0000
00000230: 0000 0000 0000 0000 0000 0000 0000 0000
00000240: 0000 0000 0000 0000 0000 0000 0000 0000
00000250: 0000 0000 0000 0000 0000 0000 0000 0000
00000260: 0000 0000 0000 0000 0000 0000 0000 0000
00000270: 0000 0000 0000 0000 0000 0000 0000 0000
00000280: 0000 0000 0000 0000 0000 0000 0000 0000
00000290: 0000 0000 0000 0000 0000 0000 0000 0000
000002a0: 0000 0000 0000 0000 0000 0000 0000 0000
000002b0: 0000 0000 0000 0000 0000 0000 0000 0000
000002c0: 0000 0000 0000 0000 0000 0000 0000 0000
000002d0: 0000 0000 0000 0000 0000 0000 0000 0000
000002e0: 0000 0000 0000 0000 0000 0000 0000 0000
000002f0: 0000 0000 0000 0000 0000 0000 0000 0000
00000300: 0000 0000 0000 0000 0000 0000 0000 0000
00000310: 0000 0000 0000 0000 0000 0000 0000 0000
00000320: 0000 0000 0000 0000 0000 0000 0000 0000
00000330: 0000 0000 0000 0000 0000 0000 0000 0000
00000340: 0000 0000 0000 0000 0000 0000 0000 0000
00000350: 0000 0000 0000 0000 0000 0000 0000 0000
00000360: 0000 0000 0000 0000 0000 0000 0000 0000
00000370: 0000 0000 0000 0000 0000 0000 0000 0000
00000380: 0000 0000 0000 0000 0000 0000 0000 0000
00000390: 0000 0000 0000 0000 0000 0000 0000 0000
000003a0: 0000 0000 0000 0000 0000 0000 0000 0000
000003b0: 0000 0000 0000 0000 0000 0000 0000 0000
000003c0: 0000 0000 0000 0000 0000 0000 0000 0000
000003d0: 0000 0000 0000 0000 0000 0000 0000 0000
000003e0: 0000 0000 0000 0000 0000 0000 0000 0000
000003f0: 0000 0000 0000 0000 0000 0000 0000 0000
0.0 0.0 0.0 0.0 0.0 0.0 0.0 0.0
0.0 0.0 0.0 0.0 0.0 0.0 0.0 0.0
0.0 0.0 0.0 0.0 0.0 0.0 0.0 0.0
0.0 0.0 0.0 0.0 0.0 0.0 0.0 0.0
0.0 0.0 0.0 0.0 0.0 0.0 0.0 0.0
0.0 0.0 0.0 0.0 0.0 0.0 0.0 0.0
0.0 0.0 0.0 0.0 0.0 0.0 0.0 0.0
0.0 0.0 0.0 0.0 0.0 0.0 0.0 0.0
0.0 0.0 0.0 0.0 0.0 0.0 0.0 0.0
0.0 0.0 0.0 0.0 0.0 0.0 0.0 0.0
0.0 0.0 0.0 0.0 0.0 0.0 0.0 0.0
0.0 0.0 0.0 0.0 0.0 0.0 0.0 0.0
0.0 0.0 0.0 0.0 0.0 0.0 0.0 0.0
0.0 0.0 0.0 0.0 0.0 0.0 0.0 0.0
0.0 0.0 0.0 0.0 0.0 0.0 0.0 0.0
0.0 0.0 0.0 0.0 0.0 0.0 0.0 0.0
0.0 0.0 0.0 0.0 0.0 0.0 0.0 0.0
0.0 0.0 0.0 0.0 0.0 0.0 0.0 0.0
0.0 0.0 0.0 0.0 0.0 0.0 0.0 0.0
0.0 0.0 0.0 0.0 0.0 0.0 0.0 0.0
0.0 0.0 0.0 0.0 0.0 0.0 0.0 0.0
0.0 0.0 0.0 0.0 0.0 0.0 0.0 0.0
0.0 0.0 0.0 0.0 0.0 0.0 0.0 0.0
0.0 0.0 0.0 0.0 0.0 0.0 0.0 0.0
0.0 0.0 0.0 0.0 0.0 0.0 0.0 0.0
0.0 0.0 0.0 0.0 0.0 0.0 0.0 0.0
0.0 0.0 0.0 0.0 0.0 0.0 0.0 0.0
0.0 0.0 0.0 0.0 0.0 0.0 0.0 0.0
0.0 0.0 0.0 0.0 0.0 0.0 0.0 0.0
0.0 0.0 0.0 0.0 0.0 0.0 0.0 0.0
0.0 0.0 0.0 0.0 0.0 0.0 0.0 0.0
0.0 0.0 0.0 0.0 0.0 0.0 0.0 0.0

network_body._body_endoder.seq_layers.2.weight f4 [256, 256]
00000000: c52b 06bd ea3b 473d 3579 d3bc 33cc ae3d
00000010: 0bed 57bc 1277 f6bd a0ed b0bd 0ff7 3b3d
00000020: 1a00 89bd cb0f b73d 8ce8 5abd 6b43 0bbd
00000030: abb9 c83c b2ab b5bd 8c32 673d c4d8 d73c
00000040: 337c 563d 8561 353d f789 933d 5055 2abd
00000050: bc9f 4e3d 7b18 ac39 a546 5c3b 3f22 0ebc
00000060: 0293 e33c ab90 81bd 14d8 88bc 0e07 70bd
00000070: c04b 8fbd 17d4 bcbd b563 fbbd fa52 a7bd
00000080: 8c55 a33d b31d 37bd 4e26 8c3d 2c47 9fbd
00000090: aae9 ae3c aa4c 2f3d 4f02 c23c 666d 95bd
000000a0: daf0 173d 82dc 3dbd c292 f63b d86c 153d
000000b0: faeb 153c 8c60 bd3d acf5 09bd e768 2d3d
000000c0: 5a4a 40bd f29f 4e3d 1f7b 79bd 3961 613d
000000d0: 973f fbbc 8c85 433b 328a 9cbd ddb6 f8bc
000000e0: f6cb 083e 40b5 533d a2e6 6bbd cd4e 363d
000000f0: a40c 053d 5732 d1bc 94e8 35bd 58ac 9c3d
00000100: 74e9 90bd d87d 2d3d 1772 a9bd bdf1 d33d
00000110: 16fa a93c d55d 00bd 9fd9 4e3d 32f2 16bb
00000120: ffbf 373d 96c7 d03c fc63 f1bc 845e 80bd
00000130: beab c73c c84a 5d3d f0b8 b8bd 29b6 e2bd
00000140: cd27 83bb 9fcc 50bd 19ef bc3d 7d0a fa3c
00000150: e73c 833d b602 92bc 7e4d 75bc 30cb 96bc
00000160: 7d6a 8d3d be86 533c d6d2 913d 4e11 803d
00000170: b192 60be c020 61bc 39b4 3ebd 9f67 0bbd
00000180: 2472 4cbd 264d 803d 0e93 f3bd 4253 b9bc
00000190: c8dd a03c 9b5c 52bd 7a7e 853c ad10 a43d
000001a0: c9bc 4abd 2c94 62bb 1cee d03c c130 b83a
000001b0: 5845 0c3d 7dd6 8f3c c761 4f3d ce99 223c
000001c0: fdb3 eb3b e011 84bc 633c 2e3c 14c4 18bd
000001d0: 724e e43b 6d79 b93d a651 913c 314a 6ebd
000001e0: c318 a5bd cfad 753c 6c85 cbbd 2aa0 8a3d
000001f0: 0e82 a43c 67a3 04bd 5480 18bd 9c9d 9b3d
00000200: 522f 86bd c430 ab3d 3bee 603d b398 893c
00000210: 4729 81bc 9447 0dbe 7d44 6cbd 8689 d33d
00000220: 993c 853d f93e 103d 9b34 5b3a 40a5 02bd
00000230: d414 83bd 08be 743d 9067 df3d b9e6 f4bc
00000240: ef6c 0f3d 9a31 98bd a4b0 743d d6e1 82bd
00000250: 5f9b 4d3d 2ac0 0c3d efea a6bd 70d2 37bd
00000260: ca88 15bc 1ba1 55bb fcb4 513d 725b a0bc
00000270: f413 a9bd 7d66 233d 6e3b 183c 316e 99bd
00000280: 7437 a23a 3ce7 583d bd0b 8bbc ddac 62bc
00000290: e994 00be 446d 823d 9b2e 22bd f516 98bd
000002a0: e154 4e3d ae86 663b 649a f3bd f1cd 0d3e
000002b0: a306 c6bd b122 ae3d 4856 c7bc 1d00 a8bc
000002c0: a195 53bd 59da 603d 226a 583d 2f07 e33d
000002d0: f9a9 20bd c1e0 d1bc 256d c23d 4a14 6f3c
000002e0: 136b 23bd 35ea 14bc efb1 ac3d 4957 8ebd
000002f0: a9fe 03bd 1b27 213d 16c4 493d bb78 043d
00000300: 3cdd 4bbd 5ce0 8dbb d649 e73d 359f bcbd
00000310: 8c87 e8ba 6ea8 bf3d a760 733c e7e6 8cbc
00000320: 8746 b7ba 53ad 5f3d 97c2 19bd d9fd 8cbd
00000330: 9c42 803d f595 7abd a707 09be dacc 99bb
00000340: 42eb 58bd da98 84bc 7cff 34bd 0d33 273c
00000350: b55a ba3d 9ee0 32bd ee95 363b 65c6 87bc
00000360: b16e 10bd c966 3e3d 5a8e 023c 5c8a c83c
00000370: a5e7 56bc 4c67 1dbe 91b3 0c3e 01f4 ddbc
00000380: 308e 4dbd 5261 e0bd 07d5 bfbd 9745 4a3c
00000390: 1730 24bd 8347 cfbc 3852 963d db1e cf3c
000003a0: 9287 acbd 9cf2 89bb f917 4a3d e667 b03b
000003b0: a805 d73d 4c1b e33d 2393 b23d 0670 1a3e
000003c0: afa3 83bd cd73 3f3d 4d01 823d 5639 a83c
000003d0: c79f 863b 13a3 10bd 51ef 303c 63a6 f4bc
000003e0: c4e3 a13d b24c dabd d7f7 bbbb 4317 b6bd
000003f0: a56e cc3d 7172 763d acaf a13c 2e51 b8ba
-0.032756586 0.048641123 -0.025814632 0.08535042 -0.013179074 -0.120344296 -0.08639073 0.04588991
-0.066894725 0.08938559 -0.05344443 -0.03399984 0.024502596 -0.08870639 0.05644469 0.02634848
0.05236454 0.044282455 0.07204049 -0.041585267 0.050445303 0.00032824636 0.0033611443 -0.008675157
0.02778006 -0.06326421 -0.016704597 -0.058600478 -0.0699687 -0.092201404 -0.12274877 -0.081701234
0.07975301 -0.044706058 0.068432435 -0.07777247 0.021351654 0.042797722 0.023682741 -0.07296257
0.03709493 -0.04635287 0.007524819 0.036480755 0.0091504995 0.092469305 -0.033681557 0.04233637
-0.046945907 0.050445504 -0.060908433 0.05502436 -0.03066997 0.0029834239 -0.07643546 -0.030360634
0.13359055 0.051686525 -0.057592995 0.044508744 0.03248276 -0.0255367 -0.044411257 0.076500595
-0.07075778 0.042356342 -0.08273714 0.10348842 0.020749133 -0.031339485 0.05050051 -0.0023032543
0.044860836 0.025485795 -0.029466622 -0.062680274 0.024373885 0.054026395 -0.09019649 -0.110699005
-0.0040025474 -0.050976392 0.09225292 0.03052258 0.064081006 -0.017823558 -0.014972089 -0.018407434
0.06905077 0.012910543 0.07120292 0.062533006 -0.21930958 -0.013740718 -0.046558592 -0.034034368
-0.04991354 0.06264715 -0.11893283 -0.022622708 0.019637004 -0.051357847 0.01629566 0.08010993
-0.049496446 -0.003457318 0.025504164 0.0014052616 0.03424582 0.01755833 0.050630357 0.009924365
0.007193087 -0.016121805 0.0106345145 -0.03729637 0.006967359 0.09056363 0.017739128 -0.058176223
-0.080613635 0.0149950525 -0.099375576 0.0676883 0.020081546 -0.032382395 -0.03723176 0.07598421
-0.065519944 0.08358911 0.054914694 0.016796445 -0.015766753 -0.13796836 -0.057682503 0.10328965
0.06505699 0.035216305 0.0008362026 -0.031895876 -0.06400457 0.05975154 0.10908425 -0.029895173
0.035015997 -0.07431336 0.05973877 -0.06390731 0.050197 0.03436295 -0.08150279 -0.044878423
-0.009126851 -0.0032597247 0.05119799 -0.019574855 -0.08255759 0.039892662 0.009291513 -0.074917205
0.0012376145 0.052954897 -0.01697337 -0.013835159 -0.12556805 0.06368497 -0.039595228 -0.07426254
0.050373916 0.003517549 -0.11894682 0.13848092 -0.096692346 0.085027106 -0.024333134 -0.020507867
-0.05165637 0.054895733 0.05283559 0.110853545 -0.0392246 -0.025619866 0.09493474 0.01459224
-0.039897036 -0.009089042 0.08432376 -0.06950242 -0.032225285 0.039343935 0.049259268 0.0323417
-0.049771532 -0.0043297242 0.1129338 -0.09210054 -0.0017740591 0.09358297 0.014854587 -0.017199947
-0.0013982811 0.054608654 -0.03753909 -0.06884355 0.06262705 -0.061178166 -0.13381825 -0.0046936097
-0.052958734 -0.016186167 -0.04418896 0.010205043 0.09099332 -0.043671243 0.002786036 -0.016574094
-0.035261814 0.046484742 0.00796851 0.024480037 -0.013116752 -0.15371436 0.13740374 -0.02709389
-0.05018443 -0.109560624 -0.093668036 0.012345693 -0.040084925 -0.025302654 0.07339901 0.025283268
-0.084242955 -0.0042098295 0.04933927 0.0053834794 0.10499126 0.11089191 0.0871947 0.15081796
-0.064277045 0.046741296 0.06347904 0.020535152 0.0041084024 -0.03531177 0.010799245 -0.029864496
0.07904771 -0.1065916 -0.005736332 -0.088911556 0.09982041 0.060167734 0.019737087 -0.0014062279

network_body._body_endoder.seq_layers.2.bias f4 [256]
00000000: 0000 0000 0000 0000 0000 0000 0000 0000
00000010: 0000 0000 0000 0000 0000 0000 0000 0000
00000020: 0000 0000 0000 0000 0000 0000 0000 0000
00000030: 0000 0000 0000 0000 0000 0000 0000 0000
00000040: 0000 0000 0000 0000 0000 0000 0000 0000
00000050: 0000 0000 0000 0000 0000 0000 0000 0000
00000060: 0000 0000 0000 0000 0000 0000 0000 0000
00000070: 0000 0000 0000 0000 0000 0000 0000 0000
00000080: 0000 0000 0000 0000 0000 0000 0000 0000
00000090: 0000 0000 0000 0000 0000 0000 0000 0000
000000a0: 0000 0000 0000 0000 0000 0000 0000 0000
000000b0: 0000 0000 0000 0000 0000 0000 0000 0000
000000c0: 0000 0000 0000 0000 0000 0000 0000 0000
000000d0: 0000 0000 0000 0000 0000 0000 0000 0000
000000e0: 0000 0000 0000 0000 0000 0000 0000 0000
000000f0: 0000 0000 0000 0000 0000 0000 0000 0000
00000100: 0000 0000 0000 0000 0000 0000 0000 0000
00000110: 0000 0000 0000 0000 0000 0000 0000 0000
00000120: 0000 0000 0000 0000 0000 0000 0000 0000
00000130: 0000 0000 0000 0000 0000 0000 0000 0000
00000140: 0000 0000 0000 0000 0000 0000 0000 0000
00000150: 0000 0000 0000 0000 0000 0000 0000 0000
00000160: 0000 0000 0000 0000 0000 0000 0000 0000
00000170: 0000 0000 0000 0000 0000 0000 0000 0000
00000180: 0000 0000 0000 0000 0000 0000 0000 0000
00000190: 0000 0000 0000 0000 0000 0000 0000 0000
000001a0: 0000 0000 0000 0000 0000 0000 0000 0000
000001b0: 0000 0000 0000 0000 0000 0000 0000 0000
000001c0: 0000 0000 0000 0000 0000 0000 0000 0000
000001d0: 0000 0000 0000 0000 0000 0000 0000 0000
000001e0: 0000 0000 0000 0000 0000 0000 0000 0000
000001f0: 0000 0000 0000 0000 0000 0000 0000 0000
00000200: 0000 0000 0000 0000 0000 0000 0000 0000
00000210: 0000 0000 0000 0000 0000 0000 0000 0000
00000220: 0000 0000 0000 0000 0000 0000 0000 0000
00000230: 0000 0000 0000 0000 0000 0000 0000 0000
00000240: 0000 0000 0000 0000 0000 0000 0000 0000
00000250: 0000 0000 0000 0000 0000 0000 0000 0000
00000260: 0000 0000 0000 0000 0000 0000 0000 0000
00000270: 0000 0000 0000 0000 0000 0000 0000 0000
00000280: 0000 0000 0000 0000 0000 0000 0000 0000
00000290: 0000 0000 0000 0000 0000 0000 0000 0000
000002a0: 0000 0000 0000 0000 0000 0000 0000 0000
000002b0: 0000 0000 0000 0000 0000 0000 0000 0000
000002c0: 0000 0000 0000 0000 0000 0000 0000 0000
000002d0: 0000 0000 0000 0000 0000 0000 0000 0000
000002e0: 0000 0000 0000 0000 0000 0000 0000 0000
000002f0: 0000 0000 0000 0000 0000 0000 0000 0000
00000300: 0000 0000 0000 0000 0000 0000 0000 0000
00000310: 0000 0000 0000 0000 0000 0000 0000 0000
00000320: 0000 0000 0000 0000 0000 0000 0000 0000
00000330: 0000 0000 0000 0000 0000 0000 0000 0000
00000340: 0000 0000 0000 0000 0000 0000 0000 0000
00000350: 0000 0000 0000 0000 0000 0000 0000 0000
00000360: 0000 0000 0000 0000 0000 0000 0000 0000
00000370: 0000 0000 0000 0000 0000 0000 0000 0000
00000380: 0000 0000 0000 0000 0000 0000 0000 0000
00000390: 0000 0000 0000 0000 0000 0000 0000 0000
000003a0: 0000 0000 0000 0000 0000 0000 0000 0000
000003b0: 0000 0000 0000 0000 0000 0000 0000 0000
000003c0: 0000 0000 0000 0000 0000 0000 0000 0000
000003d0: 0000 0000 0000 0000 0000 0000 0000 0000
000003e0: 0000 0000 0000 0000 0000 0000 0000 0000
000003f0: 0000 0000 0000 0000 0000 0000 0000 0000
0.0 0.0 0.0 0.0 0.0 0.0 0.0 0.0
0.0 0.0 0.0 0.0 0.0 0.0 0.0 0.0
0.0 0.0 0.0 0.0 0.0 0.0 0.0 0.0
0.0 0.0 0.0 0.0 0.0 0.0 0.0 0.0
0.0 0.0 0.0 0.0 0.0 0.0 0.0 0.0
0.0 0.0 0.0 0.0 0.0 0.0 0.0 0.0
0.0 0.0 0.0 0.0 0.0 0.0 0.0 0.0
0.0 0.0 0.0 0.0 0.0 0.0 0.0 0.0
0.0 0.0 0.0 0.0 0.0 0.0 0.0 0.0
0.0 0.0 0.0 0.0 0.0 0.0 0.0 0.0
0.0 0.0 0.0 0.0 0.0 0.0 0.0 0.0
0.0 0.0 0.0 0.0 0.0 0.0 0.0 0.0
0.0 0.0 0.0 0.0 0.0 0.0 0.0 0.0
0.0 0.0 0.0 0.0 0.0 0.0 0.0 0.0
0.0 0.0 0.0 0.0 0.0 0.0 0.0 0.0
0.0 0.0 0.0 0.0 0.0 0.0 0.0 0.0
0.0 0.0 0.0 0.0 0.0 0.0 0.0 0.0
0.0 0.0 0.0 0.0 0.0 0.0 0.0 0.0
0.0 0.0 0.0 0.0 0.0 0.0 0.0 0.0
0.0 0.0 0.0 0.0 0.0 0.0 0.0 0.0
0.0 0.0 0.0 0.0 0.0 0.0 0.0 0.0
0.0 0.0 0.0 0.0 0.0 0.0 0.0 0.0
0.0 0.0 0.0 0.0 0.0 0.0 0.0 0.0
0.0 0.0 0.0 0.0 0.0 0.0 0.0 0.0
0.0 0.0 0.0 0.0 0.0 0.0 0.0 0.0
0.0 0.0 0.0 0.0 0.0 0.0 0.0 0.0
0.0 0.0 0.0 0.0 0.0 0.0 0.0 0.0
0.0 0.0 0.0 0.0 0.0 0.0 0.0 0.0
0.0 0.0 0.0 0.0 0.0 0.0 0.0 0.0
0.0 0.0 0.0 0.0 0.0 0.0 0.0 0.0
0.0 0.0 0.0 0.0 0.0 0.0 0.0 0.0
0.0 0.0 0.0 0.0 0.0 0.0 0.0 0.0
