UnityEnv/results/drone_goal_xxx/drone_goal/drone_goal-3192.onnx (onnx, 272641 bytes, 6 tensors)

network_body._body_endoder.seq_layers.0.weight f4 [256, 1]
-0.1665987 -0.6792275 -1.9056247 -1.4868206 -0.36114234 -0.41125593 -0.3475713 1.5793848
0.07593561 -0.9180776 0.33313018 0.6637207 1.4840358 0.5333359 0.30628514 0.4820843
0.01048292 -0.32911447 1.813169 -0.59005386 -0.3176315 -1.8345834 1.3379474 0.15765107
-0.8741183 2.1203597 0.092981465 1.3696234 1.2352405 0.13166043 -0.67173296 0.36281136
-0.33949623 -1.466027 -0.3766133 -0.20611319 -1.2522428 -0.88402736 -0.76549286 0.1513209
-0.46690905 0.50279415 -0.030840185 1.1751186 1.426006 -0.9090078 0.46542257 -1.3332773
0.65457463 -2.8771844 1.3047495 -1.1092288 -0.16421947 -1.1110214 -2.0273123 0.15150957
-0.060269106 -0.6949311 0.70859945 0.092539065 0.8495525 0.31061417 0.1516069 -1.2898124
0.39258087 1.234021 0.3658992 0.31784716 -0.6044117 1.7864141 0.28843227 0.058462545
-1.2425032 -1.0051475 1.3048041 -0.8987929 -1.740591 1.0530021 0.48542893 -0.3632358
1.6849979 0.53225434 1.5413713 -2.6301968 -0.4384053 -0.271314 -0.58765143 0.17979622
2.4908817 -0.5520846 -1.0697991 0.43411982 0.48292735 0.22259465 -0.089267984 2.6190236
1.5546565 1.2370304 -0.6753201 -0.34032944 0.07059488 -0.6306691 0.84678704 -0.44186068
-0.9578243 0.5608423 -1.1140138 1.5082214 -0.6995947 -0.5213762 -1.435252 -0.1473318
-0.21483564 1.1957345 0.45062137 0.88990986 1.5264094 -0.37999174 -1.0852845 0.27244446
2.1706865 -2.574758 0.3843406 0.5470253 0.5811553 0.20463423 0.6944639 -0.46966946
-0.9834741 -1.7337344 0.730027 1.267782 -0.2885039 0.08827353 0.5571123 -0.5872583
0.011797796 0.63601506 -2.4373806 -0.98651135 -0.23822041 0.552824 -1.3023679 -0.95102155
0.070370555 0.81801176 -1.3302999 -1.0285145 0.6164434 -2.031609 -0.047509607 1.2083073
-0.3446744 -0.14101037 0.4621878 0.26341516 -1.938614 -0.99287796 -2.011924 0.7870185
-1.0944611 1.9692556 0.2323071 -0.17243761 -1.0975881 0.5885187 -0.48139888 -0.9469839
-0.048645444 -0.15857437 -2.1190593 -0.9262072 0.17039254 0.2432244 0.29414782 -0.96841455
1.4378912 -0.95835483 0.61299926 1.2083781 -0.4587373 -0.3536374 1.169788 -0.56449246
1.9956918 -1.6311606 -0.08109547 1.023475 0.24625295 0.0333987 0.83088833 -0.7501718
-0.5833172 0.27212483 -0.100556254 0.06394347 -0.30130598 -1.1706879 -1.562806 1.2764536
0.20916203 -0.7818699 -1.8504412 0.44797507 -0.34883812 1.2329676 -0.3701941 -0.5723199
0.049191482 -0.72853714 -0.29376438 0.5200137 -1.9120711 0.4203853 0.47288716 -1.4218479
0.13094889 1.6102641 1.4718257 -2.3883414 -0.1464036 0.50694966 1.6055547 1.7553717
2.0522761 -0.29352123 0.0006201818 -0.5953819 -1.8895279 -1.2589523 0.21734673 0.12194182
-1.3442614 -0.17174886 -0.06888658 0.780334 0.35040942 0.08217579 -0.32379338 -0.53099513
-1.1348382 0.12882894 0.39602533 0.87741905 -0.49891537 2.0856483 -0.37240162 -1.4167982
0.8701225 -0.24383672 1.6045855 1.1121475 -0.956332 -0.9387172 -1.1147234 0.30557832
00000000: da98 2abe dae1 2dbf 83eb f3bf 2350 bebf
00000010: a6e7 b8be 2390 d2be def4 b1be 4829 ca3f
00000020: 2184 9b3d 2207 6bbf 0a90 aa3e 9ae9 293f
00000030: e3f4 bd3f b488 083f 68d1 9c3e c1d3 f63e
00000040: 8ec0 2b3c b181 a8be ec15 e83f c50d 17bf
00000050: 99a0 a2be a1d3 eabf dc41 ab3f 486f 213e
00000060: 38c6 5fbf f9b3 0740 116d be3d d24f af3f
00000070: 5c1c 9e3f fed1 063e b1f6 2bbf 69c2 b93e
00000080: 73d2 adbe c6a6 bbbf 75d3 c0be 560f 53be
00000090: 7e49 a0bf 9e4f 62bf 57f7 43bf def3 1a3e
000000a0: b40e efbe 1eb7 003f 8ea4 fcbc 496a 963f
000000b0: 5d87 b63f bcb4 68bf de4b ee3e d5a8 aabf
000000c0: 3492 273f ca23 38c0 0802 a73f 36fb 8dbf
000000d0: 2629 28be f335 8ebf 7cbf 01c0 5325 1b3e
000000e0: bddc 76bd 01e7 31bf c666 353f 1f85 bd3d
000000f0: 467c 593f d208 9f3e d73e 1b3e 9318 a5bf
00000100: 5c00 c93e 66f4 9d3f 2457 bb3e ddbc a23e
00000110: baba 1abf 38a9 e43f 65ad 933e 6c76 6f3d
00000120: 580a 9fbf aca8 80bf d203 a73f 4b17 66bf
00000130: b0cb debf c6c8 863f 248a f83e 0bfa b9be
00000140: 03ae d73f d241 083f a84b c53f 2555 28c0
00000150: a976 e0be abe9 8abe 5370 16bf 801c 383e
00000160: 9b6a 1f40 6b55 0dbf 2def 88bf f444 de3e
00000170: 4142 f73e daef 633e 22d2 b6bd 159e 2740
00000180: fcfe c63f 0357 9e3f c7e1 2cbf a93f aebe
00000190: 0c94 903d 8873 21bf 09c7 583f 903b e2be
000001a0: f933 75bf 5c93 0f3f 0198 8ebf 660d c13f
000001b0: a318 33bf e978 05bf 56b6 b7bf 26de 16be
000001c0: e0fd 5bbe d40d 993f d8b7 e63e 22d1 633f
000001d0: 6261 c33f 478e c2be 9aea 8abf d77d 8b3e
000001e0: 87ec 0a40 d6c8 24c0 4bc8 c43e da09 0c3f
000001f0: 98c6 143f a38b 513e 63c8 313f 8478 f0be
00000200: f5c4 7bbf 02eb ddbf 0de3 3a3f ae46 a23f
00000210: c8b6 93be c1c8 b43d e99e 0e3f 8f56 16bf
00000220: 8b4b 413c e2d1 223f 0bfe 1bc0 028c 7cbf
00000230: 0df0 73be e085 0d3f feb3 a6bf 2676 73bf
00000240: 701e 903d 3869 513f 4447 aabf 5da6 83bf
00000250: 3ccf 1d3f e205 02c0 6f99 42bd d0a9 9a3f
00000260: 2a79 b0be 0665 10be e1a3 ec3e 5ade 863e
00000270: 8124 f8bf 402d 7ebf 5dc3 00c0 0b7a 493f
00000280: 4d17 8cbf 9110 fc3f eae1 6d3e 7c93 30be
00000290: c47d 8cbf 29a9 163f ea79 f6be 896d 72bf
000002a0: 7240 47bd 5261 22be ab9e 07c0 ea1b 6dbf
000002b0: 627b 2e3e d10f 793e 8b9a 963e 04ea 77bf
000002c0: d20c b83f be56 75bf 85ed 1c3f 22ac 9a3f
000002d0: 9edf eabe f60f b5be 9dbb 953f 9482 10bf
000002e0: d472 ff3f dfc9 d0bf 6215 a6bd 3b01 833f
000002f0: bc29 7c3e 13cd 083d 19b5 543f 420b 40bf
00000300: 4754 15bf f253 8b3e 70f0 cdbd cbf4 823d
00000310: c744 9abe 1ad9 95bf 070a c8bf d562 a33f
00000320: 922e 563e a028 48bf 42db ecbf fd5c e53e
00000330: e99a b2be e2d1 9d3f 158a bdbe 8f83 12bf
00000340: 027d 493d 6981 3abf 4968 96be 9e1f 053f
00000350: bfbe f4bf be3c d73e 441e f23e 1dff b5bf
00000360: 7717 063e 221d ce3f c964 bc3f 96da 18c0
00000370: d3ea 15be 74c7 013f d182 cd3f 05b0 e03f
00000380: 7e58 0340 6a48 96be b293 223a f36a 18bf
00000390: 0ddc f1bf 5925 a1bf 2490 5e3e a2bc f93d
000003a0: c210 acbf efde 2fbe 6814 8dbd f8c3 473f
000003b0: dd68 b33e c84b a83d 3fc8 a5be 4cef 07bf
000003c0: 6142 91bf bceb 033e d5c3 ca3e 899e 603f
000003d0: d671 ffbe 437b 0540 6dab bebe a559 b5bf
000003e0: 59c0 5e3f 55b0 79be 0f63 cd3f d95a 8e3f
000003f0: 2dd2 74bf c54f 70bf 42af 8ebf c374 9c3e

network_body._body_endoder.seq_layers.0.bias f4 [256]
0.0 0.0 0.0 0.0 0.0 0.0 0.0 0.0
0.0 0.0 0.0 0.0 0.0 0.0 0.0 0.0
0.0 0.0 0.0 0.0 0.0 0.0 0.0 0.0
0.0 0.0 0.0 0.0 0.0 0.0 0.0 0.0
0.0 0.0 0.0 0.0 0.0 0.0 0.0 0.0
0.0 0.0 0.0 0.0 0.0 0.0 0.0 0.0
0.0 0.0 0.0 0.0 0.0 0.0 0.0 0.0
0.0 0.0 0.0 0.0 0.0 0.0 0.0 0.0
0.0 0.0 0.0 0.0 0.0 0.0 0.0 0.0
0.0 0.0 0.0 0.0 0.0 0.0 0.0 0.0
0.0 0.0 0.0 0.0 0.0 0.0 0.0 0.0
0.0 0.0 0.0 0.0 0.0 0.0 0.0 0.0
0.0 0.0 0.0 0.0 0.0 0.0 0.0 0.0
0.0 0.0 0.0 0.0 0.0 0.0 0.0 0.0
0.0 0.0 0.0 0.0 0.0 0.0 0.0 0.0
0.0 0.0 0.0 0.0 0.0 0.0 0.0 0.0
0.0 0.0 0.0 0.0 0.0 0.0 0.0 0.0
0.0 0.0 0.0 0.0 0.0 0.0 0.0 0.0
0.0 0.0 0.0 0.0 0.0 0.0 0.0 0.0
0.0 0.0 0.0 0.0 0.0 0.0 0.0 0.0
0.0 0.0 0.0 0.0 0.0 0.0 0.0 0.0
0.0 0.0 0.0 0.0 0.0 0.0 0.0 0.0
0.0 0.0 0.0 0.0 0.0 0.0 0.0 0.0
0.0 0.0 0.0 0.0 0.0 0.0 0.0 0.0
0.0 0.0 0.0 0.0 0.0 0.0 0.0 0.0
0.0 0.0 0.0 0.0 0.0 0.0 0.0 0.0
0.0 0.0 0.0 0.0 0.0 0.0 0.0 0.0
0.0 0.0 0.0 0.0 0.0 0.0 0.0 0.0
0.0 0.0 0.0 0.0 0.0 0.0 0.0 0.0
0.0 0.0 0.0 0.0 0.0 0.0 0.0 0.0
0.0 0.0 0.0 0.0 0.0 0.0 0.0 0.0
0.0 0.0 0.0 0.0 0.0 0.0 0.0 0.0
00000000: 0000 0000 0000 0000 0000 0000 0000 0000
00000010: 0000 0000 0000 0000 0000 0000 0000 0000
00000020: 0000 0000 0000 0000 0000 0000 0000 0000
00000030: 0000 0000 0000 0000 0000 0000 0000 0000
00000040: 0000 0000 0000 0000 0000 0000 0000 0000
00000050: 0000 0000 0000 0000 0000 0000 0000 0000
00000060: 0000 0000 0000 0000 0000 0000 0000 0000
00000070: 0000 0000 0000 0000 0000 0000 0000 0000
00000080: 0000 0000 0000 0000 0000 0000 0000 0000
00000090: 0000 0000 0000 0000 0000 0000 0000 0000
000000a0: 0000 0000 0000 0000 0000 0000 0000 0000
000000b0: 0000 0000 0000 0000 0000 0000 0000 0000
000000c0: 0000 0000 0000 0000 0000 0000 0000 0000
000000d0: 0000 0000 0000 0000 0000 0000 0000 0000
000000e0: 0000 0000 0000 0000 0000 0000 0000 0000
000000f0: 0000 0000 0000 0000 0000 0000 0000 0000
00000100: 0000 0000 0000 0000 0000 0000 0000 0000
00000110: 0000 0000 0000 0000 0000 0000 0000 0000
00000120: 0000 0000 0000 0000 0000 0000 0000 0000
00000130: 0000 0000 0000 0000 0000 0000 0000 0000
00000140: 0000 0000 0000 0000 0000 0000 0000 0000
00000150: 0000 0000 0000 0000 0000 0000 0000 0000
00000160: 0000 0000 0000 0000 0000 0000 0000 0000
00000170: 0000 0000 0000 0000 0000 0000 0000 0000
00000180: 0000 0000 0000 0000 0000 0000 0000 0000
00000190: 0000 0000 0000 0000 0000 0000 0000 0000
000001a0: 0000 0000 0000 0000 0000 0000 0000 0000
000001b0: 0000 0000 0000 0000 0000 0000 0000 0000
000001c0: 0000 0000 0000 0000 0000 0000 0000 0000
000001d0: 0000 0000 0000 0000 0000 0000 0000 0000
000001e0: 0000 0000 0000 0000 0000 0000 0000 0000
000001f0: 0000 0000 0000 0000 0000 0000 0000 0000
00000200: 0000 0000 0000 0000 0000 0000 0000 0000
00000210: 0000 0000 0000 0000 0000 0000 0000 0000
00000220: 0000 0000 0000 0000 0000 0000 0000 0000
00000230: 0000 0000 0000 0000 0000 0000 0000 0000
00000240: 0000 0000 0000 0000 0000 0000 0000 0000
00000250: 0000 0000 0000 0000 0000 0000 0000 0000
00000260: 0000 0000 0000 0000 0000 0000 0000 0000
00000270: 0000 0000 0000 0000 0000 0000 0000 0000
00000280: 0000 0000 0000 0000 0000 0000 0000 0000
00000290: 0000 0000 0000 0000 0000 0000 0000 0000
000002a0: 0000 0000 0000 0000 0000 0000 0000 0000
000002b0: 0000 0000 0000 0000 0000 0000 0000 0000
000002c0: 0000 0000 0000 0000 0000 0000 0000 0000
000002d0: 0000 0000 0000 0000 0000 0000 0000 0000
000002e0: 0000 0000 0000 0000 0000 0000 0000 0000
000002f0: 0000 0000 0000 0000 0000 0000 0000 0000
00000300: 0000 0000 0000 0000 0000 0000 0000 0000
00000310: 0000 0000 0000 0000 0000 0000 0000 0000
00000320: 0000 0000 0000 0000 0000 0000 0000 0000
00000330: 0000 0000 0000 0000 0000 0000 0000 0000
00000340: 0000 0000 0000 0000 0000 0000 0000 0000
00000350: 0000 0000 0000 0000 0000 0000 0000 0000
00000360: 0000 0000 0000 0000 0000 0000 0000 0000
00000370: 0000 0000 0000 0000 0000 0000 0000 0000
00000380: 0000 0000 0000 0000 0000 0000 0000 0000
00000390: 0000 0000 0000 0000 0000 0000 0000 0000
000003a0: 0000 0000 0000 0000 0000 0000 0000 0000
000003b0: 0000 0000 0000 0000 0000 0000 0000 0000
000003c0: 0000 0000 0000 0000 0000 0000 0000 0000
000003d0: 0000 0000 0000 0000 0000 0000 0000 0000
000003e0: 0000 0000 0000 0000 0000 0000 0000 0000
000003f0: 0000 0000 0000 0000 0000 0000 0000 0000

network_body._body_endoder.seq_layers.2.weight f4 [256, 256]
0.13158725 0.049497124 -0.079534836 0.053915076 0.017866962 0.0163775 0.022110453 0.13486578
-0.0958514 0.11194516 -0.03609691 0.053920846 0.07145505 -0.05862668 -0.11904297 -0.01886877
0.029101986 0.07507818 0.0026722185 0.110491134 -0.035978436 -0.020029454 0.05717253 -0.031320352
0.004637791 -0.14245842 0.050758094 -0.07632427 -0.05139501 0.025866281 0.009064845 -0.046716053
-0.022743594 -0.025702111 0.081831284 -0.0016152447 0.053423006 0.09672948 -0.08331571 0.09139536
0.009631194 -0.017141448 -0.009835708 0.0050373734 0.088893004 0.03312305 -0.053821925 -0.060620937
0.07383842 -0.015577564 0.016221387 -0.010937242 -0.065591484 0.03713852 -0.054784697 -0.051137
-0.034908764 0.006445439 0.013388291 0.0022237403 -0.04904089 0.042495742 0.077296436 -0.0070813745
0.04411623 0.040405136 0.034181572 -0.0098577235 -0.0010817727 -0.0393781 -0.036618497 -0.045447912
0.039976522 -0.063917994 -0.021301564 -0.035525817 -0.027218642 0.009386053 -0.011333219 0.038987294
-0.07101761 0.03735888 -0.013173098 -0.0010231344 -0.08644693 0.074866205 -0.0034494516 0.00792986
0.071407735 0.08615021 0.03065945 0.0018383766 0.09373229 0.057565995 -0.019546956 0.03011637
0.0016370974 0.06899695 0.11056468 0.107044205 -0.09688979 0.09082944 -0.027766474 0.0017513813
0.06594418 -0.014828453 -0.009069014 -0.01580191 0.03586741 -0.009847513 0.019054176 0.0003714858
0.09072236 0.010827781 0.06334921 0.028362038 -0.10081357 0.14389111 -0.058213465 -0.051057965
-0.030865593 -0.056094468 -0.008868435 -0.003005563 -0.08583455 0.058417037 0.10114028 0.015035461
-0.102660365 -0.0047542476 0.030495979 -0.11767637 0.02481357 -0.043850444 -0.012089558 0.018102413
-0.010777514 -0.025923697 0.025917929 0.07219716 -0.007232891 -0.041097496 0.065296456 0.060174175
0.06485326 0.07602989 -0.07523536 0.0048151393 0.05596665 -0.052324202 -0.00606627 -0.005157455
-0.036872186 -0.100996405 0.074080594 -0.086453505 -0.11793152 0.041296143 -0.004260919 -0.051192213
0.12839805 -0.11915536 -0.047825236 -0.075387314 -0.029624995 -0.0030045472 0.012443499 -0.021781513
-0.055576533 0.008974297 0.07926869 0.08306361 -0.0027282604 -0.051166333 -0.03049444 0.008343597
-0.12622616 -0.09740176 0.033558585 -0.046571903 0.047866415 0.019188024 -0.050801717 -0.028310847
-0.03181046 0.016980471 -0.0024514275 -0.08760209 -0.015995191 -0.034074754 0.0007105966 0.025608016
0.06644474 -0.02568264 -0.01798539 -0.04658193 0.11138903 -0.069053456 -0.004445725 -0.012009169
0.046592887 0.08860586 0.013593402 0.097886056 -0.044985622 -0.013647887 0.04514357 0.081103794
-0.07387884 0.056017548 -0.07387459 0.051683962 -0.044737738 0.04873818 -0.0030331763 0.0019325158
0.049513087 -0.03151613 0.042557523 -0.027561698 -0.06796208 0.027869597 0.0035631573 0.055928968
0.04751659 0.032084797 0.014745182 0.13169381 0.14071073 0.050073538 -0.115644425 0.05771949
0.056263283 0.11393348 0.03673448 0.018125769 0.0189539 -0.02588703 0.04567879 0.100043535
0.024440553 -0.061111506 0.020858638 -0.13448583 0.0554724 -0.03026641 0.12608576 0.13739027
-0.024283431 -0.03854225 0.0051401276 -0.04112294 -0.007105279 -0.08293609 -0.070203744 -0.059701115
00000000: cfbe 063e 7fbd 4a3d 29e3 a2bd 0ed6 5c3d
00000010: bc5d 923c 1b2a 863c fb20 b53c 411a 0a3e
00000020: bd4d c4bd 8143 e53d 5ada 13bd 1bdc 5c3d
00000030: 0657 923d 8822 70bd cdcc f3bd ae92 9abc
00000040: 4a67 ee3c 97c2 993d 6320 2f3b 2d49 e23d
00000050: 205e 13bd cf14 a4bc be2d 6a3d c549 00bd
00000060: 9cf8 973b 9fe0 11be b8e7 4f3d e64f 9cbd
00000070: 9383 52bd 86e5 d33c b784 143c 5559 3fbd
00000080: c650 babc 3c8d d2bc 2997 a73d 9eb6 d3ba
00000090: 15d2 5a3d 1b1a c63d 6da1 aabd 7e2d bb3d
000000a0: 28cc 1d3c 396c 8cbc f325 21bc 8d10 a53b
000000b0: 890d b63d 09ac 073d 6174 5cbd a94d 78bd
000000c0: 9938 973d 0a39 7fbc b7e2 843c 1e32 33bc
000000d0: d454 86bd 901e 183d eb65 60bd 0875 51bd
000000e0: 7efc 0ebd 4334 d33b 905a 5b3c 2cbc 113b
000000f0: 1adf 48bd 0410 2e3d 984d 9e3d e00a e8bb
00000100: 38b3 343d db7f 253d fa01 0c3d 4a82 21bc
00000110: 45ca 8dba ee4a 21bd 47fd 15bd 9727 3abd
00000120: 6cbe 233d 70e7 82bd 9e80 aebc 8583 11bd
00000130: a1f9 debc f6c7 193c f7ae 39bc 24b1 1f3d
00000140: ae71 91bd a005 193d fad3 57bc b21a 86ba
00000150: 170b b1bd 7453 993d 3210 62bb 3eec 013c
00000160: 383e 923d 856f b03d 8729 fb3c aff5 f03a
00000170: b7f6 bf3d 52ca 6b3d f020 a0bc 9bb6 f63c
00000180: e093 d63a 464e 8d3d bc6f e23d fe39 db3d
00000190: 276e c6bd c904 ba3d 8476 e3bc 9b8e e53a
000001a0: be0d 873d 0af3 72bc 3496 14bc 0273 81bc
000001b0: b5e9 123d 7757 21bc 8117 9c3c fbc3 c239
000001c0: a5cc b93d 0167 313c 3bbd 813d 8157 e83c
000001d0: 5877 cebd 3158 133e 3e71 6ebd 2822 51bd
000001e0: d7d9 fcbc 50c3 65bd ea4c 11bc fbf8 44bb
000001f0: 06ca afbd b446 6f3d a322 cf3d 4b57 763c
00000200: 993f d2bd 85c9 9bbb b4d2 f93c 4f00 f1bd
00000210: d445 cb3c 869c 33bd 4813 46bc 834b 943c
00000220: 2c94 30bc ef5d d4bc d651 d43c 1bdc 933d
00000230: e301 edbb d955 28bd 26ba 853d 3279 763d
00000240: c9d1 843d 8fb5 9b3d ff14 9abd 51c8 9d3b
00000250: 493d 653d e751 56bd 90c7 c6bb deff a8bb
00000260: 4a07 17bd 34d7 cebd 91b7 973d 890e b1bd
00000270: 1586 f1bd 2526 293d 2e9f 8bbb edae 51bd
00000280: c77a 033e ba07 f4bd 65e4 43bd aa64 9abd
00000290: 1eb0 f2bc f0e7 44bb d1df 4b3c 256f b2bc
000002a0: 38a4 63bd ee08 133c 9f57 a23d 411d aa3d
000002b0: 9dcc 32bb ca93 51bd 7acf f9bc 95b3 083c
000002c0: 6e41 01be 937a c7bd ba74 093d 2ec2 3ebd
000002d0: 930f 443d 3430 9d3c 7615 50bd 26ec e7bc
000002e0: af4b 02bd a11a 8b3c 21a8 20bb b968 b3bd
000002f0: 5908 83bc f891 0bbd 5547 3a3a e7c7 d13c
00000300: 2e14 883d 6664 d2bc 1956 93bc b2cc 3ebd
00000310: ef1f e43d e66b 8dbd 72ad 91bb 1bc2 44bc
00000320: 2fd8 3e3d fd76 b53d dcb6 5e3c 7c78 c83d
00000330: d842 38bd 639b 5fbc 77e8 383d bf19 a63d
00000340: ca4d 97bd a872 653d 904b 97bd 90b2 533d
00000350: eb3e 37bd b0a1 473d 41c8 46bb 784c fd3a
00000360: 3cce 4a3d 0f17 01bd cc50 2e3d 12c9 e1bc
00000370: b42f 8bbd c84e e43c dc83 693b c615 653d
00000380: c2a0 423d 596b 033d c795 713c beda 063e
00000390: 7916 103e e919 4d3d fcd6 ecbd 466b 6c3d
000003a0: 5474 663d f555 e93d e576 163d 7e7c 943c
000003b0: 3645 9b3c 0911 d4bc af19 3b3d a0e3 cc3d
000003c0: 8e37 c83c 0f50 7abd bcdf aa3c a7b6 09be
000003d0: 0737 633d 43f1 f7bc a01c 013e 09b0 0c3e
000003e0: 0cee c6bc 7ade 1dbd 846e a83b 8770 28bd
000003f0: 66d3 e8bb 66da a9bd fbc6 8fbd 2889 74bd

action_model._continuous_distribution.log_sigma f4 [1, 3]
0.0 0.0 0.0
00000000: 0000 0000 0000 0000 0000 0000

action_model._continuous_distribution.mu.weight f4 [3, 256]
-0.009460597 0.014665933 0.0079491995 0.01614694 0.008964523 0.00468496 0.009767154 0.0081665795
-0.0017950333 -0.0020401431 0.017103612 0.010859946 0.012601927 0.0027785543 0.0019311745 -0.0024767367
-0.010854916 0.013672802 0.018224757 -0.0040182327 -0.0110999 0.0045617907 0.01226638 0.00864324
-0.014595206 -0.013138028 -0.009690062 0.013893609 -0.0013264989 0.0055094115 0.018365009 0.007595776
-0.01351958 0.0016243056 0.010390586 0.0043538194 -0.0054119993 -0.00095118827 -0.017274747 0.000137225
0.007801843 2.330732e-05 -0.0041361544 0.0095629385 -0.003725848 -0.0030708278 0.0073429584 -0.015657756
-0.000127758 -0.00611154 -0.009161594 0.010133788 -0.011554583 0.018324468 -0.014600585 -0.004778369
0.0049744863 -0.009571606 -0.010830884 0.0059037027 0.013937674 -0.003272779 0.003113889 -0.022799924
-0.0029114566 0.0069483453 0.0009407025 -0.0149680255 0.008350749 -0.000998146 0.00031898342 0.0071367407
-0.017715404 -0.0038852214 0.012531129 -0.013446105 -0.006949832 -0.024082178 -0.010983585 0.002561692
-0.018871758 0.0020668684 0.0042586 -0.01128076 -0.020327287 -0.010146401 -0.0018588435 0.011844072
0.01754656 -0.00984863 0.0010630958 0.013229424 0.023279902 -0.006978647 0.0076895575 0.0035584867
0.01482034 0.012263472 0.007845072 0.006864283 -0.019881425 -0.025408119 0.007594508 -0.0026539366
0.012263623 -0.0073993467 -0.015915021 0.003507434 -0.004478004 0.010756022 -0.00032610534 -0.0063302936
-0.00434534 0.013187508 -0.003301778 -0.0065369764 0.01711225 -0.013124846 -0.012742141 0.0063006803
-0.020233693 0.014654112 0.0055386703 -0.0074311844 0.010282602 0.0107388375 0.004017513 0.029649938
-0.012012555 -0.0066487077 0.00402061 0.008758041 -0.0060170456 0.0076480405 0.012394248 -0.002862349
0.004880439 -0.0019731869 -0.0050606146 0.019663848 -0.0016582555 -0.0052613723 0.005311684 0.00023158104
0.0054545323 0.00060732954 0.00400228 -0.01636098 0.009964438 0.011276738 0.0031297777 -0.014380284
0.0071513155 0.011540521 -0.0030718816 -0.003767017 0.0021429097 -0.006208272 0.0135860145 -0.0028390079
-0.02014256 0.007854799 -0.009919538 -0.0039059229 -0.009961117 -0.011209535 0.0119103575 0.024168326
-0.0020715443 0.006897475 -0.004896405 0.001104618 -0.0030040552 -0.011168419 -0.008271285 -0.018854221
-0.0036769602 0.014381744 -0.0031231318 0.0061022975 0.00089267263 0.005656162 0.007526892 0.014726653
0.016620038 -0.0014086625 -0.008496168 0.005295479 0.005049912 -0.014071256 -0.020956388 -0.030380204
0.022000832 -0.004238249 -0.007794977 -0.012111659 -0.0092993 0.016077477 -0.0040367283 -0.0032296255
0.02011192 -0.0006348041 -0.013482481 0.021150708 -0.024826525 -0.0036304395 -0.0043275263 -0.013589417
0.01820816 0.00779607 -0.027402861 -0.007072471 0.00926696 0.00910776 0.019124614 0.009731324
0.006587026 0.0009215421 -0.013208799 0.00036747448 0.0063182637 0.00028431747 -0.013908801 -0.008127316
0.006337642 0.0041420567 -0.018453969 -0.0036102158 -0.006882412 0.0027872522 -0.035790127 0.0037275353
0.012115653 0.008404715 0.004289971 0.005845644 -0.0053824573 0.018167337 0.011423237 -0.021238314
0.0014814445 -0.0073321112 0.019294627 -0.017638586 0.016323496 9.423028e-05 -0.018106319 -0.0024389632
0.017742312 -0.0069806143 -0.014184472 0.005976398 0.0013918888 0.022230905 -0.0029705793 0.0054747458
00000000: 9f00 1bbc 6249 703c 5c3d 023c 9646 843c
00000010: efdf 123c 4b84 993b 6a06 203c 1ecd 053c
00000020: 5347 ebba ecb3 05bb e01c 8c3c eaed 313c
00000030: 5078 4e3c 6818 363b 771f fd3a bf50 22bb
00000040: d1d8 31bc e303 603c 164c 953c 61ab 83bb
00000050: 5bdc 35bc 137b 953b edf8 483c 609c 0d3c
00000060: bb20 6fbc e240 57bc 11c3 1ebc 05a2 633c
00000070: ebdd adba 4b88 b43b 3772 963c fde5 f83b
00000080: 3a81 5dbc a7e6 d43a 473d 2a3c 7caa 8e3b
00000090: 2457 b1bb 2a59 79ba c583 8dbc 0ee4 0f39
000000a0: 9aa6 ff3b 1784 c337 9488 87bb dfad 1c3c
000000b0: 5b2d 74bb f13f 49bb 339d f03b b244 80bc
000000c0: c7f6 05b9 5043 c8bb 831a 16bc 3008 263c
000000d0: 6f4f 3dbc 321d 963c 4b37 6fbc dd93 9cbb
000000e0: 0401 a33b 3ad2 1cbc 0574 31bc d973 c13b
000000f0: d85a 643c 1f7c 56bb 6312 4c3b e8c6 babc
00000100: 23ce 3ebb f2ae e33b 7a99 763a 733c 75bc
00000110: 94d1 083c 39d4 82ba 3b3d a739 52db e93b
00000120: e51f 91bc 339f 7ebb 5d4f 4d3c 0d4d 5cbc
00000130: 6bbb e3bb fd47 c5bc 7ff4 33bc 0fe2 273b
00000140: f298 9abc 4c74 073b ba8b 8b3b f0d2 38bc
00000150: 6985 a6bc 173d 26bc 70a4 f3ba a30d 423c
00000160: cebd 8f3c 265c 21bc 9357 8b3a 3ac0 583c
00000170: 7eb5 be3c 22ad e4bb aff8 fb3b 8035 693b
00000180: 03d1 723c bbec 483c 9e88 003c c7ed e03b
00000190: 5fde a2bc b024 d0bc 5adb f83b abed 2dbb
000001a0: 5ded 483c 3876 f2bb 3860 82bc fadc 653b
000001b0: 38bc 92bb 073a 303c 1ef9 aab9 5a6e cfbb
000001c0: 5b63 8ebb 6b10 583c a562 58bb 2234 d6bb
000001d0: fd2e 8c3c 9809 57bc 6ac4 50bc f075 ce3b
000001e0: 21c1 a5bc cd17 703c bc7d b53b 4b81 f3bb
000001f0: 5c78 283c f3f1 2f3c 57a5 833b 6de4 f23c
00000200: 4fd0 44bc 67dd d9bb 52bf 833b e37d 0f3c
00000210: a32a c5bb 6a9c fa3b 3e11 4b3c 3f96 3bbb
00000220: 17ec 9f3b 9550 01bb 83d3 a5bb 1416 a13c
00000230: d259 d9ba 9767 acbb a30d ae3b 90d4 7239
00000240: efbb b23b 3235 1f3a 8f25 833b 7607 86bc
00000250: e241 233c 11c2 383c f51c 4d3b 489b 6bbc
00000260: 9555 ea3b 7414 3d3c 9f51 49bb 0fe0 76bb
00000270: 0f70 0c3b c36e cbbb e097 5e3c a60e 3abb
00000280: 0302 a5bc 6ab1 003c 8f85 22bc 83fa 7fbb
00000290: f433 23bc 33a8 37bc a923 433c a7fc c53c
000002a0: bfc2 07bb 3704 e23b 0672 a0bb d4c8 903a
000002b0: afdf 44bb bffb 36bc 4984 07bc 2b74 9abc
000002c0: 28f9 70bb 68a1 6b3c 75ad 4cbb c8f5 c73b
000002d0: 3f02 6a3a 5357 b93b 25a4 f63b 0f48 713c
000002e0: bf26 883c dfa2 b8ba 8333 0bbc b385 ad3b
000002f0: bb79 a53b 208b 66bc bbac abbc e8df f8bc
00000300: 173b b43c 02e1 8abb 026d ffbb fb6f 46bc
00000310: 175c 18bc eab4 833c 8846 84bb 20a8 53bb
00000320: c1c1 a43c fb68 26ba a0e5 5cbc 4044 ad3c
00000330: ff60 cbbc abec 6dbb eccd 8dbb 25a6 5ebc
00000340: 4729 953c 2d76 ff3b f77b e0bc 30c0 e7bb
00000350: 73d4 173c b738 153c 39ab 9c3c 2270 1f3c
00000360: fbd7 d73b a593 713a b869 58bc 97a9 c039
00000370: 7009 cf3b 7210 9539 bde1 63bc 6f28 05bc
00000380: ffab cf3b 17ba 873b c72c 97bc 5f99 6cbb
00000390: db85 e1bb 55aa 363b ab98 12bd aa49 743b
000003a0: bb80 463c eeb3 093c e392 8c3b d18c bf3b
000003b0: 535f b0bb abd3 943c 8728 3b3c f9fb adbc
000003c0: 072d c23a 3542 f0bb c40f 9e3c cc7e 90bc
000003d0: dab8 853c 7f9d c538 b453 94bc 03d7 1fbb
000003e0: 5358 913c a3bd e4bb fd65 68bc a9d5 c33b
000003f0: 0a70 b63a 961d b63c 0dae 42bb 7f65 b33b

action_model._continuous_distribution.mu.bias f4 [3]
0.0 0.0 0.0
00000000: 0000 0000 0000 0000 0000 0000
