UnityEnv/results/drone_goal_011/DroneAgent/DroneAgent-2178.pt (torch, 546744 bytes, 12 tensors)

network_body._body_endoder.seq_layers.0.weight f4 [256, 1]
00000000: aef6 b43e 3d92 e13e d4fd c03f e542 d23e
00000010: b70c e0be 6260 213e 21c5 be3e 3e4b 563e
00000020: c53d b83f de9a 34be 3036 293f 9922 94bf
00000030: 58b4 0abf 22aa ebbf ce44 5a3f 2ada 08bd
00000040: bfcd 293f 2623 6c3f 72aa d33e c835 423f
00000050: 0fd0 a0be b7d0 4ebf ddb2 323f 85bf a43f
00000060: 3aac 7ebf 1dd3 25bf f20a 8f3f a8b1 6ebf
00000070: a252 e4bd 12ab 68be e24e f8be de51 17c0
00000080: a81a 2040 f0a3 c6bf c3c4 aabe c154 a53f
00000090: 198e fabe b71b 0ebf cfd0 3ebf 4cdc 44bf
000000a0: 0f24 02c0 339e 0e3f d046 12bf 6bac a73f
000000b0: 7870 023e d555 8dbf a31d 423f 83cb 12bf
000000c0: 4d31 ba3f f2ec 10c0 a298 14bf 50be 013e
000000d0: 2c89 e6be 8262 873f 9ce9 b83f 0401 013c
000000e0: e102 9abf e4cb 103f c1a1 cd3d 0363 fa3e
000000f0: fe87 b53f c654 ef3e 9364 fa3e 67c6 5bbe
00000100: 2533 c03e 1ed6 8fbf 245d a63e dfd7 a9be
00000110: e444 543f d6d0 bebe 029b 0abd e72a 91be
00000120: 5af6 60be 2697 bd3f ec43 ba3e 34be afbe
00000130: 7a55 303f 263d 87bf f600 983e d8e8 d4be
00000140: 26a4 f73e a849 58bf 6977 823c 0728 253e
00000150: a116 8b3f 9782 cc3f 6bfb 083e 4690 d03e
00000160: 831c 8f3f 84d7 963e 1226 953e 036d a1be
00000170: b808 cd3e e52f e83d 9ce4 c8bf 2908 abbf
00000180: 8b76 03c0 7acb 8fbf 56e0 133e 71bd 4d3f
00000190: 2075 873e 0671 d2bd 9b37 3c3f 0889 173f
000001a0: d11a 5bbf 4aeb 783f cc4c 8cbf f9c0 fbbe
000001b0: 7607 e7be de30 a43f 986a 573f cc51 aebe
000001c0: 53a1 e03f e394 a4be e0a9 7c3f f4af b9be
000001d0: 49be 2e3b 40bd 85bf 16ab a13f 16a5 8f3f
000001e0: 56ee 553f 8a8c 513e 56f8 923d 5ea7 3a3f
000001f0: 2cb6 79bf ea65 e33f 9f32 743f 3ba9 003f
00000200: 2e8c eebf b9f3 adbf 6ad9 5e3f 7cd6 dcbe
00000210: 5124 b33f dc7c 4e3f 6964 813f 0c69 073f
00000220: dd72 073f 2ee8 6abe 469d d9be 5261 f8be
00000230: 1610 16bf 7f42 b43e 909f 1fbf 6dea 0fbf
00000240: 7c5c 3f3f ec9a 6e3f edb6 803e 5a3a aabf
00000250: b7fc a2bf 6c19 8cbf 0189 06c0 dc8b 43bf
00000260: fe67 32bf 8b73 c9bf cdc1 633f 99cc 493f
00000270: e69d 6c3f 8bd1 f0bf a1b1 6bbe 100a e83e
00000280: e6d0 393f c20b bcbd 7fd1 8b3e 15f6 b43f
00000290: 0cce 95bf d3a6 a3bf b1e2 8e3f 7602 d23e
000002a0: ede9 57bf c700 8b3f 7669 653e 3dd3 63bf
000002b0: 6f40 9fbe 6c1d a63f aaac ddbd 6b88 993e
000002c0: cef5 9bbf 2a9b f3be 8608 303f 54d0 4d3f
000002d0: 5d93 70bd e1c5 51bf 2143 2abe 14fc 433e
000002e0: 9352 5abe f35b 83bd 4c1d 13bf 01fc 1bc0
000002f0: 6a1f 723f e293 fc3f 4de8 5f3f 9d17 033f
00000300: 843f 0540 33f6 663f f36f 5bbe e1ad da3d
00000310: f8a8 1440 4a59 9abf fcf4 74bf aeb1 2fbf
00000320: a968 563f c29d 0cbf 7c95 fdbf d0a8 af3f
00000330: 213b 1dbf 0372 9bbe 6f39 c63d 71b5 c83f
00000340: eb01 8fbf 5507 c0be 76ed 25bc 1e76 43be
00000350: 09f0 c0bd 5f31 e0bd 7e88 89bf 504d d4bf
00000360: 260b 8dbe 0d22 2e3f 3823 20be 6117 1dbf
00000370: 8839 b43b 17fe 8dbf 8c77 983f 87d9 afbf
00000380: 968c 983f 694d 06c0 339f 97bf 4737 42bf
00000390: 83dc 3d3f 450a ed3f 6acc b4bd 8fcb 79be
000003a0: 8bba 4cbf 7331 b6bd f1f4 653c 63a2 31bd
000003b0: 41b4 65be f33c 613f 842e 0fc0 b7c5 203f
000003c0: 8fb6 8c3f a419 e7be b6c1 003f 6a79 3bbf
000003d0: 0f2c d53e 7a37 843f fa09 0bbf 9479 853f
000003e0: e0eb 66be 0f46 2bbf c162 a33f 705f 333e
000003f0: 9b03 2fc0 03d5 4abf 406e 9f3e c22d c7bf
0.35344452 0.44056883 1.5077462 0.4106666 -0.437597 0.15759423 0.37259772 0.2092714
1.439385 -0.17637202 0.6609831 -1.1573058 -0.5418143 -1.8411295 0.8526124 -0.033411182
0.6632957 0.9224113 0.41340977 0.75863314 -0.31408736 -0.80787224 0.69804174 1.2870947
-0.99481547 -0.6477526 1.1175215 -0.9323983 -0.111485735 -0.22721508 -0.48497683 -2.3643718
2.501627 -1.551878 -0.33353242 1.291649 -0.48936537 -0.5551104 -0.74537367 -0.76898646
-2.0334508 0.5571014 -0.571393 1.3099493 0.12738216 -1.1041819 0.7582647 -0.57341784
1.4546295 -2.264462 -0.580454 0.12670255 -0.4502653 1.0576937 1.4446292 0.007873777
-1.2032129 0.5656111 0.10040618 0.48903665 1.4182127 0.46744365 0.48904857 -0.21462403
0.3753902 -1.1237218 0.32492936 -0.3317251 0.8291762 -0.37268704 -0.033839233 -0.28353044
-0.21968976 1.4811752 0.36379945 -0.343248 0.68880427 -1.0565536 0.29688233 -0.41583896
0.48367423 -0.8448739 0.01592608 0.1612855 1.0866281 1.5977353 0.13377158 0.40735072
1.1180576 0.294613 0.29130608 -0.31528482 0.40045714 0.1133726 -1.5694766 -1.3361865
-2.0541103 -1.1233971 0.14441046 0.8036719 0.26456547 -0.10275464 0.7352235 0.5919347
-0.85587794 0.9723402 -1.0960937 -0.49170664 -0.4512288 1.2827413 0.84147024 -0.3404678
1.7549232 -0.32144842 0.9869671 -0.36267054 0.0026663712 -1.044838 1.2630336 1.1222255
0.83566797 0.20463768 0.071762726 0.7291163 -0.975436 1.7765477 0.9538974 0.50258225
-1.863653 -1.3590003 0.870505 -0.4313239 1.3995458 0.8065927 1.0108768 0.52894664
0.5290964 -0.22940132 -0.42502803 -0.4851175 -0.58618295 0.35206982 -0.6235285 -0.5621708
0.74750495 0.9320514 0.2513956 -1.3299057 -1.2733372 -1.0945258 -2.102112 -0.76385283
-0.6968993 -1.5738386 0.8896759 0.78827816 0.92428434 -1.8813947 -0.23016979 0.45320177
0.7258438 -0.0918193 0.2730827 1.4137598 -1.1703506 -1.2785286 1.1162931 0.41017503
-0.8434132 1.0859612 0.22403511 -0.889942 -0.31103846 1.2977729 -0.10823949 0.2998689
-1.2184389 -0.47579318 0.68763006 0.8039601 -0.058734287 -0.81942564 -0.1662717 0.19139129
-0.21320562 -0.06414022 -0.5746658 -2.437256 0.94579184 1.973263 0.8746384 0.51207906
2.0820017 0.9021942 -0.21429424 0.10677696 2.322813 -1.2058499 -0.95686316 -0.6863049
0.8375345 -0.5492822 -1.9811244 1.3723392 -0.6141835 -0.30360422 0.09678923 1.5680372
-1.117246 -0.37505594 -0.010127416 -0.19088027 -0.09420783 -0.10946917 -1.0744779 -1.6586094
-0.27547568 0.6802071 -0.15638435 -0.613638 0.0055000223 -1.1093167 1.1911483 -1.3738259
1.1917903 -2.0984747 -1.1845459 -0.75865597 0.741646 1.8518759 -0.088280514 -0.24394058
-0.7997214 -0.088961504 0.014035449 -0.043367755 -0.22432043 0.87983626 -2.237214 0.6280169
1.0993212 -0.4513675 0.5029558 -0.7323214 0.41635177 1.032943 -0.543121 1.0427728
-0.22550917 -0.66903776 1.2764512 0.17516875 -2.734595 -0.7923128 0.31138802 -1.5560839

network_body._body_endoder.seq_layers.0.bias f4 [256]
00000000: 0000 0000 0000 0000 0000 0000 0000 0000
00000010: 0000 0000 0000 0000 0000 0000 0000 0000
00000020: 0000 0000 0000 0000 0000 0000 0000 0000
00000030: 0000 0000 0000 0000 0000 0000 0000 0000
00000040: 0000 0000 0000 0000 0000 0000 0000 0000
00000050: 0000 0000 0000 0000 0000 0000 0000 0000
00000060: 0000 0000 0000 0000 0000 0000 0000 0000
00000070: 0000 0000 0000 0000 0000 0000 0000 0000
00000080: 0000 0000 0000 0000 0000 0000 0000 0000
00000090: 0000 0000 0000 0000 0000 0000 0000 0000
000000a0: 0000 0000 0000 0000 0000 0000 0000 0000
000000b0: 0000 0000 0000 0000 0000 0000 0000 0000
000000c0: 0000 0000 0000 0000 0000 0000 0000 0000
000000d0: 0000 0000 0000 0000 0000 0000 0000 0000
000000e0: 0000 0000 0000 0000 0000 0000 0000 0000
000000f0: 0000 0000 0000 0000 0000 0000 0000 0000
00000100: 0000 0000 0000 0000 0000 0000 0000 0000
00000110: 0000 0000 0000 0000 0000 0000 0000 0000
00000120: 0000 0000 0000 0000 0000 0000 0000 0000
00000130: 0000 0000 0000 0000 0000 0000 0000 0000
00000140: 0000 0000 0000 0000 0000 0000 0000 0000
00000150: 0000 0000 0000 0000 0000 0000 0000 0000
00000160: 0000 0000 0000 0000 0000 0000 0000 0000
00000170: 0000 0000 0000 0000 0000 0000 0000 0000
00000180: 0000 0000 0000 0000 0000 0000 0000 0000
00000190: 0000 0000 0000 0000 0000 0000 0000 0000
000001a0: 0000 0000 0000 0000 0000 0000 0000 0000
000001b0: 0000 0000 0000 0000 0000 0000 0000 0000
000001c0: 0000 0000 0000 0000 0000 0000 0000 0000
000001d0: 0000 0000 0000 0000 0000 0000 0000 0000
000001e0: 0000 0000 0000 0000 0000 0000 0000 0000
000001f0: 0000 0000 0000 0000 0000 0000 0000 0000
00000200: 0000 0000 0000 0000 0000 0000 0000 0000
00000210: 0000 0000 0000 0000 0000 0000 0000 0000
00000220: 0000 0000 0000 0000 0000 0000 0000 0000
00000230: 0000 0000 0000 0000 0000 0000 0000 0000
00000240: 0000 0000 0000 0000 0000 0000 0000 0000
00000250: 0000 0000 0000 0000 0000 0000 0000 0000
00000260: 0000 0000 0000 0000 0000 0000 0000 0000
00000270: 0000 0000 0000 0000 0000 0000 0000 0000
00000280: 0000 0000 0000 0000 0000 0000 0000 0000
00000290: 0000 0000 0000 0000 0000 0000 0000 0000
000002a0: 0000 0000 0000 0000 0000 0000 0000 0000
000002b0: 0000 0000 0000 0000 0000 0000 0000 0000
000002c0: 0000 0000 0000 0000 0000 0000 0000 0000
000002d0: 0000 0000 0000 0000 0000 0000 0000 0000
000002e0: 0000 0000 0000 0000 0000 0000 0000 0000
000002f0: 0000 0000 0000 0000 0000 0000 0000 0000
00000300: 0000 0000 0000 0000 0000 0000 0000 0000
00000310: 0000 0000 0000 0000 0000 0000 0000 0000
00000320: 0000 0000 0000 0000 0000 0000 0000 0000
00000330: 0000 0000 0000 0000 0000 0000 0000 0000
00000340: 0000 0000 0000 0000 0000 0000 0000 0000
00000350: 0000 0000 0000 0000 0000 0000 0000 0000
00000360: 0000 0000 0000 0000 0000 0000 0000 0000
00000370: 0000 0000 0000 0000 0000 0000 0000 0000
00000380: 0000 0000 0000 0000 0000 0000 0000 0000
00000390: 0000 0000 0000 0000 0000 0000 0000 0000
000003a0: 0000 0000 0000 0000 0000 0000 0000 0000
000003b0: 0000 0000 0000 0000 0000 0000 0000 0000
000003c0: 0000 0000 0000 0000 0000 0000 0000 0000
000003d0: 0000 0000 0000 0000 0000 0000 0000 0000
000003e0: 0000 0000 0000 0000 0000 0000 0000 0000
000003f0: 0000 0000 0000 0000 0000 0000 0000 0000
0.0 0.0 0.0 0.0 0.0 0.0 0.0 0.0
0.0 0.0 0.0 0.0 0.0 0.0 0.0 0.0
0.0 0.0 0.0 0.0 0.0 0.0 0.0 0.0
0.0 0.0 0.0 0.0 0.0 0.0 0.0 0.0
0.0 0.0 0.0 0.0 0.0 0.0 0.0 0.0
0.0 0.0 0.0 0.0 0.0 0.0 0.0 0.0
0.0 0.0 0.0 0.0 0.0 0.0 0.0 0.0
0.0 0.0 0.0 0.0 0.0 0.0 0.0 0.0
0.0 0.0 0.0 0.0 0.0 0.0 0.0 0.0
0.0 0.0 0.0 0.0 0.0 0.0 0.0 0.0
0.0 0.0 0.0 0.0 0.0 0.0 0.0 0.0
0.0 0.0 0.0 0.0 0.0 0.0 0.0 0.0
0.0 0.0 0.0 0.0 0.0 0.0 0.0 0.0
0.0 0.0 0.0 0.0 0.0 0.0 0.0 0.0
0.0 0.0 0.0 0.0 0.0 0.0 0.0 0.0
0.0 0.0 0.0 0.0 0.0 0.0 0.0 0.0
0.0 0.0 0.0 0.0 0.0 0.0 0.0 0.0
0.0 0.0 0.0 0.0 0.0 0.0 0.0 0.0
0.0 0.0 0.0 0.0 0.0 0.0 0.0 0.0
0.0 0.0 0.0 0.0 0.0 0.0 0.0 0.0
0.0 0.0 0.0 0.0 0.0 0.0 0.0 0.0
0.0 0.0 0.0 0.0 0.0 0.0 0.0 0.0
0.0 0.0 0.0 0.0 0.0 0.0 0.0 0.0
0.0 0.0 0.0 0.0 0.0 0.0 0.0 0.0
0.0 0.0 0.0 0.0 0.0 0.0 0.0 0.0
0.0 0.0 0.0 0.0 0.0 0.0 0.0 0.0
0.0 0.0 0.0 0.0 0.0 0.0 0.0 0.0
0.0 0.0 0.0 0.0 0.0 0.0 0.0 0.0
0.0 0.0 0.0 0.0 0.0 0.0 0.0 0.0
0.0 0.0 0.0 0.0 0.0 0.0 0.0 0.0
0.0 0.0 0.0 0.0 0.0 0.0 0.0 0.0
0.0 0.0 0.0 0.0 0.0 0.0 0.0 0.0

network_body._body_endoder.seq_layers.2.weight f4 [256, 256]
00000000: b873 283d 2084 bb3c c723 9d3c a23e 173c
00000010: ecff a93d 37dc 7c3b 0231 b8bc 5d0f 69bd
00000020: dbe5 35bd 22a5 283c 1e76 0ebc a05d a73d
00000030: 06bc b5bd 40b8 a0bd 9ee8 56bc e39b 1d3d
00000040: d5d1 11bd 134c 4dbd 7a95 8b3d 2003 34bd
00000050: c070 a7bd 2013 9c3d 77db d33d 811d 92bc
00000060: 7b6f bebd 62ad 16be b5de 31bd 731a 22bd
00000070: 35f9 71bd cb7c 4ebc 26da 193e 3608 33ba
00000080: 4bfb 5abd 3cdd dfbd c63a 9abd 1946 f3bc
00000090: 9c31 4b3d 3cdb b3bd c7e5 503d 88ea 29be
000000a0: 4bd9 49bc 16b5 04bb 45e6 8e3d e814 363d
000000b0: 249b 8dbd fb93 603c 8afe dcbb da8a 05be
000000c0: 8623 bbbc 96bb 8abd 49b5 cabd 6ec5 243c
000000d0: 4006 0cbd 111f 9ebc f907 653d ced2 0fbc
000000e0: 6b4d 173d f297 80bc 422e 8bbd 61e6 733d
000000f0: 2f02 eb3c 4811 803d bbad cabc 04c2 853d
00000100: 3eae 6ebc 9953 dd3b b777 24bc d189 c5bd
00000110: f28e a9bd 4873 26bd 4817 95bc ff66 2e3d
00000120: a5ed 8ebd f893 0d3c 581c 7e3d 9d15 e5bc
00000130: 34b3 9a3d 9499 83bc de9b e0bc 64c5 d2bb
00000140: b8c4 a03c f6ec 75bc 9053 e8bd 1ab3 ce3d
00000150: 1928 d13c caf4 dfbc 1325 c33c c0e0 9e3d
00000160: de98 17bc 7637 f53c 62f0 a53c a3f1 92bb
00000170: 9cd1 633d fb66 8a3c 9621 883d e67e 353c
00000180: e9f6 07bb 6184 3a3d 89b1 02bd 502f 12bd
00000190: 970a 6039 5423 04be 4f88 0c3e 543b af3c
000001a0: d87e 30bd 7394 043d d366 62bd 20c3 9cbc
000001b0: 2db1 19bd 8346 e8bd 702e 75bc 98c6 09bd
000001c0: 3640 363d 4a59 0ebd 25b7 043e e06b 273d
000001d0: 3004 533c 31e6 b8bc f0b0 0ebe 7fae b4bb
000001e0: b81c 253d 64e8 31bc 9861 00be 076c a53d
000001f0: e459 5d3d 75b3 3fbb e154 d9bc b3f7 d0bd
00000200: fd11 ec3a 73f9 ce3d ba53 093e a221 113e
00000210: 32b0 613d 2896 673d 98c2 c23c e773 5fbc
00000220: c797 93bd a5a6 143a 3a59 be3b a73b b0bc
00000230: 9b9b 48ba 0854 363c 4416 cdbd 97c1 9e3d
00000240: 5a93 b93d 89d2 2cbd 6df1 fbbc 8a37 1cbb
00000250: 63de 843d 4f18 86bd ef63 53bd 74fb 603d
00000260: 1a8e 06bd d8d4 0fbc 03e2 22bd 46ea d0bc
00000270: f28b 433c f414 063e 572a 9cbd 429b 39bd
00000280: ae52 de3d 5da3 ca3d fc32 9e3b 9107 4a3d
00000290: def4 a43b ec28 e73b 29bc 383d bd2c 8dbd
000002a0: 8e73 1d3d 6b9f c53c c1b5 87bd 7a1e 27bd
000002b0: 1d20 bf3b 8319 b1bd 1967 003b 9f7f bfbc
000002c0: bb42 583d c82f 273d 7d29 abbd e405 a7bd
000002d0: 104b 373d d4b5 ecba 055e ab3c bbc3 82bd
000002e0: dd92 913d ccac c2bd 9fe9 343d 242b cc3b
000002f0: 1234 a5bd 732c b33b 6d9a 50bd 384f afbb
00000300: 8fdb 09bd 7d46 d439 45b6 873d 1f9e ed3d
00000310: f572 54bd cd1b 8bbb 64fe 403c 2c59 3bbd
00000320: cbf7 643d 73de 47bd 841b 24bd 4dc1 693d
00000330: b894 1a3e b325 eebc 4072 ff3c 38d1 17bd
00000340: dfee 213d 168d 46bd a558 0e3c 4839 1bbd
00000350: c87e acbc f160 883d e7f2 edbd 6ebc ed3c
00000360: 60a9 ad39 2b21 1fbd f2f6 00be 3d5f 0dbe
00000370: 990d 9a3d f947 883c d3e0 163e 482b 40bd
00000380: 85ed efbc 173e a53d 8074 543d baaf 1cbc
00000390: 933c 853c 676e 14be 4778 a63c 5bb0 49bd
000003a0: 91e8 8a3c e7d7 383d 4481 0b3d 033e 14bd
000003b0: ab42 8d3c aa49 ab3d 8a6a 68bc 1127 9dbd
000003c0: c743 cc3c cb7d 4bbd fef1 03bd d59d 09be
000003d0: f9e3 95bc bfa2 81bd 8dd5 7ebd 922c 07be
000003e0: b81b 63bc 761b 503d e65f 813d d10d 0fb8
000003f0: e074 23bd dd2b 263d 6131 89bb 74e5 b13d
0.041125983 0.02289015 0.019182099 0.009231241 0.08300766 0.0038583407 -0.022484306 -0.056899417
-0.04440866 0.010293277 -0.0086951535 0.081721544 -0.08873753 -0.07847643 -0.013116984 0.038478743
-0.035600502 -0.05012138 0.0681562 -0.043948293 -0.08175802 0.07620835 0.10344594 -0.017836334
-0.09298607 -0.14714578 -0.04342528 -0.039576005 -0.059075553 -0.012602995 0.15024623 -0.00068295316
-0.053462308 -0.10930869 -0.075307414 -0.029696511 0.049607858 -0.0878205 0.051000383 -0.16593373
-0.012319873 -0.0020249537 0.06977514 0.04445353 -0.06914356 0.013707156 -0.0067442106 -0.13041249
-0.022844087 -0.067740604 -0.09897859 0.0100568365 -0.034185648 -0.019301923 0.055915806 -0.008778287
0.036939066 -0.015697453 -0.06795932 0.05954588 0.028687565 0.06253296 -0.024741044 0.06531146
-0.01456791 0.0067543504 -0.010038308 -0.09645427 -0.08279218 -0.040637285 -0.018199578 0.042578693
-0.06978921 0.0086412355 0.06203875 -0.027964408 0.075537115 -0.016064443 -0.027418073 -0.006432222
0.019625053 -0.015010109 -0.11344063 0.10092755 0.025531815 -0.027338404 0.02382139 0.077577114
-0.009252755 0.029933672 0.020256225 -0.0044843717 0.05561982 0.016894808 0.06647031 0.011077618
-0.0020746535 0.045536403 -0.031907592 -0.035689652 0.0002136625 -0.12904102 0.13723873 0.021390595
-0.043089718 0.032368135 -0.055273842 -0.019136012 -0.037522484 -0.11341574 -0.014964685 -0.03363666
0.04449483 -0.03475312 0.12960489 0.040874362 0.012879416 -0.022570701 -0.13934684 -0.0055139656
0.04031059 -0.010858629 -0.12537229 0.08077245 0.054040805 -0.0029251252 -0.026529731 -0.10203495
0.0018010732 0.101061724 0.13410845 0.14172986 0.055099674 0.056539685 0.02377443 -0.013638473
-0.072066836 0.0005670584 0.0058089765 -0.02151282 -0.00076525816 0.011128433 -0.100140125 0.07751768
0.09061308 -0.04219297 -0.03075477 -0.0023836815 0.064877294 -0.06547605 -0.051608976 0.054927304
-0.032850362 -0.008778773 -0.039766323 -0.025502335 0.011935221 0.1309393 -0.07625263 -0.04531408
0.10855614 0.0989444 0.004827855 0.049323622 0.0050340733 0.007054439 0.04510132 -0.06893299
0.03844028 0.024123868 -0.06626464 -0.04080055 0.0058326856 -0.08647444 0.00195927 -0.023376284
0.052798014 0.040817052 -0.08357523 -0.081554204 0.04474932 -0.001805956 0.020918855 -0.06384989
0.0710809 -0.09505615 0.04416811 0.0062307287 -0.08066572 0.0054679452 -0.050928522 -0.00535002
-0.033656653 0.0004048831 0.06626562 0.11602425 -0.051867444 -0.0042452575 0.011779401 -0.045739338
0.055900376 -0.04879613 -0.040065303 0.05706911 0.15095794 -0.02907071 0.031182408 -0.03706476
0.039534446 -0.048474394 0.008688127 -0.037896425 -0.021056548 0.06659115 -0.116185956 0.029020514
0.00033123326 -0.03884999 -0.12594202 -0.13805862 0.07522125 0.016635882 0.14734201 -0.046916276
-0.029288063 0.08068483 0.051868916 -0.009563381 0.016264236 -0.1449524 0.020321025 -0.04924045
0.0169566 0.045127776 0.034058824 -0.03619195 0.017243704 0.0836366 -0.014185557 -0.07673467
0.024934663 -0.049680512 -0.032213204 -0.13439114 -0.018297182 -0.063298695 -0.062215377 -0.13200596
-0.013861589 0.05080744 0.06317119 -3.4106724e-05 -0.039906383 0.040569175 -0.0041867946 0.08686343

network_body._body_endoder.seq_layers.2.bias f4 [256]
00000000: 0000 0000 0000 0000 0000 0000 0000 0000
00000010: 0000 0000 0000 0000 0000 0000 0000 0000
00000020: 0000 0000 0000 0000 0000 0000 0000 0000
00000030: 0000 0000 0000 0000 0000 0000 0000 0000
00000040: 0000 0000 0000 0000 0000 0000 0000 0000
00000050: 0000 0000 0000 0000 0000 0000 0000 0000
00000060: 0000 0000 0000 0000 0000 0000 0000 0000
00000070: 0000 0000 0000 0000 0000 0000 0000 0000
00000080: 0000 0000 0000 0000 0000 0000 0000 0000
00000090: 0000 0000 0000 0000 0000 0000 0000 0000
000000a0: 0000 0000 0000 0000 0000 0000 0000 0000
000000b0: 0000 0000 0000 0000 0000 0000 0000 0000
000000c0: 0000 0000 0000 0000 0000 0000 0000 0000
000000d0: 0000 0000 0000 0000 0000 0000 0000 0000
000000e0: 0000 0000 0000 0000 0000 0000 0000 0000
000000f0: 0000 0000 0000 0000 0000 0000 0000 0000
00000100: 0000 0000 0000 0000 0000 0000 0000 0000
00000110: 0000 0000 0000 0000 0000 0000 0000 0000
00000120: 0000 0000 0000 0000 0000 0000 0000 0000
00000130: 0000 0000 0000 0000 0000 0000 0000 0000
00000140: 0000 0000 0000 0000 0000 0000 0000 0000
00000150: 0000 0000 0000 0000 0000 0000 0000 0000
00000160: 0000 0000 0000 0000 0000 0000 0000 0000
00000170: 0000 0000 0000 0000 0000 0000 0000 0000
00000180: 0000 0000 0000 0000 0000 0000 0000 0000
00000190: 0000 0000 0000 0000 0000 0000 0000 0000
000001a0: 0000 0000 0000 0000 0000 0000 0000 0000
000001b0: 0000 0000 0000 0000 0000 0000 0000 0000
000001c0: 0000 0000 0000 0000 0000 0000 0000 0000
000001d0: 0000 0000 0000 0000 0000 0000 0000 0000
000001e0: 0000 0000 0000 0000 0000 0000 0000 0000
000001f0: 0000 0000 0000 0000 0000 0000 0000 0000
00000200: 0000 0000 0000 0000 0000 0000 0000 0000
00000210: 0000 0000 0000 0000 0000 0000 0000 0000
00000220: 0000 0000 0000 0000 0000 0000 0000 0000
00000230: 0000 0000 0000 0000 0000 0000 0000 0000
00000240: 0000 0000 0000 0000 0000 0000 0000 0000
00000250: 0000 0000 0000 0000 0000 0000 0000 0000
00000260: 0000 0000 0000 0000 0000 0000 0000 0000
00000270: 0000 0000 0000 0000 0000 0000 0000 0000
00000280: 0000 0000 0000 0000 0000 0000 0000 0000
00000290: 0000 0000 0000 0000 0000 0000 0000 0000
000002a0: 0000 0000 0000 0000 0000 0000 0000 0000
000002b0: 0000 0000 0000 0000 0000 0000 0000 0000
000002c0: 0000 0000 0000 0000 0000 0000 0000 0000
000002d0: 0000 0000 0000 0000 0000 0000 0000 0000
000002e0: 0000 0000 0000 0000 0000 0000 0000 0000
000002f0: 0000 0000 0000 0000 0000 0000 0000 0000
00000300: 0000 0000 0000 0000 0000 0000 0000 0000
00000310: 0000 0000 0000 0000 0000 0000 0000 0000
00000320: 0000 0000 0000 0000 0000 0000 0000 0000
00000330: 0000 0000 0000 0000 0000 0000 0000 0000
00000340: 0000 0000 0000 0000 0000 0000 0000 0000
00000350: 0000 0000 0000 0000 0000 0000 0000 0000
00000360: 0000 0000 0000 0000 0000 0000 0000 0000
00000370: 0000 0000 0000 0000 0000 0000 0000 0000
00000380: 0000 0000 0000 0000 0000 0000 0000 0000
00000390: 0000 0000 0000 0000 0000 0000 0000 0000
000003a0: 0000 0000 0000 0000 0000 0000 0000 0000
000003b0: 0000 0000 0000 0000 0000 0000 0000 0000
000003c0: 0000 0000 0000 0000 0000 0000 0000 0000
000003d0: 0000 0000 0000 0000 0000 0000 0000 0000
000003e0: 0000 0000 0000 0000 0000 0000 0000 0000
000003f0: 0000 0000 0000 0000 0000 0000 0000 0000
0.0 0.0 0.0 0.0 0.0 0.0 0.0 0.0
0.0 0.0 0.0 0.0 0.0 0.0 0.0 0.0
0.0 0.0 0.0 0.0 0.0 0.0 0.0 0.0
0.0 0.0 0.0 0.0 0.0 0.0 0.0 0.0
0.0 0.0 0.0 0.0 0.0 0.0 0.0 0.0
0.0 0.0 0.0 0.0 0.0 0.0 0.0 0.0
0.0 0.0 0.0 0.0 0.0 0.0 0.0 0.0
0.0 0.0 0.0 0.0 0.0 0.0 0.0 0.0
0.0 0.0 0.0 0.0 0.0 0.0 0.0 0.0
0.0 0.0 0.0 0.0 0.0 0.0 0.0 0.0
0.0 0.0 0.0 0.0 0.0 0.0 0.0 0.0
0.0 0.0 0.0 0.0 0.0 0.0 0.0 0.0
0.0 0.0 0.0 0.0 0.0 0.0 0.0 0.0
0.0 0.0 0.0 0.0 0.0 0.0 0.0 0.0
0.0 0.0 0.0 0.0 0.0 0.0 0.0 0.0
0.0 0.0 0.0 0.0 0.0 0.0 0.0 0.0
0.0 0.0 0.0 0.0 0.0 0.0 0.0 0.0
0.0 0.0 0.0 0.0 0.0 0.0 0.0 0.0
0.0 0.0 0.0 0.0 0.0 0.0 0.0 0.0
0.0 0.0 0.0 0.0 0.0 0.0 0.0 0.0
0.0 0.0 0.0 0.0 0.0 0.0 0.0 0.0
0.0 0.0 0.0 0.0 0.0 0.0 0.0 0.0
0.0 0.0 0.0 0.0 0.0 0.0 0.0 0.0
0.0 0.0 0.0 0.0 0.0 0.0 0.0 0.0
0.0 0.0 0.0 0.0 0.0 0.0 0.0 0.0
0.0 0.0 0.0 0.0 0.0 0.0 0.0 0.0
0.0 0.0 0.0 0.0 0.0 0.0 0.0 0.0
0.0 0.0 0.0 0.0 0.0 0.0 0.0 0.0
0.0 0.0 0.0 0.0 0.0 0.0 0.0 0.0
0.0 0.0 0.0 0.0 0.0 0.0 0.0 0.0
0.0 0.0 0.0 0.0 0.0 0.0 0.0 0.0
0.0 0.0 0.0 0.0 0.0 0.0 0.0 0.0

action_model._continuous_distribution.log_sigma f4 [1, 3]
00000000: 0000 0000 0000 0000 0000 0000
0.0 0.0 0.0

action_model._continuous_distribution.mu.weight f4 [3, 256]
00000000: 7f40 3d3c 20a3 1fba abb1 55bb e07b 4f3c
00000010: 1386 903c 351d bfba 884d 3cbc a2c3 99bc
00000020: 8988 28bc caf6 5e3c b894 b9bb 3422 15bc
00000030: 8a6c a2ba 7f4f a4bc 0424 153b c54f 0f3c
00000040: f0bf e23b 7fe4 ea38 fed0 843b 1bd1 0b3c
00000050: 1784 063b 5e1c 8c3b 3d81 033c 839a 66bb
00000060: 2fd5 b0bc eeb9 9cbb 47e0 1bbc 9fde 1a3a
00000070: 73f1 003c 9da2 51bb 531e dcbc 7b4c 0b3b
00000080: 0f64 71bb ca3b 79bc 246e 3b3b dfc6 b6b8
00000090: 0282 22bc bb81 1cbc f403 b83b acfa 22bc
000000a0: bb49 83bc 2295 2dbc 6053 9e3b d894 413c
000000b0: 4f04 e6bb a1cb 29bc c1a9 bc3c 8a54 67bb
000000c0: 07d4 e73b d30c 3fbb 0a3f c2bc 8052 af3a
000000d0: 8790 5e3b 099f c93b d2f6 083b f40f 05bc
000000e0: 48af c93b 70d0 493c c0d2 993b 30b2 79bc
000000f0: b57d c9bb ad36 45bc 6c88 2cbc 2799 5fbc
00000100: 837c c6bc 521f 2bbd 7f38 6abb 6505 6c3c
00000110: 4b91 a0bc 7b9c a5ba 1fd7 473c 07af 4cbc
00000120: 7864 113b 05b5 153b c00d c63a 176a 5c3c
00000130: 341f 333c 9f70 bf3b b71e ce3c b537 03bc
00000140: ccac 263c 0dee e0bb 2ae0 dcbb eabf 833b
00000150: 7d18 b63a 6f78 d9bc 9aed 2b3c 50ea b4bb
00000160: fc47 383c 2cd5 a6bc 0958 43bb f58b feba
00000170: 475f 313c 43af 04bc 67ad 2e3c 3d2d 133d
00000180: 3209 47bc 036e 87bc 3bc9 fd3b fcad a3bb
00000190: 205e 4d3c 57b2 38bc e09e f6bc f6ac bcbc
000001a0: 7ba1 c83c b348 71ba 23e9 90bc 68d3 3c3b
000001b0: 6f4f 9ebb c721 da3b e534 2a3a 3a2d babc
000001c0: ff62 05bc 3088 7ebc 579d 673c 82f0 b53b
000001d0: 7a6b c13a 9adb de3a cbdb f3ba ffac d6bb
000001e0: baf4 e5bb ea53 733c f710 3a3c 6b4f 713c
000001f0: 0fd6 93bc 3918 82bc a3ad 0abc f784 4ebc
00000200: 2307 75bc 4ba1 ce3b 7bc9 d63a f3bd 8ebc
00000210: 1518 a3bc 137a 0fbc 37fd fab9 c11e 09bc
00000220: 962a 233c 5d0e 2a3c e1ab 01bc 8bcb cebb
00000230: 8f5a 2ebc cf56 5a3c 8fa9 a0bc fa67 cf3a
00000240: 96aa 9abb 6879 d83b b392 9a3c 205a eb3c
00000250: 0ab0 ae3c 4912 363c 873b e3bc 4a09 59bb
00000260: 64b9 c1b9 704f 02ba a7f4 84bc 2d96 7c3b
00000270: ca8b 23bc d882 703c fbaf fbba 3bd1 84bc
00000280: b38c 813c 4d89 c43a cdb9 b8bc 9179 01bc
00000290: f3f9 fcbb 6daa d33b 7a66 ceba 2f28 c73b
000002a0: af33 0f3c 31da 813c c6b7 963b 828f 4abb
000002b0: 085b b3bb edae bcbb c7cf 293c 64f1 823c
000002c0: e589 ae3a 8add 533c a808 12bc efc7 5b3b
000002d0: 6aef 5939 c0f0 eabc 2f84 30bc 3e50 b03c
000002e0: 3185 8e3b 6fcf 143c 73f1 173c 1b3a 773b
000002f0: bbb2 eabc e6e2 bdbb 8961 463b 73ed 08b9
00000300: ffc6 253c 7d89 f73c edd0 e33a e853 58bc
00000310: 3636 13bc b351 ebbb a34d a83b 2b6d 52bc
00000320: df12 bf3b 0dd8 683c da6a 07bb 74a2 c4bb
00000330: befe 0ebb 2b37 f6bb 09bf 11bc 17b4 75bc
00000340: a5b1 963c 675a 953c 9f41 22bc f306 c43c
00000350: e378 90bc f355 033c dfe7 d73a ade5 ed3c
00000360: 6da6 ea3b cb89 68bc f5b1 563c 38cf 72ba
00000370: 8b8f 63bc 7b6d 46bc d326 153c 2d30 ee3b
00000380: 8997 a73c f1a1 8bbc 7fc0 7bbc 73f8 78ba
00000390: 035b 9bbc 5731 15ba 72d4 46bc 29b9 173b
000003a0: b1aa 29bc 3846 0abc 2b6a 863c 7bc1 5dbc
000003b0: 704e a4bb 8b04 c83c 989f 5b3c fd46 c0b9
000003c0: f544 e4bb 350a 1e3b a434 3cbb 2d75 5abc
000003d0: 0d83 783c 4f69 fe3b ae47 893c 53aa f8ba
000003e0: 9bff a73b 5d10 fdbb 42d0 983c 6aef d43c
000003f0: 2fa1 d6bb 0bc3 c5ba 7685 45bb 8904 14bb
0.011551022 -0.0006089676 -0.003260712 0.012663811 0.017642057 -0.0014580848 -0.011493094 -0.018770043
-0.010286459 0.013608644 -0.0056634806 -0.009102393 -0.0012391966 -0.020057438 0.0022757063 0.008747046
0.0069198534 0.0001120055 0.004053234 0.008533741 0.002052551 0.0042758426 0.008026418 -0.003518731
-0.021586029 -0.0047829067 -0.009513921 0.0005907807 0.007870066 -0.0031987794 -0.026869928 0.0021255303
-0.0036833321 -0.015212009 0.0028599584 -8.715479e-05 -0.009918692 -0.0095524145 0.0056157056 -0.00994746
-0.016026368 -0.010594638 0.0048317164 0.011815272 -0.0070195566 -0.01036349 0.023030164 -0.0035298192
0.007074836 -0.002915193 -0.0237117 0.0013376027 0.0033960657 0.0061529917 0.002089907 -0.008121479
0.0061549284 0.012317762 0.004694313 -0.015240237 -0.0061490186 -0.0120369615 -0.010530572 -0.013647354
-0.024229294 -0.041777916 -0.003573924 0.014405583 -0.019600531 -0.0012635136 0.012197285 -0.012492902
0.0022185128 0.0022843492 0.0015110299 0.013453028 0.010932732 0.005842283 0.02516113 -0.008008887
0.010173034 -0.0068643154 -0.0067405896 0.0040206807 0.0013892796 -0.026546685 0.01049366 -0.0055210963
0.011247631 -0.02036532 -0.0029807112 -0.0019420373 0.010825939 -0.008098426 0.0106614595 0.035931814
-0.012148188 -0.01653195 0.007744936 -0.004995106 0.012534648 -0.011272988 -0.030105054 -0.023031693
0.024491062 -0.00092042534 -0.017689293 0.0028812531 -0.0048312466 0.0066568586 0.0006492867 -0.022726644
-0.008141278 -0.015535399 0.014136634 0.0055523524 0.0014756762 0.0017002702 -0.0018604932 -0.0065513845
-0.007017699 0.01485155 0.011356584 0.014728407 -0.018046407 -0.01588069 -0.00846425 -0.0126049435
-0.014955315 0.0063058487 0.001638695 -0.01742456 -0.019908944 -0.008757132 -0.00047872376 -0.008369149
0.009958884 0.010379401 -0.007914514 -0.0063108853 -0.010641708 0.013326361 -0.019612102 0.0015823834
-0.0047200425 0.0066062696 0.01886878 0.028729498 0.021324176 0.011112758 -0.027738346 -0.003311711
-0.00036949955 -0.00049709436 -0.01622994 0.003854166 -0.009982059 0.014679633 -0.0019202227 -0.01621305
0.01581416 0.0014994532 -0.022549534 -0.007902519 -0.007720226 0.0064595253 -0.0015747093 0.0060777883
0.00874035 0.015851112 0.004599544 -0.0030908291 -0.0054734983 -0.0057581575 0.010364479 0.015984245
0.0013316242 0.012931237 -0.008913197 0.0033535918 0.00020783921 -0.028679252 -0.0107737025 0.021522637
0.0043493737 0.009082659 0.009273875 0.0037723843 -0.028649678 -0.0057948707 0.0030270538 -0.00013058427
0.010118245 0.030216927 0.001738099 -0.013203599 -0.008985093 -0.00718137 0.005136208 -0.0128434105
0.005831107 0.014211667 -0.0020663054 -0.0060008112 -0.0021819319 -0.0075139008 -0.008895644 -0.01499655
0.018395254 0.018231584 -0.009903341 0.023929095 -0.017635768 0.008016097 0.0016472301 0.029040182
0.007160953 -0.014193009 0.013103952 -0.00092624454 -0.013889204 -0.012111063 0.009103495 0.0072689266
0.020458 -0.017044993 -0.015365719 -0.0009497471 -0.018964296 -0.0005691251 -0.012135612 0.0023151136
-0.010355637 -0.008439593 0.016408047 -0.013534899 -0.0050142333 0.024416229 0.013404749 -0.00036673984
-0.006966228 0.002411497 -0.00287179 -0.013333601 0.015167964 0.0077640186 0.016757812 -0.0018971659
0.005126906 -0.007722898 0.018653993 0.025993068 -0.0065499763 -0.0015088035 -0.0030139363 -0.002258571

action_model._continuous_distribution.mu.bias f4 [3]
00000000: 0000 0000 0000 0000 0000 0000
0.0 0.0 0.0

network_body._body_endoder.seq_layers.0.weight f4 [256, 1]
00000000: 29e0 60bf 9fb6 973e 1a6c f83f 408b 833a
00000010: e481 debf 1dd0 bc3f e298 ec3e 3d49 f23d
00000020: 924d 393f 90a2 d33e 598a 82bf 77d3 6a3d
00000030: 53ff c03e 17c3 9fbf e86b 3cc0 a926 0240
00000040: a18c eb3e 5469 bd3d 2839 3f40 0015 25bf
00000050: 6dcf 0840 6cfa da3d c9e4 123f f2d3 4ebe
00000060: 6658 f93f 3b90 55bf c5c0 29bf b72a 313f
00000070: 1e8b ff3f 1235 5fbf 737f b4be 40ad 59bf
00000080: 84f9 72bf 7070 c03e 3a43 90bf 8254 cdbf
00000090: 1051 fbbe ae1d ff3f 8763 7bbf 20cf a03d
000000a0: 3cd5 a1bf 35b4 7cbe 521d 57be 6268 a6bf
000000b0: 87a4 0340 e874 923f 87ec ac3f 836c 193f
000000c0: 5a61 04bf e839 8bbf 9bb9 0cbf d08b f8bf
000000d0: 59bd 8e3e 5e96 193e ff5a 953e 4837 7bbf
000000e0: 3978 07c0 22ef 133e 1889 12c0 98eb 98be
000000f0: 6ee4 94bf 92dc 703d 92c6 0cc0 c0d9 9a3f
00000100: 6a72 34be a4e6 503f 5547 ba3f be8a 2e3f
00000110: 5bd9 4e3f cb9d 92bd 40e4 e63e db8c 803f
00000120: bc73 d63d e1f4 383f 357b 053f 8eeb a93e
00000130: 015f 703f 3f82 d93d 8c91 aabe dcb4 1bbf
00000140: d0b3 ad3f dfdc 85bf 35a8 be3f ea68 08bf
00000150: dc5b 0340 cd3d cbbf 3596 c63f 63bb 1c3f
00000160: b1c6 c13f 2b58 e53f d9f4 563f 060c 413e
00000170: b48d 8ebf 0f6b 0ebc f68f c43e 7ef4 48bf
00000180: 27a0 623f 98fa 0140 435a 07bf 1090 09c0
00000190: 1827 08c0 2541 e93e 4f45 2dbf cbd3 2240
000001a0: 5aeb 04c0 9fde 8dbf 9386 cc3f 2da1 dd3f
000001b0: 4b42 603f 0be4 863f add2 febe 9970 1d3f
000001c0: a017 95bf a258 63be 3509 fcbf 913e 25bf
000001d0: b759 313f dab3 f4bc c996 30be 9a99 b4bf
000001e0: 18ab 693f f614 b03e 55e8 953e 8f7b 213f
000001f0: 0bf6 f03e 8f1a 8cbe 7abe 05be 4ee3 afbe
00000200: 2efa 8dbd f7a3 713f a7c1 adbe 0c92 a9be
00000210: 9de3 993d e7e5 26c0 63c2 81bd 1811 25bf
00000220: 5a79 bebf 1a70 013f 12dd 203f 0bf9 853e
00000230: 00fe b23f 17f3 993f bbc7 03bf 8736 8abf
00000240: 3381 1f3f e532 383e 2299 1bbe f8f5 87bf
00000250: fc0e 2f40 64b4 babe bf7b b43e 60c8 9fbf
00000260: 138c 8abe fd93 1ebf a120 1340 b70b 93be
00000270: 5410 393e dfe4 cabe 16e2 aebf d829 11bd
00000280: be0a 10bf 3f50 18bf ed66 aabf 2ea5 6c3f
00000290: 7487 613e 445b 00be 42b4 283f 51fd ab3f
000002a0: ff76 9e3f a1c1 ae3e 19be bcbf f685 213f
000002b0: 052d 00bf 197c 7b3f 1783 08bf f8eb 8dbf
000002c0: aa76 8f3f a133 ef3f 7ae2 573e 9f6d 8ebf
000002d0: 00e1 453f ab91 813c 06e4 aa3f 6c8c 3abf
000002e0: 0fcd 0b3f 774b 0140 add2 0b40 0ca9 683e
000002f0: 22c8 7d3f 5a7c c33f 916b dd3e a3bd 783f
00000300: fe5f 07c0 3e74 b63f 99ff 01c0 4c3d 25bf
00000310: 4570 47bd 0cee b33e fcd8 593d 82f4 d3be
00000320: 6afd 27bf be4a c3bf fbdb 993e cf8a 343f
00000330: 8470 82bf f702 f13e bc1c f3bf c06b 01c0
00000340: b587 e53e 72c0 aa3e 1f52 7ebf 5d5a 413d
00000350: 5185 3cbe aad0 9b3f af96 253d efc6 993d
00000360: e31e 9bbf 7de0 a5bf d5c5 c5be b991 873f
00000370: 8ccd e7be a896 b0bf 66ac 813f ee8d 933d
00000380: 516d 94bf e6af 0dbf 4cc5 eb3e 011f d83f
00000390: f1d8 9e3d 77f3 933e 9818 f7be 88ad 9c3f
000003a0: 26aa 0e3e d1ab 11bd c028 3cbf fd9a d63e
000003b0: 1d2b 8d3e 3492 623e 8ef7 e4bf a5a0 a1be
000003c0: 1ad5 f23f 9bf2 6a3e 08ca 2840 e4d0 bc3f
000003d0: ccdd 753e 7511 80bd 3359 c83e 6ef1 8bbf
000003e0: 0db0 683e 6e97 86bf f178 0240 a92a b2be
000003f0: 42f8 16be 3312 fbbf cb78 8dbf 56d1 ddbe
-0.8784204 0.29631516 1.940799 0.0010036007 -1.738339 1.4751011 0.4621039 0.11830375
0.7238399 0.41334963 -1.019847 0.057330575 0.37694797 -1.2481412 -2.944086 2.0336096
0.4600573 0.09248605 2.9878635 -0.6448517 2.1376603 0.106922954 0.5738035 -0.20198038
1.9480102 -0.83423203 -0.6630977 0.692058 1.996433 -0.87190354 -0.35253486 -0.85029984
-0.9491198 0.37585783 -1.1270516 -1.6041415 -0.49085283 1.9930933 -0.9819874 0.07852006
-1.2643199 -0.24678119 -0.21007279 -1.3000605 2.056917 1.1441927 1.3509682 0.599312
-0.51711047 -1.0877047 -0.5497071 -1.9417667 0.27878836 0.14998767 0.29170987 -0.9813123
-2.1167128 0.1444669 -2.2896175 -0.29867244 -1.1632211 0.058804102 -2.1996198 1.2097702
-0.1762177 0.8160193 1.4553019 0.68180454 0.8080041 -0.07159003 0.45096016 1.0042986
0.10471293 0.72248656 0.52141124 0.33187526 0.93894964 0.106205456 -0.33314168 -0.60822845
1.35705 -1.045803 1.4895083 -0.53285086 2.0524817 -1.5878235 1.551459 0.6122343
1.5138761 1.7917532 0.8396736 0.18852243 -1.1136994 -0.008692517 0.38391083 -0.78498065
0.88525623 2.03092 -0.52872103 -2.1494179 -2.127386 0.45557514 -0.6768388 2.5441768
-2.0768647 -1.1083564 1.5978569 1.7314812 0.87601155 1.0538343 -0.49770108 0.61499935
-1.1647835 -0.2220178 -1.969031 -0.64548594 0.6927752 -0.029870916 -0.1724502 -1.4109375
0.91276693 0.34390992 0.29278818 0.6307916 0.47062716 -0.27364013 -0.13060942 -0.34353107
-0.069324836 0.94390815 -0.33936808 -0.33119237 0.07514117 -2.6077821 -0.063359044 -0.6447921
-1.4880784 0.5056168 0.62837327 0.26166567 1.3983765 1.202731 -0.5147664 -1.079789
0.6230652 0.17988165 -0.15195134 -1.0621939 2.7352896 -0.36465752 0.3525066 -1.2483025
-0.27059993 -0.6194456 2.2988665 -0.28719875 0.18072635 -0.3962774 -1.3662746 -0.035440296
-0.5626639 -0.59497446 -1.331266 0.92439544 0.22024328 -0.12534815 0.6590005 1.3436681
1.2380065 0.34132102 -1.4745513 0.63095033 -0.50068694 0.98236233 -0.5332503 -1.1087637
1.1208088 1.8687631 0.21082488 -1.1127204 0.7729645 0.01581653 1.3350837 -0.72870517
0.5460977 2.020231 2.1847336 0.22720736 0.99133503 1.5272324 0.4324613 0.9716436
-2.115234 1.4254224 -2.0312254 -0.64546657 -0.048691053 0.35142553 0.053185448 -0.41397482
-0.65621054 -1.5257185 0.30050644 0.70524305 -1.0190587 0.47072574 -1.8993144 -2.0222015
0.448301 0.3334995 -0.99344057 0.047205318 -0.18410231 1.2173054 0.040426906 0.07508647
-1.2118801 -1.2959133 -0.38627496 1.0591346 -0.45274007 -1.3795977 1.0130737 0.07204805
-1.1595861 -0.55346525 0.46048963 1.6884462 0.07756222 0.28896686 -0.4826095 1.2240458
0.13932094 -0.035564248 -0.7349968 0.41915122 0.27571955 0.22126085 -1.7888048 -0.31567875
1.8971283 0.22944109 2.637331 1.4751248 0.2401039 -0.0625333 0.39130554 -1.0933053
0.22723408 -1.0514963 2.0386317 -0.34798172 -0.1474314 -1.9614929 -1.1052488 -0.43323773

network_body._body_endoder.seq_layers.0.bias f4 [256]
00000000: 0000 0000 0000 0000 0000 0000 0000 0000
00000010: 0000 0000 0000 0000 0000 0000 0000 0000
00000020: 0000 0000 0000 0000 0000 0000 0000 0000
00000030: 0000 0000 0000 0000 0000 0000 0000 0000
00000040: 0000 0000 0000 0000 0000 0000 0000 0000
00000050: 0000 0000 0000 0000 0000 0000 0000 0000
00000060: 0000 0000 0000 0000 0000 0000 0000 0000
00000070: 0000 0000 0000 0000 0000 0000 0000 0000
00000080: 0000 0000 0000 0000 0000 0000 0000 0000
00000090: 0000 0000 0000 0000 0000 0000 0000 0000
000000a0: 0000 0000 0000 0000 0000 0000 0000 0000
000000b0: 0000 0000 0000 0000 0000 0000 0000 0000
000000c0: 0000 0000 0000 0000 0000 0000 0000 0000
000000d0: 0000 0000 0000 0000 0000 0000 0000 0000
000000e0: 0000 0000 0000 0000 0000 0000 0000 0000
000000f0: 0000 0000 0000 0000 0000 0000 0000 0000
00000100: 0000 0000 0000 0000 0000 0000 0000 0000
00000110: 0000 0000 0000 0000 0000 0000 0000 0000
00000120: 0000 0000 0000 0000 0000 0000 0000 0000
00000130: 0000 0000 0000 0000 0000 0000 0000 0000
00000140: 0000 0000 0000 0000 0000 0000 0000 0000
00000150: 0000 0000 0000 0000 0000 0000 0000 0000
00000160: 0000 0000 0000 0000 0000 0000 0000 0000
00000170: 0000 0000 0000 0000 0000 0000 0000 0000
00000180: 0000 0000 0000 0000 0000 0000 0000 0000
00000190: 0000 0000 0000 0000 0000 0000 0000 0000
000001a0: 0000 0000 0000 0000 0000 0000 0000 0000
000001b0: 0000 0000 0000 0000 0000 0000 0000 0000
000001c0: 0000 0000 0000 0000 0000 0000 0000 0000
000001d0: 0000 0000 0000 0000 0000 0000 0000 0000
000001e0: 0000 0000 0000 0000 0000 0000 0000 0000
000001f0: 0000 0000 0000 0000 0000 0000 0000 0000
00000200: 0000 0000 0000 0000 0000 0000 0000 0000
00000210: 0000 0000 0000 0000 0000 0000 0000 0000
00000220: 0000 0000 0000 0000 0000 0000 0000 0000
00000230: 0000 0000 0000 0000 0000 0000 0000 0000
00000240: 0000 0000 0000 0000 0000 0000 0000 0000
00000250: 0000 0000 0000 0000 0000 0000 0000 0000
00000260: 0000 0000 0000 0000 0000 0000 0000 0000
00000270: 0000 0000 0000 0000 0000 0000 0000 0000
00000280: 0000 0000 0000 0000 0000 0000 0000 0000
00000290: 0000 0000 0000 0000 0000 0000 0000 0000
000002a0: 0000 0000 0000 0000 0000 0000 0000 0000
000002b0: 0000 0000 0000 0000 0000 0000 0000 0000
000002c0: 0000 0000 0000 0000 0000 0000 0000 0000
000002d0: 0000 0000 0000 0000 0000 0000 0000 0000
000002e0: 0000 0000 0000 0000 0000 0000 0000 0000
000002f0: 0000 0000 0000 0000 0000 0000 0000 0000
00000300: 0000 0000 0000 0000 0000 0000 0000 0000
00000310: 0000 0000 0000 0000 0000 0000 0000 0000
00000320: 0000 0000 0000 0000 0000 0000 0000 0000
00000330: 0000 0000 0000 0000 0000 0000 0000 0000
00000340: 0000 0000 0000 0000 0000 0000 0000 0000
00000350: 0000 0000 0000 0000 0000 0000 0000 0000
00000360: 0000 0000 0000 0000 0000 0000 0000 0000
00000370: 0000 0000 0000 0000 0000 0000 0000 0000
00000380: 0000 0000 0000 0000 0000 0000 0000 0000
00000390: 0000 0000 0000 0000 0000 0000 0000 0000
000003a0: 0000 0000 0000 0000 0000 0000 0000 0000
000003b0: 0000 0000 0000 0000 0000 0000 0000 0000
000003c0: 0000 0000 0000 0000 0000 0000 0000 0000
000003d0: 0000 0000 0000 0000 0000 0000 0000 0000
000003e0: 0000 0000 0000 0000 0000 0000 0000 0000
000003f0: 0000 0000 0000 0000 0000 0000 0000 0000
0.0 0.0 0.0 0.0 0.0 0.0 0.0 0.0
0.0 0.0 0.0 0.0 0.0 0.0 0.0 0.0
0.0 0.0 0.0 0.0 0.0 0.0 0.0 0.0
0.0 0.0 0.0 0.0 0.0 0.0 0.0 0.0
0.0 0.0 0.0 0.0 0.0 0.0 0.0 0.0
0.0 0.0 0.0 0.0 0.0 0.0 0.0 0.0
0.0 0.0 0.0 0.0 0.0 0.0 0.0 0.0
0.0 0.0 0.0 0.0 0.0 0.0 0.0 0.0
0.0 0.0 0.0 0.0 0.0 0.0 0.0 0.0
0.0 0.0 0.0 0.0 0.0 0.0 0.0 0.0
0.0 0.0 0.0 0.0 0.0 0.0 0.0 0.0
0.0 0.0 0.0 0.0 0.0 0.0 0.0 0.0
0.0 0.0 0.0 0.0 0.0 0.0 0.0 0.0
0.0 0.0 0.0 0.0 0.0 0.0 0.0 0.0
0.0 0.0 0.0 0.0 0.0 0.0 0.0 0.0
0.0 0.0 0.0 0.0 0.0 0.0 0.0 0.0
0.0 0.0 0.0 0.0 0.0 0.0 0.0 0.0
0.0 0.0 0.0 0.0 0.0 0.0 0.0 0.0
0.0 0.0 0.0 0.0 0.0 0.0 0.0 0.0
0.0 0.0 0.0 0.0 0.0 0.0 0.0 0.0
0.0 0.0 0.0 0.0 0.0 0.0 0.0 0.0
0.0 0.0 0.0 0.0 0.0 0.0 0.0 0.0
0.0 0.0 0.0 0.0 0.0 0.0 0.0 0.0
0.0 0.0 0.0 0.0 0.0 0.0 0.0 0.0
0.0 0.0 0.0 0.0 0.0 0.0 0.0 0.0
0.0 0.0 0.0 0.0 0.0 0.0 0.0 0.0
0.0 0.0 0.0 0.0 0.0 0.0 0.0 0.0
0.0 0.0 0.0 0.0 0.0 0.0 0.0 0.0
0.0 0.0 0.0 0.0 0.0 0.0 0.0 0.0
0.0 0.0 0.0 0.0 0.0 0.0 0.0 0.0
0.0 0.0 0.0 0.0 0.0 0.0 0.0 0.0
0.0 0.0 0.0 0.0 0.0 0.0 0.0 0.0

network_body._body_endoder.seq_layers.2.weight f4 [256, 256]
00000000: a92b d2bb bf98 213d bf0f 6b3c 3d92 8abd
00000010: c4b3 e9ba f6c4 2d3d 0ecc 673d 2551 fabc
00000020: 7917 1fbd 91db 48bb 8ff5 623c 4fe9 013a
00000030: 2073 813d 6cab 343d 0be1 353d 8642 373d
00000040: 4dbc 093d 928e 153e 513b 7e3c 92e9 a33d
00000050: cc17 023c 286d e23c 0d8c 84bd 5884 28bd
00000060: 0bb4 c43c 278c 843d ed8a 283c 382a 153e
00000070: 1f8f 27bd 6596 dc3d 2237 7c3d a986 e63b
00000080: 46fb 343c cb1d 00bd e1b0 ac3c 6858 f33d
00000090: b14e 9e3d f200 603d cd94 f83c b768 8c3c
000000a0: 83b7 8d3d 1179 7a3c f890 88bc 7420 5abd
000000b0: e232 ba3d 101c 2cbd 4dd3 89bc 6b59 dabd
000000c0: 85d2 143e faa5 38bd 3a1a 01bd 581e 7cbc
000000d0: fa3b d9bd 569e cabc 9de1 c4ba 60b1 b33d
000000e0: d6fc 9bbd f5a0 ec3c 444b c1bb 769e c6bd
000000f0: 095c 553d 0643 44bd c4b7 d03c e306 84bd
00000100: 3446 97bd 5eb1 b2bd a618 78b9 8a65 32bc
00000110: 79fc 90bd a5cc 7fbc 4577 e1bd 37f4 aa3c
00000120: dbdf a6bc 4685 f3bc 2bf8 963c c3d2 8d3c
00000130: 007c b83c caea a93b 2d6f b2bd aba5 49bd
00000140: 5f35 d5bc 1bad 1cbc b2a8 8fbc 235f d1bc
00000150: a98a 9dbd 9d8e a7bc 858d 493c 716f e13d
00000160: bd14 ef3a 388f 953d 78f1 203d ba74 59bc
00000170: 8bc2 d23c 7120 16bc 35a9 af3c 27f2 f1bc
00000180: dca6 00bd fc74 533d 834f 1d3d 8dde 913d
00000190: 1930 46bd 3626 e53b c03e 823d 9d3f 3f3d
000001a0: aabf 2cbb 59fb 2f3d e9df d93d 0d77 b33c
000001b0: de72 243d 6d2e e73d b211 593d feee c03d
000001c0: 7950 6d3d 5cd5 c4bc 84ac 2b3d 05a7 a5bc
000001d0: 47d1 47bd e685 30bc e4c1 ce3d d198 ae3d
000001e0: 7ba1 fb3c 5c19 083c c939 06be b795 2d3e
000001f0: a6c6 4a3d cb7a 933d ebf3 143d dcce b2bc
00000200: c696 103d e487 debb ba04 ab3d 1d41 2bbd
00000210: 01ac 9f3d 0a89 a03d 4f1b e73d b593 06bd
00000220: e786 933d 013c 8ebd 850a 0ebd 6e45 18bd
00000230: aeb7 dabc 02f9 cd3a 7812 ae3d fc71 183d
00000240: fc78 de3c 635f 363d e2d0 a0bc ab9e 8fbb
00000250: b8a4 913d 557c eebd 87ac efbd 39ca 2ebd
00000260: 8d32 36b9 798e 91bd 068f 193c c6b3 a83b
00000270: 3934 993d c3cc bebd f727 9fbd 3987 23bd
00000280: c3ea c33d 3bf3 9ebd c165 7c3c cfbc 21bb
00000290: 40db dbbc 2aaf 8d3d 2339 943d 1262 ab3c
000002a0: feb0 73bd 366d 4dbd bc85 9a3d 325a 1dbd
000002b0: 26a7 a93d 11fa c4bc 5ccc 30bd 8882 c03c
000002c0: 7e04 b2bd 33a4 bcbd e952 83bc 84eb e4bb
000002d0: 01da 463d 0ae0 bebd 8c18 f13c 5104 ff3c
000002e0: 2c2c 8dbc 9c2c 0bbe b020 11bc 138b f4b8
000002f0: fc0c 423d 96d0 3c3d 02b7 633c ac77 d2bc
00000300: a9f6 d53a afc5 ae3b b54c fb3c 5f81 0ebe
00000310: 6f8f 37bc 5643 753c 99f9 84bc 7443 5cbd
00000320: 6205 533c cee7 7e3d eb56 d53d 49ec c6bb
00000330: 6811 63bd 989e 003c bea9 e0bc 50c4 3dbd
00000340: 3b22 23bd 8fdd 003e 755a b6bd 34ee 2ebc
00000350: ad87 94bc 2ca2 413b d933 1b3d 1c87 1abd
00000360: 58cc 83bd 836b f5bc 53dd 22bc 88b4 763c
00000370: 2930 65bd 5f61 863d 5ff2 473d ab27 aa3d
00000380: a53e c73c d2e0 afbd cdf2 513d 5bb0 333d
00000390: e52b 7dbd 53ab 803d d89b 0dbc 074d aebd
000003a0: 5a6b fe39 d84e adbd 867e 9f3d d9ae 183d
000003b0: 794b 0f3e 4e36 f0bd 8a50 5f3d 0925 adbc
000003c0: c760 b6bd babf ee3c 6385 84bc 0f15 21bd
000003d0: c487 993d 29c4 0dbd 74e4 793c 35bb f73c
000003e0: e3f6 f5bc 90db 5e3d 3386 a2bd 70db b33d
000003f0: 0919 2a3d 23e4 6ebb 0217 8c3d 4f1c 9f3c
-0.006413896 0.03945231 0.014347016 -0.06766174 -0.0017830064 0.042424165 0.056591086 -0.03055627
-0.038840745 -0.003064845 0.013852491 0.0004955725 0.063207865 0.044108793 0.04440407 0.044741176
0.033626843 0.14605168 0.015517072 0.080035344 0.007940244 0.02763994 -0.06472025 -0.041141838
0.024011632 0.064720444 0.010287029 0.14566886 -0.040907975 0.10770873 0.061576016 0.0070350957
0.011046236 -0.031278413 0.021080436 0.118820965 0.07729853 0.0546884 0.030344391 0.017139776
0.06919768 0.015287654 -0.016670689 -0.053253606 0.090917364 -0.04201895 -0.016824389 -0.106615864
0.14533432 -0.045080163 -0.031519152 -0.015388094 -0.10607143 -0.024733704 -0.0015020851 0.08774066
-0.07616584 0.028885344 -0.005898865 -0.09698193 0.052089725 -0.04791548 0.025478251 -0.06446626
-0.07386437 -0.08725236 -0.00023660305 -0.010888467 -0.07079405 -0.015612756 -0.11009077 0.020868404
-0.020370414 -0.029726636 0.018428883 0.017312413 0.022520065 0.0051854597 -0.08712611 -0.04923026
-0.026026426 -0.009562756 -0.017536495 -0.02555806 -0.07692463 -0.020453745 0.012301807 0.11007584
0.0018240433 0.073027074 0.039292783 -0.013272459 0.025727531 -0.009163008 0.021442989 -0.029534413
-0.03140913 0.051625237 0.038405906 0.07122526 -0.048385713 0.0069930805 0.06359625 0.046691526
-0.0026359358 0.042964313 0.106384106 0.021907354 0.04014861 0.11288152 0.05299539 0.09420584
0.057938073 -0.024027519 0.04191257 -0.020221243 -0.048783567 -0.010774111 0.100955755 0.08525241
0.030716648 0.008306827 -0.13107981 0.16951643 0.049505852 0.07201155 0.03636543 -0.021827154
0.03530004 -0.006791102 0.08350511 -0.041810144 0.07796479 0.07838638 0.112845056 -0.03285571
0.07203465 -0.069450386 -0.034678 -0.03717559 -0.026698913 0.0015714469 0.084996164 0.03721808
0.0271573 0.04452456 -0.019630853 -0.0043829284 0.07111496 -0.11644808 -0.11702829 -0.042673323
-0.00017375704 -0.07107253 0.009372478 0.005148384 0.07480664 -0.09316399 -0.077712946 -0.03992388
0.095662616 -0.07761236 0.015405119 -0.002467919 -0.026837945 0.069181755 0.072374605 0.020920787
-0.059494965 -0.05015298 0.07545039 -0.038416095 0.08283834 -0.024045022 -0.043163642 0.023499742
-0.08692263 -0.09211006 -0.016030746 -0.0069860835 0.04854775 -0.09320076 0.02943065 0.031129988
-0.017232977 -0.13591236 -0.008857891 -0.00011660731 0.047375664 0.04609736 0.013898613 -0.02569183
0.0016324121 0.0053336243 0.030676225 -0.13916539 -0.011203631 0.014969667 -0.016232299 -0.053775266
0.012879701 0.062232785 0.10416969 -0.006070648 -0.05543652 0.007850312 -0.02742469 -0.046329796
-0.039827567 0.12584518 -0.08903972 -0.010676909 -0.018131102 0.0029546125 0.037891243 -0.037726507
-0.0643546 -0.029958492 -0.009940463 0.01505769 -0.055954132 0.06561541 0.048815127 0.08308347
0.024321863 -0.08587803 0.051256943 0.043869358 -0.06180944 0.062826775 -0.008643113 -0.085107855
0.00048526638 -0.08462304 0.07787804 0.037276123 0.13993634 -0.11729108 0.054520167 -0.021135824
-0.089051776 0.029144157 -0.016176885 -0.039326724 0.07496598 -0.0346109 0.015252221 0.030240634
-0.030024951 0.05440861 -0.07935753 0.08782089 0.04152778 -0.0036451898 0.06840326 0.019422678

network_body._body_endoder.seq_layers.2.bias f4 [256]
00000000: 0000 0000 0000 0000 0000 0000 0000 0000
00000010: 0000 0000 0000 0000 0000 0000 0000 0000
00000020: 0000 0000 0000 0000 0000 0000 0000 0000
00000030: 0000 0000 0000 0000 0000 0000 0000 0000
00000040: 0000 0000 0000 0000 0000 0000 0000 0000
00000050: 0000 0000 0000 0000 0000 0000 0000 0000
00000060: 0000 0000 0000 0000 0000 0000 0000 0000
00000070: 0000 0000 0000 0000 0000 0000 0000 0000
00000080: 0000 0000 0000 0000 0000 0000 0000 0000
00000090: 0000 0000 0000 0000 0000 0000 0000 0000
000000a0: 0000 0000 0000 0000 0000 0000 0000 0000
000000b0: 0000 0000 0000 0000 0000 0000 0000 0000
000000c0: 0000 0000 0000 0000 0000 0000 0000 0000
000000d0: 0000 0000 0000 0000 0000 0000 0000 0000
000000e0: 0000 0000 0000 0000 0000 0000 0000 0000
000000f0: 0000 0000 0000 0000 0000 0000 0000 0000
00000100: 0000 0000 0000 0000 0000 0000 0000 0000
00000110: 0000 0000 0000 0000 0000 0000 0000 0000
00000120: 0000 0000 0000 0000 0000 0000 0000 0000
00000130: 0000 0000 0000 0000 0000 0000 0000 0000
00000140: 0000 0000 0000 0000 0000 0000 0000 0000
00000150: 0000 0000 0000 0000 0000 0000 0000 0000
00000160: 0000 0000 0000 0000 0000 0000 0000 0000
00000170: 0000 0000 0000 0000 0000 0000 0000 0000
00000180: 0000 0000 0000 0000 0000 0000 0000 0000
00000190: 0000 0000 0000 0000 0000 0000 0000 0000
000001a0: 0000 0000 0000 0000 0000 0000 0000 0000
000001b0: 0000 0000 0000 0000 0000 0000 0000 0000
000001c0: 0000 0000 0000 0000 0000 0000 0000 0000
000001d0: 0000 0000 0000 0000 0000 0000 0000 0000
000001e0: 0000 0000 0000 0000 0000 0000 0000 0000
000001f0: 0000 0000 0000 0000 0000 0000 0000 0000
00000200: 0000 0000 0000 0000 0000 0000 0000 0000
00000210: 0000 0000 0000 0000 0000 0000 0000 0000
00000220: 0000 0000 0000 0000 0000 0000 0000 0000
00000230: 0000 0000 0000 0000 0000 0000 0000 0000
00000240: 0000 0000 0000 0000 0000 0000 0000 0000
00000250: 0000 0000 0000 0000 0000 0000 0000 0000
00000260: 0000 0000 0000 0000 0000 0000 0000 0000
00000270: 0000 0000 0000 0000 0000 0000 0000 0000
00000280: 0000 0000 0000 0000 0000 0000 0000 0000
00000290: 0000 0000 0000 0000 0000 0000 0000 0000
000002a0: 0000 0000 0000 0000 0000 0000 0000 0000
000002b0: 0000 0000 0000 0000 0000 0000 0000 0000
000002c0: 0000 0000 0000 0000 0000 0000 0000 0000
000002d0: 0000 0000 0000 0000 0000 0000 0000 0000
000002e0: 0000 0000 0000 0000 0000 0000 0000 0000
000002f0: 0000 0000 0000 0000 0000 0000 0000 0000
00000300: 0000 0000 0000 0000 0000 0000 0000 0000
00000310: 0000 0000 0000 0000 0000 0000 0000 0000
00000320: 0000 0000 0000 0000 0000 0000 0000 0000
00000330: 0000 0000 0000 0000 0000 0000 0000 0000
00000340: 0000 0000 0000 0000 0000 0000 0000 0000
00000350: 0000 0000 0000 0000 0000 0000 0000 0000
00000360: 0000 0000 0000 0000 0000 0000 0000 0000
00000370: 0000 0000 0000 0000 0000 0000 0000 0000
00000380: 0000 0000 0000 0000 0000 0000 0000 0000
00000390: 0000 0000 0000 0000 0000 0000 0000 0000
000003a0: 0000 0000 0000 0000 0000 0000 0000 0000
000003b0: 0000 0000 0000 0000 0000 0000 0000 0000
000003c0: 0000 0000 0000 0000 0000 0000 0000 0000
000003d0: 0000 0000 0000 0000 0000 0000 0000 0000
000003e0: 0000 0000 0000 0000 0000 0000 0000 0000
000003f0: 0000 0000 0000 0000 0000 0000 0000 0000
0.0 0.0 0.0 0.0 0.0 0.0 0.0 0.0
0.0 0.0 0.0 0.0 0.0 0.0 0.0 0.0
0.0 0.0 0.0 0.0 0.0 0.0 0.0 0.0
0.0 0.0 0.0 0.0 0.0 0.0 0.0 0.0
0.0 0.0 0.0 0.0 0.0 0.0 0.0 0.0
0.0 0.0 0.0 0.0 0.0 0.0 0.0 0.0
0.0 0.0 0.0 0.0 0.0 0.0 0.0 0.0
0.0 0.0 0.0 0.0 0.0 0.0 0.0 0.0
0.0 0.0 0.0 0.0 0.0 0.0 0.0 0.0
0.0 0.0 0.0 0.0 0.0 0.0 0.0 0.0
0.0 0.0 0.0 0.0 0.0 0.0 0.0 0.0
0.0 0.0 0.0 0.0 0.0 0.0 0.0 0.0
0.0 0.0 0.0 0.0 0.0 0.0 0.0 0.0
0.0 0.0 0.0 0.0 0.0 0.0 0.0 0.0
0.0 0.0 0.0 0.0 0.0 0.0 0.0 0.0
0.0 0.0 0.0 0.0 0.0 0.0 0.0 0.0
0.0 0.0 0.0 0.0 0.0 0.0 0.0 0.0
0.0 0.0 0.0 0.0 0.0 0.0 0.0 0.0
0.0 0.0 0.0 0.0 0.0 0.0 0.0 0.0
0.0 0.0 0.0 0.0 0.0 0.0 0.0 0.0
0.0 0.0 0.0 0.0 0.0 0.0 0.0 0.0
0.0 0.0 0.0 0.0 0.0 0.0 0.0 0.0
0.0 0.0 0.0 0.0 0.0 0.0 0.0 0.0
0.0 0.0 0.0 0.0 0.0 0.0 0.0 0.0
0.0 0.0 0.0 0.0 0.0 0.0 0.0 0.0
0.0 0.0 0.0 0.0 0.0 0.0 0.0 0.0
0.0 0.0 0.0 0.0 0.0 0.0 0.0 0.0
0.0 0.0 0.0 0.0 0.0 0.0 0.0 0.0
0.0 0.0 0.0 0.0 0.0 0.0 0.0 0.0
0.0 0.0 0.0 0.0 0.0 0.0 0.0 0.0
0.0 0.0 0.0 0.0 0.0 0.0 0.0 0.0
0.0 0.0 0.0 0.0 0.0 0.0 0.0 0.0
