UnityEnv/results/drone_goal_012/DroneAgent.onnx (onnx, 272677 bytes, 6 tensors)

network_body._body_endoder.seq_layers.0.weight f4 [256, 1]
000000 72 25 45 bf 90 4d bc bf fd c6 a9 bd 57 a8 a9 3f
       -0.7701026 -1.471117 -0.08289907 1.3254498
000010 35 09 b3 3f 9e 58 07 3c d4 20 94 3f 8e fc fc 3e
       1.3987185 0.008260874 1.1572518 0.49411434
000020 a1 12 49 bf 75 a5 18 bf 09 49 44 3f 62 b6 d9 bf
       -0.7854405 -0.5962747 0.7667394 -1.7008784
000030 a5 93 4b bf cb 4e 34 bf a2 9a 46 bf af e5 ce 3f
       -0.7952216 -0.7043273 -0.775797 1.6163844
000040 55 3a b4 3f e2 68 98 3f 3a 5d 24 c0 15 86 aa 3f
       1.4080302 1.1907008 -2.56819 1.3322169
000050 5b d6 9c 3f 8e 0d b7 bd b7 5a 07 be d8 73 17 bf
       1.2252916 -0.08938132 -0.13218199 -0.5916114
000060 3c 13 30 bf 5f 7b 3b be b9 96 0c 3f 73 e2 f4 3e
       -0.6877935 -0.18308781 0.54917485 0.47829017
000070 b5 be bf 3e d5 2c 8d bf 9e 00 75 be 6f 7e da bd
       0.37450185 -1.1029307 -0.23926017 -0.106686465
000080 36 1e 9f bf ab b2 ba 3e 5e 87 b4 bd 39 ea 9f 3f
       -1.2431095 0.36464438 -0.08814882 1.2493354
000090 8c f4 3b bf 0a c4 a6 3e 96 19 2f bf 93 de 79 be
       -0.73420024 0.3257144 -0.68398416 -0.24401312
0000a0 25 90 02 c0 3f 90 44 3f 2b cb 03 3f 0b 17 02 bf
       -2.040048 0.767826 0.51481885 -0.5081641
0000b0 7a b6 4c 3f 16 c2 cd be 63 09 20 3f 7d fd f0 3f
       0.7996594 -0.40187138 0.62514323 1.8827358
0000c0 d2 64 8e 3f f6 90 01 bf 11 fe 95 be 5e a6 f9 bf
       1.1124518 -0.5061182 -0.292954 -1.9503896
0000d0 a4 19 37 3f bb 1e 5d 3f ab 09 b4 be 7a e9 7e bf
       0.715235 0.86375016 -0.35163626 -0.99575007
0000e0 9a fc 18 3e 14 20 36 bf 8b ea 0b bf 85 68 a2 3e
       0.1494011 -0.711427 -0.5465476 0.31720367
0000f0 35 6b 43 3f ac 0b a0 3f 5e ab 81 3f a2 69 12 c0
       0.7633546 1.2503562 1.0130422 -2.2876973
000100 98 0d 01 bd 0c f6 12 bf bb bd cb be 23 06 a7 3f
       -0.031507105 -0.5740669 -0.3979319 1.3048748
000110 89 d5 a8 3f 2f ce c5 3e 69 e7 ed bf 07 55 cc be
       1.3190166 0.38633868 -1.8586246 -0.3990862
000120 19 46 b9 bf 1e ea d6 bf 27 c3 0c c0 39 c6 40 be
       -1.4474517 -1.6790197 -2.1994112 -0.18825616
000130 7b 81 1a c0 5a 60 f1 bb ee 27 39 3f ce 6a 89 3e
       -2.4141529 -0.0073662223 0.7232655 0.26839298
000140 0e b5 22 3f a1 e9 25 3d ca cf 58 be fa 4c 0b be
       0.6355752 0.04050601 -0.21173015 -0.13603583
000150 7e f2 3c 3f ac 81 80 be 5d df ab be ef 72 15 3f
       0.73807514 -0.25098932 -0.3356885 0.583785
000160 93 2a 4b bf 65 46 58 bf 5e 21 cf 3e dc 2b 26 be
       -0.7936184 -0.84482414 0.40455145 -0.16227669
000170 ee 7c b0 3e eb 34 cf 3e ca bd 13 bf cc f4 c0 3e
       0.34470314 0.4047006 -0.5771147 0.37686765
000180 26 58 00 be 1c a2 fa 3e e5 7f 9e 3f 7e a2 dd bf
       -0.12533626 0.48951805 1.238278 -1.7315214
000190 9b 20 b8 3f 91 bf 95 3f b2 1c e3 bf c9 b7 9a 3f
       1.438495 1.1699086 -1.7743132 1.2087337
0001a0 5e 7c 94 3e 62 ab 8d 3e d7 51 7b 3d b7 26 7a 3f
       0.29001135 0.27669817 0.061357345 0.97715324
0001b0 d5 55 06 bf ca 11 ab 3f 3e 93 44 c0 a3 e0 05 bf
       -0.5247472 1.3364804 -3.071487 -0.52295893
0001c0 fa f9 cf 3f 41 fb 4a 3f 4a 0d 33 3d e0 01 1e 3d
       1.6248162 0.79289633 0.043713845 0.038576007
0001d0 37 c1 5d 3f 11 ff 55 be 3a 34 be 3e 87 a7 32 bf
       0.8662295 -0.20898081 0.3714922 -0.69786876
0001e0 0d a4 6d 3f 77 28 a1 3f 1a 67 df be 98 a5 dd 3f
       0.92828447 1.2590474 -0.43633348 1.731616
0001f0 8b 18 80 bf 31 d7 6e bf 72 c0 cc 3e ac d2 03 bf
       -1.000749 -0.93297106 0.39990574 -0.51493335
000200 25 da e6 3e f3 44 ed bf f6 28 db 3f 9d 2e 13 bf
       0.45088306 -1.8536667 1.7121875 -0.57493
000210 66 15 4e 3f 92 3b 44 3d ff a5 bf 3f 16 4b c8 3b
       0.805014 0.047908373 1.4972533 0.0061124666
000220 a8 a1 a5 bf 64 c1 08 3f 91 ed 8d 3f 7a 17 8a 3f
       -1.2939959 0.5342009 1.1088125 1.0788414
000230 4a 46 1f 3f a5 5b e3 bd f6 c6 37 be ff 10 45 be
       0.6221663 -0.11101464 -0.17946991 -0.19244765
000240 a3 3a 1a 3f 50 83 a3 3e ff db d4 bd a1 6b 9f bf
       0.6024572 0.3193612 -0.103935234 -1.2454721
000250 20 94 14 bf 6a c7 5b 3e ce fb 4a 3e 0b b3 b7 3f
       -0.5803852 0.21462789 0.19822618 1.4351515
000260 84 e8 cf be 6c 7f 9e 3f a3 45 73 bf e1 d6 6b 3f
       -0.40607083 1.2382636 -0.9502813 0.92124754
000270 4d ed 89 bd b7 fe 11 bd db a4 d8 bd bb 52 44 bf
       -0.06734715 -0.035643306 -0.10578319 -0.76688737
000280 95 fa 7f bf 9b 6e c5 3d 0f f5 d8 3e 1c 45 c1 bf
       -0.9999173 0.09640237 0.42374465 -1.5099216
000290 b8 5e 3f bf 97 07 af 3f a6 ed 4d 3f 7e 7c 10 3f
       -0.74753904 1.3674191 0.8044075 0.5643996
0002a0 db 4b 6f bf c6 c7 46 3f 9e 64 12 3f 30 0a aa bf
       -0.9347512 0.7764858 0.5718478 -1.3284359
0002b0 ea 78 45 bf 32 b5 46 bf bb e8 36 3f 24 86 c2 3f
       -0.77137625 -0.7762023 0.7144887 1.5197186
0002c0 0f a0 38 3f cb ab cd bf 56 0b 5a bf cd 70 6c 3f
       0.7211923 -1.6068052 -0.8517355 0.9235962
0002d0 a8 58 d9 3c cd 5d dd 3e 6d e0 32 3f 4b 8b 05 bf
       0.026531532 0.43235627 0.69873697 -0.5216567
0002e0 3c 93 e9 3e b9 8a 18 be 2b 26 9a 3f c4 22 04 3f
       0.45620143 -0.14896668 1.2042898 0.5161555
0002f0 4a bf db 3f 91 d6 db bd ca ed 3e bf 22 fc 80 3f
       1.7167752 -0.10734285 -0.7458159 1.0076945
000300 c5 12 d2 3e 8c d8 20 3f 46 8e 7f 3f 94 84 0f 3f
       0.41029945 0.62830424 0.9982647 0.56061673
000310 50 c9 32 3f d9 3c 9a bf 14 c2 14 bf 4e 76 4d bf
       0.6983843 -1.2049819 -0.5810864 -0.80258644
000320 0d bc 7a 3f c1 a4 b6 3d 05 09 c7 3b f4 50 60 be
       0.9794319 0.08918143 0.0060740733 -0.21905881
000330 bc 7e f3 3f ae c6 4b 3f d8 d1 d1 bc 35 64 82 3f
       1.9023051 0.79600036 -0.025612757 1.0186831
000340 bc 2c 62 bf dc 99 8b 3f 1b 61 bc be d6 ae 64 be
       -0.8834951 1.0906329 -0.36792836 -0.2233232
000350 67 9c a0 be ec ac b9 3f 1b fb a5 be 80 82 f7 be
       -0.31369326 1.4505897 -0.3241814 -0.4834175
000360 7d 6d 45 bf 6a f0 71 3e 68 f2 93 bf 7d 08 77 be
       -0.7712019 0.23626867 -1.1558352 -0.24124332
000370 bb 9d 7e 3c 4c 89 0c c0 e9 e7 69 bd 42 99 b5 3f
       0.015540536 -2.19588 -0.057105932 1.4187396
000380 e7 6f 99 be 5f 5f bd bf b0 79 02 3e af 6e 48 3f
       -0.29968187 -1.479473 0.12741733 0.7829389
000390 a1 1b 86 3f 06 e9 f9 3f 78 9c a3 bf 97 29 3b be
       1.0477182 1.9524238 -1.2782125 -0.18277584
0003a0 41 a5 a8 3f 62 57 80 bf c1 42 7f 3f d3 04 0c bf
       1.3175431 -1.0026667 0.99711233 -0.5469486
0003b0 9a cc 62 3d d2 e4 1f 40 7d 89 05 3f 3f 41 1c 3f
       0.055370905 2.498341 0.52162915 0.6103706
0003c0 16 04 71 be 09 c5 0c bf 32 11 72 3f 24 57 0f 3f
       -0.23536715 -0.5498815 0.9455749 0.5599234
0003d0 d7 8e ce 3e 45 6a a7 3e 44 6c 08 3f 51 cb 28 bf
       0.40343353 0.32698265 0.532902 -0.65935236
0003e0 6f 3c 16 3e df a4 67 3e 64 2a 95 3f d8 4d 41 3e
       0.14671491 0.22621487 1.1653562 0.18877351
0003f0 42 d7 71 bf 86 f2 e1 be 3c 5c 58 3f 23 01 29 40
       -0.9446908 -0.44130343 0.8451574 2.6406944

network_body._body_endoder.seq_layers.0.bias f4 [256]
000000 00 00 00 00 00 00 00 00 00 00 00 00 00 00 00 00
       0.0 0.0 0.0 0.0
000010 00 00 00 00 00 00 00 00 00 00 00 00 00 00 00 00
       0.0 0.0 0.0 0.0
000020 00 00 00 00 00 00 00 00 00 00 00 00 00 00 00 00
       0.0 0.0 0.0 0.0
000030 00 00 00 00 00 00 00 00 00 00 00 00 00 00 00 00
       0.0 0.0 0.0 0.0
000040 00 00 00 00 00 00 00 00 00 00 00 00 00 00 00 00
       0.0 0.0 0.0 0.0
000050 00 00 00 00 00 00 00 00 00 00 00 00 00 00 00 00
       0.0 0.0 0.0 0.0
000060 00 00 00 00 00 00 00 00 00 00 00 00 00 00 00 00
       0.0 0.0 0.0 0.0
000070 00 00 00 00 00 00 00 00 00 00 00 00 00 00 00 00
       0.0 0.0 0.0 0.0
000080 00 00 00 00 00 00 00 00 00 00 00 00 00 00 00 00
       0.0 0.0 0.0 0.0
000090 00 00 00 00 00 00 00 00 00 00 00 00 00 00 00 00
       0.0 0.0 0.0 0.0
0000a0 00 00 00 00 00 00 00 00 00 00 00 00 00 00 00 00
       0.0 0.0 0.0 0.0
0000b0 00 00 00 00 00 00 00 00 00 00 00 00 00 00 00 00
       0.0 0.0 0.0 0.0
0000c0 00 00 00 00 00 00 00 00 00 00 00 00 00 00 00 00
       0.0 0.0 0.0 0.0
0000d0 00 00 00 00 00 00 00 00 00 00 00 00 00 00 00 00
       0.0 0.0 0.0 0.0
0000e0 00 00 00 00 00 00 00 00 00 00 00 00 00 00 00 00
       0.0 0.0 0.0 0.0
0000f0 00 00 00 00 00 00 00 00 00 00 00 00 00 00 00 00
       0.0 0.0 0.0 0.0
000100 00 00 00 00 00 00 00 00 00 00 00 00 00 00 00 00
       0.0 0.0 0.0 0.0
000110 00 00 00 00 00 00 00 00 00 00 00 00 00 00 00 00
       0.0 0.0 0.0 0.0
000120 00 00 00 00 00 00 00 00 00 00 00 00 00 00 00 00
       0.0 0.0 0.0 0.0
000130 00 00 00 00 00 00 00 00 00 00 00 00 00 00 00 00
       0.0 0.0 0.0 0.0
000140 00 00 00 00 00 00 00 00 00 00 00 00 00 00 00 00
       0.0 0.0 0.0 0.0
000150 00 00 00 00 00 00 00 00 00 00 00 00 00 00 00 00
       0.0 0.0 0.0 0.0
000160 00 00 00 00 00 00 00 00 00 00 00 00 00 00 00 00
       0.0 0.0 0.0 0.0
000170 00 00 00 00 00 00 00 00 00 00 00 00 00 00 00 00
       0.0 0.0 0.0 0.0
000180 00 00 00 00 00 00 00 00 00 00 00 00 00 00 00 00
       0.0 0.0 0.0 0.0
000190 00 00 00 00 00 00 00 00 00 00 00 00 00 00 00 00
       0.0 0.0 0.0 0.0
0001a0 00 00 00 00 00 00 00 00 00 00 00 00 00 00 00 00
       0.0 0.0 0.0 0.0
0001b0 00 00 00 00 00 00 00 00 00 00 00 00 00 00 00 00
       0.0 0.0 0.0 0.0
0001c0 00 00 00 00 00 00 00 00 00 00 00 00 00 00 00 00
       0.0 0.0 0.0 0.0
0001d0 00 00 00 00 00 00 00 00 00 00 00 00 00 00 00 00
       0.0 0.0 0.0 0.0
0001e0 00 00 00 00 00 00 00 00 00 00 00 00 00 00 00 00
       0.0 0.0 0.0 0.0
0001f0 00 00 00 00 00 00 00 00 00 00 00 00 00 00 00 00
       0.0 0.0 0.0 0.0
000200 00 00 00 00 00 00 00 00 00 00 00 00 00 00 00 00
       0.0 0.0 0.0 0.0
000210 00 00 00 00 00 00 00 00 00 00 00 00 00 00 00 00
       0.0 0.0 0.0 0.0
000220 00 00 00 00 00 00 00 00 00 00 00 00 00 00 00 00
       0.0 0.0 0.0 0.0
000230 00 00 00 00 00 00 00 00 00 00 00 00 00 00 00 00
       0.0 0.0 0.0 0.0
000240 00 00 00 00 00 00 00 00 00 00 00 00 00 00 00 00
       0.0 0.0 0.0 0.0
000250 00 00 00 00 00 00 00 00 00 00 00 00 00 00 00 00
       0.0 0.0 0.0 0.0
000260 00 00 00 00 00 00 00 00 00 00 00 00 00 00 00 00
       0.0 0.0 0.0 0.0
000270 00 00 00 00 00 00 00 00 00 00 00 00 00 00 00 00
       0.0 0.0 0.0 0.0
000280 00 00 00 00 00 00 00 00 00 00 00 00 00 00 00 00
       0.0 0.0 0.0 0.0
000290 00 00 00 00 00 00 00 00 00 00 00 00 00 00 00 00
       0.0 0.0 0.0 0.0
0002a0 00 00 00 00 00 00 00 00 00 00 00 00 00 00 00 00
       0.0 0.0 0.0 0.0
0002b0 00 00 00 00 00 00 00 00 00 00 00 00 00 00 00 00
       0.0 0.0 0.0 0.0
0002c0 00 00 00 00 00 00 00 00 00 00 00 00 00 00 00 00
       0.0 0.0 0.0 0.0
0002d0 00 00 00 00 00 00 00 00 00 00 00 00 00 00 00 00
       0.0 0.0 0.0 0.0
0002e0 00 00 00 00 00 00 00 00 00 00 00 00 00 00 00 00
       0.0 0.0 0.0 0.0
0002f0 00 00 00 00 00 00 00 00 00 00 00 00 00 00 00 00
       0.0 0.0 0.0 0.0
000300 00 00 00 00 00 00 00 00 00 00 00 00 00 00 00 00
       0.0 0.0 0.0 0.0
000310 00 00 00 00 00 00 00 00 00 00 00 00 00 00 00 00
       0.0 0.0 0.0 0.0
000320 00 00 00 00 00 00 00 00 00 00 00 00 00 00 00 00
       0.0 0.0 0.0 0.0
000330 00 00 00 00 00 00 00 00 00 00 00 00 00 00 00 00
       0.0 0.0 0.0 0.0
000340 00 00 00 00 00 00 00 00 00 00 00 00 00 00 00 00
       0.0 0.0 0.0 0.0
000350 00 00 00 00 00 00 00 00 00 00 00 00 00 00 00 00
       0.0 0.0 0.0 0.0
000360 00 00 00 00 00 00 00 00 00 00 00 00 00 00 00 00
       0.0 0.0 0.0 0.0
000370 00 00 00 00 00 00 00 00 00 00 00 00 00 00 00 00
       0.0 0.0 0.0 0.0
000380 00 00 00 00 00 00 00 00 00 00 00 00 00 00 00 00
       0.0 0.0 0.0 0.0
000390 00 00 00 00 00 00 00 00 00 00 00 00 00 00 00 00
       0.0 0.0 0.0 0.0
0003a0 00 00 00 00 00 00 00 00 00 00 00 00 00 00 00 00
       0.0 0.0 0.0 0.0
0003b0 00 00 00 00 00 00 00 00 00 00 00 00 00 00 00 00
       0.0 0.0 0.0 0.0
0003c0 00 00 00 00 00 00 00 00 00 00 00 00 00 00 00 00
       0.0 0.0 0.0 0.0
0003d0 00 00 00 00 00 00 00 00 00 00 00 00 00 00 00 00
       0.0 0.0 0.0 0.0
0003e0 00 00 00 00 00 00 00 00 00 00 00 00 00 00 00 00
       0.0 0.0 0.0 0.0
0003f0 00 00 00 00 00 00 00 00 00 00 00 00 00 00 00 00
       0.0 0.0 0.0 0.0

network_body._body_endoder.seq_layers.2.weight f4 [256, 256]
000000 e6 74 6f 3d e1 72 4d 3d 41 0a 51 3b 38 c7 71 3d
       0.058461092 0.050158385 0.003189698 0.05902788
000010 46 e6 13 be 83 f0 9e 3d 4d cb dd bc d7 f1 0c be
       -0.14443311 0.07760718 -0.02707448 -0.1376413
000020 ff 70 c3 bb 20 ee 75 3d 88 0e 1e be d4 8e dd 3d
       -0.005964398 0.060041547 -0.1543523 0.10818258
000030 75 4b 25 3d ea b2 4f bd cc 67 7d bc 3e a3 9b bd
       0.040355165 -0.050707735 -0.015466642 -0.07599495
000040 80 51 15 3d dd 3f a9 bd cc 9e 15 3e 34 77 62 3c
       0.036454678 -0.08264134 0.14611357 0.013822366
000050 41 b0 76 3d 93 b8 7f 3d 4f 58 21 bd e5 e1 f4 bc
       0.060226683 0.062431883 -0.03939086 -0.029892871
000060 a1 83 2b 3c 88 ba eb 3d 2a 2f 5c 3c 97 06 30 bc
       0.0104683945 0.115101874 0.013438979 -0.010743759
000070 46 33 44 bd b5 d2 da bc 8b 40 eb 3a be 66 8a 3b
       -0.04790046 -0.026711801 0.0017948312 0.0042236736
000080 6b 64 1c 3e 5b 0c 79 3d b7 8b d7 3d b7 3f 29 3d
       0.15272681 0.0608028 0.10524695 0.04132053
000090 1c a2 28 be 4e 73 93 3c 56 23 b2 bc cf 1e 0a bd
       -0.1646809 0.017999317 -0.021745365 -0.033720788
0000a0 58 cf c4 3d 80 00 65 bd 7b 9f c3 3d 26 d0 70 bb
       0.0960986 -0.05590868 0.09551903 -0.003674516
0000b0 0b fa 52 bd d0 b8 64 bd 8c a4 8b 3d a5 32 bb ba
       -0.05150799 -0.055840313 0.06818494 -0.0014282061
0000c0 b8 03 e0 bc 16 86 7d bc 62 4a 34 3d 07 17 56 bd
       -0.027345523 -0.015473863 0.04401625 -0.052268054
0000d0 ea 64 31 3d 57 1a 01 bd 4f 3d d3 bd 47 e8 1b bd
       0.04330913 -0.03151926 -0.10314428 -0.038063314
0000e0 13 16 26 bd 17 75 c1 3c 4e c8 57 3b be 66 b1 bd
       -0.040548395 0.023615403 0.0032925787 -0.08662175
0000f0 0b 0e 9e 3c b5 53 0b bd 79 61 0f bc 33 de e5 bc
       0.019293806 -0.034015376 -0.008751267 -0.028060054
000100 be bb 3f bd c9 c3 d3 bc e7 3c 64 3d a7 b4 26 bd
       -0.046809904 -0.025850194 0.055722144 -0.040699627
000110 50 7a 1b 3e 71 14 59 3d 89 af 60 bc cd e6 d0 bc
       0.15183377 0.05299801 -0.013713726 -0.02550068
000120 50 46 8a 3a ea 27 e2 3c 22 f5 35 bd 31 b9 ee 3d
       0.0010549519 0.027606923 -0.04442323 0.11656416
000130 d8 6e 9c bd a8 cb 38 3d bf 50 a1 bc 24 f2 f2 3d
       -0.07638329 0.045116097 -0.019691823 0.11862591
000140 b0 f1 ca 3c 4b 53 a7 3d 73 d8 68 bd 11 27 a4 3d
       0.024773449 0.08170184 -0.056847047 0.08015264
000150 f1 07 90 3d aa 29 b0 bd 82 ae 8b bd 99 2c 92 3b
       0.07032765 -0.08601697 -0.06820394 0.004460883
000160 2f f5 19 3b 9f 54 1d 3d 5f 92 5b bc 0b 4f 10 bd
       0.0023492088 0.03841078 -0.013401597 -0.03523163
000170 ab 16 eb bd 26 12 7f 3d c1 1c 78 3d f9 14 0f 3b
       -0.11478933 0.062273167 0.060574297 0.002183257
000180 90 8e 8b bd db 9c 12 bb fd 1f 42 3d f6 52 20 3d
       -0.06814301 -0.0022371325 0.047393788 0.039141618
000190 27 c4 94 bd 5a cd 46 3c c9 ed 87 bd 5d 8e 15 bd
       -0.072639756 0.012133921 -0.06637151 -0.03651272
0001a0 cf d6 22 bd 47 1a 51 bc 40 3f c9 bc 3f b7 04 bd
       -0.03975564 -0.012762613 -0.024566293 -0.03240132
0001b0 4a 69 9e 3d 8a 7e 85 3d 83 d7 91 3d 0c 87 aa bc
       0.07734926 0.06518276 0.07121184 -0.020816348
0001c0 9e 2e 02 be 42 7d 91 3b 7a 68 38 3c e3 b2 f2 3b
       -0.12713096 0.0044399807 0.011255378 0.007406579
0001d0 d5 cf d8 3b 5e 5c 45 bd 03 f2 ee 3c c4 31 23 bd
       0.0066165724 -0.04818379 0.029168135 -0.039842382
0001e0 da 1a 8e bb ec 78 10 bd 46 ca 8b bd 0e fd 31 bd
       -0.004336697 -0.03527157 -0.0682569 -0.043454222
0001f0 22 56 de 3c e0 2d 08 bc 4d cd 64 bd 0c 94 89 3d
       0.02714068 -0.008311719 -0.055859853 0.06717691
000200 96 4c d4 bb b7 f1 0f bd 62 e3 f8 3d 7d 4f 3a 3d
       -0.0064788563 -0.035142627 0.12152745 0.045485962
000210 74 66 5d bc 47 40 a0 3d 81 6f 38 3d 3c 7c 1b bd
       -0.013513196 0.0782476 0.045028213 -0.037960276
000220 39 73 af bd de 77 fe 3c db 00 b7 3d 3e 6d 81 bd
       -0.08566899 0.031063017 0.0893571 -0.063196644
000230 26 9d a1 3c 53 a2 75 bc ec 5e 38 3c 0e cb 19 3d
       0.019728255 -0.014992314 0.0112531 0.037547164
000240 b1 ae 57 38 85 ff a3 3c e7 e3 9a 3d 25 07 33 3c
       5.142269e-05 0.020019302 0.07563 0.010926996
000250 f0 96 a2 3d 4b a1 d9 3c b4 28 ca ba 13 77 fe bc
       0.07938945 0.026566168 -0.0015423507 -0.031062638
000260 b2 19 69 bd d8 bd 1e bc b7 33 28 bd 39 8c 10 3d
       -0.05690927 -0.009688817 -0.041064944 0.035289977
000270 68 5c 96 3c cd ee b5 bc 22 47 a6 3c 91 9e b9 3d
       0.01835461 -0.022208596 0.02029759 0.09063447
000280 be cc 56 bb cf 7d 45 bd 6a 60 c7 bc e8 d0 3d bd
       -0.0032775844 -0.048215684 -0.024337966 -0.046341807
000290 3f f4 2d 3d 2c bb 99 bd 4d 65 7e 3c eb 75 a4 3d
       0.04246926 -0.07506403 0.015527082 0.080303036
0002a0 4a b8 13 bd 4e 2d 8e 3b 09 d2 b2 3a 68 89 13 bd
       -0.036064424 0.004338897 0.0013642918 -0.036019713
0002b0 b2 14 5e bd 2e 72 8d 3b e5 ee 32 bd 87 ce 09 bd
       -0.054218955 0.00431659 -0.04368486 -0.033644225
0002c0 f6 45 2b 3c 44 ed 5f bc 98 ec 40 bc 1f 8d 4a 3d
       0.010453692 -0.013667408 -0.011775158 0.04945099
0002d0 ce b0 68 b9 73 8a bd 3d 8e dc d4 bc 32 e2 8a bd
       -0.00022191109 0.09254923 -0.025984075 -0.067814246
0002e0 6d 6e ce bd d3 0f e0 bd a5 b0 fc bc 68 ce 3e 3c
       -0.10079656 -0.10940518 -0.03084595 0.011645891
0002f0 e3 f4 c5 bb 2a f0 80 bd 15 8a c0 3d 57 5f 80 3d
       -0.0060411557 -0.06295808 0.09401337 0.06268185
000300 e9 aa 6d 3d f0 2b 30 3e f1 be 4c 3d 57 04 92 3d
       0.05802432 0.17204261 0.049986783 0.07129734
000310 a5 14 63 bc 0a 40 fa 3c d7 50 2c bb 74 37 bc bd
       -0.0138599025 0.030548114 -0.0026293301 -0.09190264
000320 49 7c 5a 3d 92 03 ca 3c be 2f b5 3d 43 27 15 3b
       0.053341184 0.024659906 0.08846997 0.0022758998
000330 4b 86 4d be 3a 1b cb bb 92 e6 e6 3c 38 82 e7 3d
       -0.2007076 -0.006198314 0.028186116 0.11304134
000340 e9 e9 25 3d 31 ec d4 ba ca 1a 79 3d af d1 db ba
       0.040506277 -0.0016244707 0.060816564 -0.0016770865
000350 68 fe b4 3d 56 3e 15 3e 97 3e 9b 37 a7 fa 49 bd
       0.08837587 0.1457456 1.8506586e-05 -0.049311306
000360 74 c5 27 3d 91 1d 9f 3c 26 78 d2 bd 41 8a 9e 3d
       0.04095979 0.019423278 -0.10276823 0.077412136
000370 cd fd ff 3c ad 01 2c 3d b1 32 37 3b f3 b7 80 bd
       0.031248951 0.041993786 0.0027953798 -0.062850855
000380 48 d9 16 b9 52 2e 42 3d 6a af 1f 3c 7c 0a 9b 3d
       -0.00014386058 0.047407456 0.009746412 0.07570359
000390 d7 0b dd bc 6f 12 9e bc 02 31 d0 3a fe 8f 31 bc
       -0.026983185 -0.0192959 0.0015883746 -0.010837553
0003a0 a8 60 ba 3c 6a d9 36 3d e3 e2 47 3a 78 aa cf 3d
       0.022751167 0.044640936 0.00076250563 0.10139936
0003b0 42 18 b7 bd 8e 9c 93 3d 82 c1 f5 3c a3 d8 24 3d
       -0.08940174 0.07207595 0.029999498 0.040245663
0003c0 4e f4 81 3d 7a 90 38 bd 18 45 cc bd c3 09 02 3a
       0.063454255 -0.04505966 -0.09974116 0.0004960561
0003d0 97 6f c2 3b 1d b5 56 bc a6 94 41 bc 69 1a 2c 3d
       0.0059337127 -0.013104704 -0.011815226 0.042017374
0003e0 02 9a 65 bd 8a c6 d7 3d 4d 30 99 3d 2c 3c dc bc
       -0.056055076 0.10535915 0.07479916 -0.026884161
0003f0 75 45 e8 3d 7a af d3 3c 0b 61 d5 bd 6d 09 03 bd
       0.11341373 0.02584051 -0.104189 -0.03199141

action_model._continuous_distribution.log_sigma f4 [1, 3]
000000 00 00 00 00 00 00 00 00 00 00 00 00
       0.0 0.0 0.0

action_model._continuous_distribution.mu.weight f4 [3, 256]
000000 f3 12 82 3c 5d 88 bc bc f5 b1 94 3c 0f 39 5f bc
       0.015878176 -0.023014242 0.018151263 -0.013624444
000010 1b 0d 8f ba 08 15 f0 3b 32 bb 62 bc b7 7c 98 bb
       -0.001091394 0.007326726 -0.013838576 -0.004653539
000020 33 da 9b 3c eb a1 9d bc e7 6c f8 b9 59 cd 03 bb
       0.019024944 -0.019242248 -0.00047383385 -0.002011141
000030 22 b7 ed bb 98 52 dd bb 3b 6d d2 bb 13 8b b4 3b
       -0.007254497 -0.0067542307 -0.0064217127 0.005509743
000040 6b 4f e3 ba fa 6d 4f bc b4 35 37 3c 53 48 94 bc
       -0.0017342394 -0.012660498 0.011182237 -0.018100893
000050 71 99 1b 3c 8b d8 15 3c 0e 16 34 3b ef 8b 0b 3c
       0.0094970325 0.009145866 0.0027478966 0.0085172495
000060 f3 c5 22 3c 75 87 e1 bc 6d 06 cb ba 30 04 2f bb
       0.00993489 -0.027530411 -0.0015489586 -0.0026705377
000070 20 5a 4e ba 72 f1 a9 3b b3 4d 72 3c 42 e6 67 3a
       -0.0007871706 0.005186253 0.014789033 0.0008846262
000080 94 56 8d 3c 95 3a 9b 3c 92 c4 15 3c 80 e4 45 bc
       0.017253198 0.018948833 0.009141104 -0.012078404
000090 64 c8 04 bc 57 2b 1d bc 24 b1 00 bd 4e 96 00 bb
       -0.0081044175 -0.009592853 -0.031418934 -0.0019620839
0000a0 29 40 4a bc a6 7a 20 3c 16 10 29 bc 45 8d f2 3b
       -0.012344399 0.009794867 -0.010318777 0.0074020945
0000b0 43 a5 b1 3b 7f 0e 4d 3c fd ae db 3c a7 aa c7 bb
       0.005421312 0.012515663 0.02681684 -0.0060933414
0000c0 b8 a1 f0 3b 47 4e 53 3b 4f 65 d5 3c 3b ee c9 39
       0.007343497 0.0032242702 0.026049284 0.00038515203
0000d0 27 82 ba bb 32 26 14 bc d0 23 88 3c 38 e9 a4 3c
       -0.005691785 -0.00904231 0.01661864 0.020130739
0000e0 5f 10 1e ba 1b 26 fb 3b 42 c3 54 bc 75 96 0c bc
       -0.0006029661 0.0076644546 -0.012986006 -0.008580794
0000f0 64 91 0b bd f5 f1 3e bc 3b 77 10 bc 7d 25 eb bb
       -0.034074202 -0.011654367 -0.008817489 -0.0071761
000100 0b 4d 46 3b 8e a3 03 bc 83 3e fb 3b 15 0b 8c bc
       0.0030258324 -0.0080346 0.007667364 -0.017095128
000110 b0 95 c8 3a f9 89 8d bb 63 52 1c 3c eb 82 b0 bc
       0.0015303399 -0.004319426 0.009541127 -0.021546802
000120 3d a0 8a bb 10 27 2b 3c 5e 8a 1c bc ab 80 58 bb
       -0.0042305277 0.010446325 -0.009554474 -0.0033035676
000130 37 cf 11 3b dd e6 53 bc 01 2c 38 bc 26 4a 86 3c
       0.0022248754 -0.01293346 -0.01124096 0.016392779
000140 b7 22 56 bc 2c f7 2f 3c a4 f0 a3 3b f2 da 84 bb
       -0.0130698 0.010740083 0.005003052 -0.0040544206
000150 db af 0d 3c 3f 02 03 3b ff 44 3e 3b 0f ea 78 3c
       0.008647884 0.0019990352 0.0029032824 0.015192523
000160 62 14 d9 3a 2e 4f 88 3c 31 cc b1 bb 45 a7 be ba
       0.0016561861 0.016639318 -0.005425953 -0.00145457
000170 73 58 33 bb 73 03 a6 3c ef bf 88 bb 6b f1 65 3c
       -0.0027365952 0.020265317 -0.004173271 0.014034609
000180 dd 8d 53 3c 99 0c ae ba 0f 3c 40 3c a3 65 a6 bb
       0.012912241 -0.0013278901 0.011733069 -0.005078034
000190 29 10 b9 bb 7e 6b 2f bc cd 82 3b 3b 82 4b d6 ba
       -0.0056476784 -0.0107067805 0.00286119 -0.0016349407
0001a0 13 16 b5 bb f6 d6 c3 39 2a a2 54 bc 24 17 14 3c
       -0.005526313 0.00037353457 -0.012978116 0.00903872
0001b0 2a 19 53 bc 17 5a 24 ba 22 8d ea 3a 24 28 80 3c
       -0.012884418 -0.0006269528 0.0017894844 0.01564414
0001c0 57 9e 84 3c 23 b7 36 bb 8f 77 83 3b 5f cc f6 3b
       0.016188784 -0.0027880154 0.004012055 0.007531687
0001d0 a3 9c c3 3b b9 24 81 3c 1c 3d 86 3b e7 04 b1 3c
       0.0059696003 0.015764581 0.0040966403 0.021608783
0001e0 67 2e 70 bc 27 0d 60 bb 56 a2 00 bc 2c ad 20 bc
       -0.014659501 -0.0034187527 -0.007851204 -0.009806912
0001f0 e7 44 c5 bb e7 91 57 bb 33 15 14 3c c3 4b 00 3c
       -0.0060201767 -0.003289336 0.009038257 0.007830563
000200 87 c8 5e bc 0b 8b 18 3c 10 67 0b 3c 0c 20 0d 3c
       -0.013597614 0.009310494 0.008508459 0.008613598
000210 03 e2 ac bb 67 78 5d bb 23 2b eb 3b 8b ff 83 3c
       -0.005275966 -0.003379369 0.007176773 0.016113063
000220 5f d4 b4 3b 2d 03 a6 3b df 20 e5 3b 76 0f ba b9
       0.0055184807 0.0050662966 0.006992444 -0.00035488204
000230 c0 be 27 3b e1 37 88 bc 7f 64 59 3c 63 b7 be 3b
       0.0025595874 -0.016628208 0.013268589 0.0058202012
000240 4a 60 11 3c f5 f8 68 bc 45 16 62 3c 2c 1f 0c ba
       0.008873055 -0.014219512 0.013799255 -0.0005345221
000250 08 65 df 3c 30 00 8f 3b c7 25 e7 bc e2 7f f2 bc
       0.027269855 0.004364036 -0.028216256 -0.029601995
000260 53 45 01 3c 5d c7 2a bb cd 53 94 39 4b 24 56 bc
       0.007890063 -0.0026058771 0.00028291196 -0.013070176
000270 4a 4b 9a 3c c3 7e 19 3c db 32 e0 3b dc 20 91 3b
       0.018834729 0.009368601 0.006842 0.004428966
000280 98 0f 8e bb 8e 22 10 bd f3 40 11 3b 1d 7c 51 bb
       -0.004335355 -0.035189204 0.0022163957 -0.0031964846
000290 58 0b 6e bb f3 3a 26 3c 42 8c 86 bb 88 f9 81 bc
       -0.003632268 0.0101458905 -0.0041060755 -0.015866056
0002a0 cc 1c 3e bc 5a c2 5d 3c ad 30 d1 38 e8 95 d4 bb
       -0.011603545 0.013535107 9.974963e-05 -0.006487597
0002b0 b3 8e 01 bb 8b 19 60 3c 7c d9 0c 3a 4c c4 0d 3b
       -0.0019768893 0.013677965 0.0005372984 0.0021631895
0002c0 78 70 a7 3b 9d 29 a3 3c b3 58 d1 3b e7 1e 04 3c
       0.005109843 0.019917304 0.0063887476 0.008064008
0002d0 54 5f a4 bc 41 63 8c bb 65 d3 ea bb 8f 65 b2 bb
       -0.020064987 -0.004284293 -0.0071663135 -0.0054442356
0002e0 1e 0e 3f 3c 47 fb 91 3c f0 81 ba bc 85 ce 0d 3b
       0.011661081 0.017820014 -0.022767037 0.0021637988
0002f0 7b 78 10 3c 71 34 0b bc 97 81 d0 bb dc b2 40 bb
       0.008817787 -0.00849639 -0.0063631046 -0.0029403483
000300 63 d0 be 3a 75 28 f8 bb 55 6a 56 bc fb 07 f5 3a
       0.0014557954 -0.007573182 -0.013086875 0.0018694395
000310 26 67 46 3c 50 a5 02 ba 2d 16 4b 3b 55 97 3c bc
       0.012109553 -0.000498374 0.003098856 -0.01151069
000320 97 be e7 3b 32 de 05 3c fd 9b 1e bb e7 f7 a4 b9
       0.0070722806 0.008170651 -0.0024201863 -0.0003146522
000330 07 d0 55 3c a1 ac 0b 3d b5 24 01 bc 70 6b c1 bb
       0.013050086 0.03410018 -0.007882287 -0.0059027
000340 11 3b 0d bc f3 52 98 bb 37 58 a1 bb ba 25 c2 bc
       -0.00862004 -0.00464856 -0.004923846 -0.02369963
000350 db b3 ae bb 93 db d6 3a 68 24 5a 3c 83 e6 07 ba
       -0.005331499 0.0016392343 0.013314344 -0.000518419
000360 91 64 10 bc bd 73 37 3c 19 eb 28 3a ed 31 79 bc
       -0.008813039 0.011197028 0.00064437237 -0.015209657
000370 76 ae 39 3c 93 cd 68 bb 63 82 11 bc 0b b3 c2 3b
       0.011333099 -0.0035522922 -0.008881184 0.0059417537
000380 ac 1d 32 bc ec b9 44 3c cf 5b 7d bc 30 9e db 3b
       -0.010871332 0.012007218 -0.015463783 0.006702207
000390 5f 02 1b 3a 18 11 ad bc 2d cc cb 3a 52 28 13 3c
       0.0005913134 -0.021126315 0.001554852 0.008981781
0003a0 5e 0f 95 bb b3 63 03 3b 2d 65 db bb fb a9 ff 3c
       -0.004548951 0.002004844 -0.0066954107 0.031208983
0003b0 ba 1d 4b 3c 83 6e 8a 3b ef 19 28 bb 4d dc 47 3a
       0.012397224 0.0042246 -0.0025650223 0.0007624075
0003c0 0f 31 d0 3b ad f9 5a bc 42 85 a6 3b 37 93 1d 3c
       0.0063535045 -0.013365191 0.0050818035 0.009617618
0003d0 9f 9c 4c 3c ac d3 3e 3c 01 c7 4c ba 9e e7 31 bb
       0.012488513 0.011647146 -0.00078116363 -0.0027146111
0003e0 65 57 3a 3c 0f 9e 4d 3b f4 51 8a 3c 77 8f b5 bb
       0.011373376 0.0031374728 0.016884781 -0.005540784
0003f0 af d5 5b bc 8b 26 39 3b bf 15 53 3c 2a a9 c7 bb
       -0.013417645 0.0028251733 0.012883603 -0.006093164

action_model._continuous_distribution.mu.bias f4 [3]
000000 00 00 00 00 00 00 00 00 00 00 00 00
       0.0 0.0 0.0
