UnityEnv/results/drone_goal_005/DroneAgent/DroneAgent-3900.pt (torch, 546744 bytes, 12 tensors)

network_body._body_endoder.seq_layers.0.weight f4 [256, 1]
00000000: a329 af3f 68bf 593f 94e6 0f3e 880a 9f3f
00000010: 7258 2440 78a1 96bf b251 143f 4c89 653f
00000020: c924 8bbf 0ec1 223f 282d 173e 1d30 14bf
00000030: f51c 71bd a7ae 973e 481e 1d40 f8de 393d
00000040: e1f6 3abf 8e99 9dbc ba0d 283f feb6 f43f
00000050: 03f1 fe3d b89f 863e cebe 18bc 9237 8abf
00000060: 2d97 87be be54 85be a813 8abb 1bbf d93d
00000070: 1a0c 9c3c a9fd 9e3f 324b bb3f 7719 b53f
00000080: 8f05 f13e a62a a33f f76b 1c40 7e0b 30be
00000090: 26cb ecbf 3433 bf3f bd61 6abe 31af 3bbf
000000a0: 6829 ebbd c597 22bf d100 a5bf e668 aebf
000000b0: 611c 123e ca00 42be cf3c 0f3e 35f4 043f
000000c0: c53b dabf 4526 fbbd f393 5ebf c281 aabf
000000d0: 678b 1b3e bb23 b43f be8d 923e 9479 52bf
000000e0: 3244 82bf 3041 ef3e 0c34 d2bf 56d3 c53f
000000f0: d9a7 fabe 1f26 333f 110a 3e3f b04e cb3e
00000100: 6ec3 96bf 4dea 5dbd 4684 093f c9d0 393e
00000110: 91e1 4fbe 8c90 f5be 8f14 bebe 8124 f83f
00000120: 7b8c 1d40 a48d 2fbf be87 8b3f e458 633f
00000130: 3bd2 623f 9b57 133f 8bbe 2e3d b3a8 6bbc
00000140: 5397 d6bf dece a3be 3fa1 3d3f b2ad e6bf
00000150: 532d 943e ab91 bebe b103 d4bf 8123 eabf
00000160: 2ebe e9bf 55bb 403f 15c0 b33e af60 0d40
00000170: fa8f a0bf 411f 833f 3471 893e 2cb4 f6be
00000180: 7ffb b33e 76ac 463f 3b53 ad3f 56f4 7d3f
00000190: 263f 623f 479f 9a3e 7544 2cbe 96a2 e23e
000001a0: 4491 473f 5efc 063e 6687 61be 5aa3 60bd
000001b0: b283 04c0 4c76 99bf 195d 18bf 6686 80bd
000001c0: 77e3 77bf bb74 90bf ed7a e6be e3dd 2b3f
000001d0: ad39 8f3f 16f7 5fbf 9535 33bf b86f 793f
000001e0: 8b46 febe d530 0abf d22d c13c 672c 893f
000001f0: 8ff1 3d3f 20d6 a9be c246 07bf a56f b1bd
00000200: 0387 0dbf 59e5 a63f 08ed 403f c422 bb3e
00000210: 302f c63f 947b d33f c25f 94be 88f9 473e
00000220: c47e a73f 2304 26bd 2854 cc3e 2355 19be
00000230: 9204 01bf 23e6 8ebf f737 e8be 2b1f a7be
00000240: 7510 1ebd eb52 673f 6dc2 2ebf bf5a 83bd
00000250: 9d14 59bf ff50 08be fc92 2fbf 4d1d 993d
00000260: 4fa6 24bf 0d70 813f 7b79 993d e2e0 23bf
00000270: 5046 57bd 8f82 3e3e 8c50 b1bf 1396 b23f
00000280: c742 a4be e32f 89be eba7 0abe 1dba 543f
00000290: e02c 78bd 7d04 cabf 799e 8abf 6266 7b3f
000002a0: 55d6 e3be 7b31 c23f 8e75 0bc0 148d 16bf
000002b0: 3a10 a5be 5853 43bf c48b b6be da55 d03f
000002c0: 41fe ca3d affe 2cbf ca9f 7abf 2c04 0ebf
000002d0: f982 0b3f c2ed f03f ea8e 1c3f 81a8 d9be
000002e0: c27f 07c0 f615 40be 5564 a2be 3fe2 4ebe
000002f0: 609d 773e 579e 03c0 a109 963e 255d 983f
00000300: 322e cdbe 67ab 383f e522 26bf 7bc5 df3e
00000310: 606b 37bf 5e30 e5bc 13e8 1040 aec7 0ec0
00000320: e1b5 f3bf 223f b7be 6064 ca3e eaa3 eebe
00000330: f896 b73c 4fcb ecbe 7ba9 c7be 68c8 fbbf
00000340: 5d8e bbbe a92a 19c0 190a b63e 7a8e 08c0
00000350: de1e 38bf 903a e3be 1c70 3bbe c511 af3e
00000360: 0fe7 1940 0326 a2bd 903d 47bd 89ce 5dbf
00000370: 26ef a8bf d770 adbe 5d8b 2dbe f992 153f
00000380: 2e6a 833f c7bc b13d 6a62 f0be b50b 12c0
00000390: c767 d53e 1cb2 383f b8cc 65bf 665d eebe
000003a0: d2a9 a1bf 49f3 9cbe d5c3 bbbf cb58 59bf
000003b0: 3507 1740 4ea6 9fbe d31a 223f e8c6 0540
000003c0: 5dd5 afbf d30b 9ebf b880 3b3f 3143 7cbd
000003d0: 0e5e 603f fe8e 263f 0ac0 183e 3d5f b6be
000003e0: 02f6 0e3f 2a8d 96bf 2147 5ebf 20f1 50bf
000003f0: efd8 2540 8b98 1d3c edb0 fa3e 8a30 4cbf
1.3684582 0.8505769 0.14052802 1.2425089 2.5678983 -1.1768026 0.5793716 0.89662623
-1.0870601 0.6357583 0.1476332 -0.57885915 -0.058865506 0.29625437 2.4549732 0.045378655
-0.7303296 -0.01923826 0.65645945 1.9118345 0.12448313 0.2629373 -0.009322835 -1.0798209
-0.26482525 -0.26041216 -0.004213769 0.106321536 0.01904874 1.2421161 1.4632323 1.4148396
0.47074553 1.274739 2.4440897 -0.17191884 -1.8499496 1.4937501 -0.22888847 -0.73314196
-0.11482507 -0.6351283 -1.2890874 -1.3625762 0.14268638 -0.18945614 0.1398804 0.5193513
-1.704949 -0.12263159 -0.869445 -1.3320849 0.15189897 1.4073404 0.28623766 -0.82216763
-1.0177062 0.46729422 -1.6422133 1.545512 -0.48956183 0.69980043 0.7423411 0.3970847
-1.177839 -0.054178525 0.5371746 0.18146051 -0.2030089 -0.47961843 -0.3712506 1.938614
2.4616992 -0.685755 1.09008 0.8880751 0.88602036 0.5755555 0.042662185 -0.014383483
-1.676493 -0.31993765 0.74074167 -1.8021758 0.2894083 -0.3722051 -1.6563627 -1.8292085
-1.8261163 0.75285846 0.35107484 2.209026 -1.2543938 1.0243913 0.2684418 -0.48184335
0.35152814 0.77606905 1.3541025 0.9920095 0.88377607 0.30199644 -0.1682299 0.44264668
0.7795603 0.13182208 -0.22024307 -0.054843284 -2.070538 -1.1989226 -0.59517056 -0.062756345
-0.9683146 -1.1285623 -0.4501566 0.6713545 1.1189476 -0.874864 -0.70003635 0.97436094
-0.49663195 -0.5398076 0.02358142 1.0716676 0.74196714 -0.33171177 -0.5284234 -0.08663873
-0.55284137 1.3038741 0.7536168 0.36549962 1.548315 1.6522088 -0.28979307 0.19528782
1.3085561 -0.04053129 0.39907956 -0.14973883 -0.503976 -1.1163982 -0.45355198 -0.32640967
-0.038589913 0.903609 -0.6826542 -0.06413793 -0.8479708 -0.13312148 -0.68583655 0.07476292
-0.64316267 1.011232 0.07493874 -0.6401502 -0.05255729 0.18604492 -1.3852706 1.3952049
-0.32082197 -0.26794347 -0.13540618 0.83096486 -0.06058967 -1.578262 -1.0829612 0.982031
-0.4449946 1.517135 -2.17905 -0.5880902 -0.32238942 -0.7629905 -0.35653508 1.62762
0.09911776 -0.67576116 -0.9790007 -0.55475116 0.54496723 1.8822558 0.6115557 -0.4251137
-2.1171727 -0.18758377 -0.31717172 -0.20203494 0.24181128 -2.0565393 0.2930422 1.1903425
-0.40074307 0.7213654 -0.64896995 0.43705353 -0.71648216 -0.027977165 2.2641647 -2.2309375
-1.903988 -0.35790354 0.39529705 -0.46609432 0.022410855 -0.46248862 -0.3899649 -1.9670534
-0.36632052 -2.3932288 0.3555458 -2.133696 -0.719221 -0.44380617 -0.18304485 0.34193245
2.4047277 -0.079174064 -0.048642695 -0.8664327 -1.3197982 -0.33875152 -0.16947694 0.5842739
1.0266778 0.086785845 -0.46950084 -2.2819645 0.41680738 0.72146773 -0.897655 -0.46555632
-1.262995 -0.30654362 -1.4669138 -0.8490111 2.359815 -0.31181568 0.6332218 2.0902653
-1.3736988 -1.2347358 0.73243284 -0.061587516 0.87643516 0.6506194 0.14917007 -0.35619536
0.5584413 -1.176183 -0.86827284 -0.8161793 2.5913656 0.009618889 0.4896311 -0.79761565

network_body._body_endoder.seq_layers.0.bias f4 [256]
00000000: 0000 0000 0000 0000 0000 0000 0000 0000
00000010: 0000 0000 0000 0000 0000 0000 0000 0000
00000020: 0000 0000 0000 0000 0000 0000 0000 0000
00000030: 0000 0000 0000 0000 0000 0000 0000 0000
00000040: 0000 0000 0000 0000 0000 0000 0000 0000
00000050: 0000 0000 0000 0000 0000 0000 0000 0000
00000060: 0000 0000 0000 0000 0000 0000 0000 0000
00000070: 0000 0000 0000 0000 0000 0000 0000 0000
00000080: 0000 0000 0000 0000 0000 0000 0000 0000
00000090: 0000 0000 0000 0000 0000 0000 0000 0000
000000a0: 0000 0000 0000 0000 0000 0000 0000 0000
000000b0: 0000 0000 0000 0000 0000 0000 0000 0000
000000c0: 0000 0000 0000 0000 0000 0000 0000 0000
000000d0: 0000 0000 0000 0000 0000 0000 0000 0000
000000e0: 0000 0000 0000 0000 0000 0000 0000 0000
000000f0: 0000 0000 0000 0000 0000 0000 0000 0000
00000100: 0000 0000 0000 0000 0000 0000 0000 0000
00000110: 0000 0000 0000 0000 0000 0000 0000 0000
00000120: 0000 0000 0000 0000 0000 0000 0000 0000
00000130: 0000 0000 0000 0000 0000 0000 0000 0000
00000140: 0000 0000 0000 0000 0000 0000 0000 0000
00000150: 0000 0000 0000 0000 0000 0000 0000 0000
00000160: 0000 0000 0000 0000 0000 0000 0000 0000
00000170: 0000 0000 0000 0000 0000 0000 0000 0000
00000180: 0000 0000 0000 0000 0000 0000 0000 0000
00000190: 0000 0000 0000 0000 0000 0000 0000 0000
000001a0: 0000 0000 0000 0000 0000 0000 0000 0000
000001b0: 0000 0000 0000 0000 0000 0000 0000 0000
000001c0: 0000 0000 0000 0000 0000 0000 0000 0000
000001d0: 0000 0000 0000 0000 0000 0000 0000 0000
000001e0: 0000 0000 0000 0000 0000 0000 0000 0000
000001f0: 0000 0000 0000 0000 0000 0000 0000 0000
00000200: 0000 0000 0000 0000 0000 0000 0000 0000
00000210: 0000 0000 0000 0000 0000 0000 0000 0000
00000220: 0000 0000 0000 0000 0000 0000 0000 0000
00000230: 0000 0000 0000 0000 0000 0000 0000 0000
00000240: 0000 0000 0000 0000 0000 0000 0000 0000
00000250: 0000 0000 0000 0000 0000 0000 0000 0000
00000260: 0000 0000 0000 0000 0000 0000 0000 0000
00000270: 0000 0000 0000 0000 0000 0000 0000 0000
00000280: 0000 0000 0000 0000 0000 0000 0000 0000
00000290: 0000 0000 0000 0000 0000 0000 0000 0000
000002a0: 0000 0000 0000 0000 0000 0000 0000 0000
000002b0: 0000 0000 0000 0000 0000 0000 0000 0000
000002c0: 0000 0000 0000 0000 0000 0000 0000 0000
000002d0: 0000 0000 0000 0000 0000 0000 0000 0000
000002e0: 0000 0000 0000 0000 0000 0000 0000 0000
000002f0: 0000 0000 0000 0000 0000 0000 0000 0000
00000300: 0000 0000 0000 0000 0000 0000 0000 0000
00000310: 0000 0000 0000 0000 0000 0000 0000 0000
00000320: 0000 0000 0000 0000 0000 0000 0000 0000
00000330: 0000 0000 0000 0000 0000 0000 0000 0000
00000340: 0000 0000 0000 0000 0000 0000 0000 0000
00000350: 0000 0000 0000 0000 0000 0000 0000 0000
00000360: 0000 0000 0000 0000 0000 0000 0000 0000
00000370: 0000 0000 0000 0000 0000 0000 0000 0000
00000380: 0000 0000 0000 0000 0000 0000 0000 0000
00000390: 0000 0000 0000 0000 0000 0000 0000 0000
000003a0: 0000 0000 0000 0000 0000 0000 0000 0000
000003b0: 0000 0000 0000 0000 0000 0000 0000 0000
000003c0: 0000 0000 0000 0000 0000 0000 0000 0000
000003d0: 0000 0000 0000 0000 0000 0000 0000 0000
000003e0: 0000 0000 0000 0000 0000 0000 0000 0000
000003f0: 0000 0000 0000 0000 0000 0000 0000 0000
0.0 0.0 0.0 0.0 0.0 0.0 0.0 0.0
0.0 0.0 0.0 0.0 0.0 0.0 0.0 0.0
0.0 0.0 0.0 0.0 0.0 0.0 0.0 0.0
0.0 0.0 0.0 0.0 0.0 0.0 0.0 0.0
0.0 0.0 0.0 0.0 0.0 0.0 0.0 0.0
0.0 0.0 0.0 0.0 0.0 0.0 0.0 0.0
0.0 0.0 0.0 0.0 0.0 0.0 0.0 0.0
0.0 0.0 0.0 0.0 0.0 0.0 0.0 0.0
0.0 0.0 0.0 0.0 0.0 0.0 0.0 0.0
0.0 0.0 0.0 0.0 0.0 0.0 0.0 0.0
0.0 0.0 0.0 0.0 0.0 0.0 0.0 0.0
0.0 0.0 0.0 0.0 0.0 0.0 0.0 0.0
0.0 0.0 0.0 0.0 0.0 0.0 0.0 0.0
0.0 0.0 0.0 0.0 0.0 0.0 0.0 0.0
0.0 0.0 0.0 0.0 0.0 0.0 0.0 0.0
0.0 0.0 0.0 0.0 0.0 0.0 0.0 0.0
0.0 0.0 0.0 0.0 0.0 0.0 0.0 0.0
0.0 0.0 0.0 0.0 0.0 0.0 0.0 0.0
0.0 0.0 0.0 0.0 0.0 0.0 0.0 0.0
0.0 0.0 0.0 0.0 0.0 0.0 0.0 0.0
0.0 0.0 0.0 0.0 0.0 0.0 0.0 0.0
0.0 0.0 0.0 0.0 0.0 0.0 0.0 0.0
0.0 0.0 0.0 0.0 0.0 0.0 0.0 0.0
0.0 0.0 0.0 0.0 0.0 0.0 0.0 0.0
0.0 0.0 0.0 0.0 0.0 0.0 0.0 0.0
0.0 0.0 0.0 0.0 0.0 0.0 0.0 0.0
0.0 0.0 0.0 0.0 0.0 0.0 0.0 0.0
0.0 0.0 0.0 0.0 0.0 0.0 0.0 0.0
0.0 0.0 0.0 0.0 0.0 0.0 0.0 0.0
0.0 0.0 0.0 0.0 0.0 0.0 0.0 0.0
0.0 0.0 0.0 0.0 0.0 0.0 0.0 0.0
0.0 0.0 0.0 0.0 0.0 0.0 0.0 0.0

network_body._body_endoder.seq_layers.2.weight f4 [256, 256]
00000000: 304b 22be 7a17 25bd 443f 09bd b408 efbc
00000010: 1927 fe39 c9e9 003d 240b f9bb dba1 30bd
00000020: d7ce 413c 040e e9bc 70bb a7bb 475c b83c
00000030: 748f dabd f5ae 733d 7973 143e 6f2f 493c
00000040: 1278 2abd 633c 443c 4996 193c 5000 a4bd
00000050: f84f d63c 567f d73a b97f 4b3b 3494 793c
00000060: 4308 513d 7467 a73c a2b9 debc d9de cdbd
00000070: 71e9 ba3d 61a9 b93b 6fe9 83bd 559e f73c
00000080: 3a97 a9bc 9ff2 8ebd d6f5 ddbd 6a1d e3bc
00000090: eede 68bd 85e6 f13a d899 fabd 143b f03c
000000a0: 2de2 9e3d ab5d 07bb 22dd 773d 694f d93d
000000b0: 7d09 853d 9213 193e f5d2 f83d 46e4 213d
000000c0: ff63 773c 20f7 993d 4ac7 d4bb 07b1 1ebc
000000d0: e3ea 52bd a597 f6bd d1c8 4c3d 2462 f8bc
000000e0: bbb6 e5bc afbd 353d 683e 103e 2cab 873d
000000f0: 6f0d cdbc 33be b23d 4baf bfbc b59f bc3d
00000100: 54bd babd 58f1 1cbc 72c9 143d 553c 48bd
00000110: 3181 1fbc 1942 eb3a 8d25 923d d105 bfbd
00000120: 5839 82bd 7967 abbc 3eac 093e 1383 dd3c
00000130: 4217 57bd 16b8 babd 6395 843d 0776 db3b
00000140: 2f4a 6c3d 41da d0bc be69 303c 05ad 2abc
00000150: ad22 7b3b c222 dfbd 3309 b0bd 03db 213d
00000160: 692b b0bd 0237 fd3d a521 d0bd 92ac 483d
00000170: 10ec 0f3d 6e19 8ebd 2d66 ef3c de52 593a
00000180: 5d34 9cbd f41e 87bc 2d9c 563d 16e0 4a3d
00000190: d7a7 5bbc 1b4e 053c 7be5 c7bd 714c d0bd
000001a0: a8eb bb3b 3246 b23d a53f 393b e8d6 9cbd
000001b0: 5bca d239 b0b6 cdbc 6e7f abbd 7915 5ebd
000001c0: 5986 433d e5d3 963c cf89 323d 124e 9ebc
000001d0: 4688 343d d87c 813d 279e 50bd 7ac6 573d
000001e0: 9bd7 873c 8a32 1d3d 0af6 5dbd d6c6 b33d
000001f0: bea0 79bd 3366 6c3a a3be 6ebc 6de5 03be
00000200: 8286 243c d0a9 0f3c fe55 48bd 0820 c2bc
00000210: 744f 8fb9 f1b7 91bc 94af 0fba 14cb f8bc
00000220: 86e2 31bd 1f7d 39bd f519 edbc 714d 733c
00000230: 8f9d 863c ec74 cf3c 1de9 903d 3847 82bd
00000240: 8a9f 2bbd 49d6 ab3d 252b e2bc 7499 bb3c
00000250: 9759 babb 2595 8bbc e20c 173e acc8 a0bd
00000260: 0955 bf3c a66e 623d 3c64 ec3d d48a 3e3d
00000270: ab60 feb9 456a 84bc 50f9 8f3c d51c 453d
00000280: 4668 f0bd e593 e9bb c4a3 4b3d 9d1d 253b
00000290: c198 fabc 6907 adbb 8c23 b3bb 822d b53c
000002a0: 49e5 173d e8d0 1bbd 93c2 463c 0fe0 063e
000002b0: 07ff aaba 1b2d 513d 0455 263e 4fc6 863c
000002c0: e06d d13b b80e 40bd b6ab 0abe 853f ba3d
000002d0: 3053 08bc a151 64bd 4bf0 bbbc 9802 86bc
000002e0: e75b 51bd 7483 213d 3ecc 2fbd ade6 05be
000002f0: 5ee2 713d 5812 8b3d eaa0 303d 32a0 5d3c
00000300: 49ff 173e fb01 073e 1f33 c1bd 8cac b03d
00000310: c2b1 7c3d 3af0 0a3d e035 af3c f729 c03d
00000320: 55b4 993c e611 c5bc 2528 cebc e622 aebd
00000330: 9ddc cbbc bd4c c5bc a4aa 90bc 0ead 9d3c
00000340: 79c3 373d abba a43d f814 c6bc 350e a33d
00000350: 52f3 9cbc 8b58 91bc fa4b 5bbd 3d22 93ba
00000360: a4c6 563d ca3d 18bd e328 dbbb 4cb0 1cbd
00000370: 5c42 a13d 3a03 803d 39ac ff3c eaea 1fbd
00000380: 27bd afbd fd1a eebc c2dd fdbc 2f72 4ebd
00000390: 3314 463c ddc0 d0bd 91d4 9cbd b54e 063e
000003a0: d679 3ebc ee43 223c a95c 5f3d 14eb 26bd
000003b0: 5742 94bc 7ca1 983d 049a 25bc 5cf5 8cbb
000003c0: 3935 68bd 8770 f43d fcd4 33be b18c 2fbe
000003d0: 3e19 303e a7b6 b83d 0e60 733d e297 1cbd
000003e0: 2c10 f7b7 11cf cf3d f41f 3f3d 583d fabc
000003f0: efe8 76bc 3963 9fbd 269f 83bd c855 b53b
-0.15848994 -0.040305592 -0.0335076 -0.029178955 0.00048475785 0.031472955 -0.007600205 -0.043123107
0.0118291 -0.028449066 -0.00511878 0.022504939 -0.10671893 0.059493024 0.14497174 0.012279375
-0.041618414 0.011977288 0.00937421 -0.08007872 0.026161179 0.0016441147 0.003105147 0.015233088
0.05103327 0.020435072 -0.027188126 -0.100522704 0.09126557 0.0056659435 -0.06441008 0.030226866
-0.020701993 -0.0697987 -0.10837905 -0.027723987 -0.056853227 0.0018455541 -0.122363746 0.029325046
0.07757983 -0.0020655196 0.060513623 0.106108494 0.0649595 0.14948872 0.12149612 0.03952434
0.0150995245 0.075178385 -0.0064934837 -0.009685761 -0.051493537 -0.12040643 0.0499962 -0.030320235
-0.028041234 0.04437035 0.14086306 0.06624445 -0.02503082 0.08727684 -0.023399016 0.09210149
-0.09118143 -0.009579025 0.036324926 -0.048885662 -0.0097353915 0.0017948776 0.071360685 -0.09327281
-0.06358594 -0.020923363 0.13444611 0.02704004 -0.052512415 -0.09117143 0.06473806 0.0066974196
0.057687934 -0.025494697 0.010767398 -0.010417228 0.003832023 -0.108953014 -0.085955046 0.039515506
-0.0860203 0.123640075 -0.10162667 0.0489927 0.035137236 -0.06938444 0.029223526 0.0008290241
-0.07627175 -0.016494252 0.052395035 0.04953011 -0.013406715 0.008136298 -0.09760567 -0.1017083
0.0057348795 0.08704795 0.0028266695 -0.076581776 0.00040205088 -0.025111526 -0.08373915 -0.054219697
0.047735546 0.018411586 0.043588456 -0.019324336 0.044075273 0.0632264 -0.050932076 0.052679516
0.0165823 0.038378276 -0.05418972 0.08778159 -0.06094431 0.00090179144 -0.0145718185 -0.12880488
0.010041835 0.008768514 -0.048910134 -0.023696914 -0.00027334283 -0.017787905 -0.000548118 -0.030370273
-0.04342892 -0.04528534 -0.028943041 0.014850006 0.016432552 0.025324307 0.07075713 -0.0636124
-0.041900195 0.08390481 -0.027608464 0.02290032 -0.0056869495 -0.017038891 0.14751008 -0.07850775
0.023355978 0.055281304 0.11542556 0.046519116 -0.00048518679 -0.016163955 0.017574936 0.0481232
-0.117386386 -0.007128226 0.049716726 0.0025194653 -0.030590417 -0.0052804244 -0.005466884 0.022116426
0.037083898 -0.038041025 0.012131351 0.13171409 -0.0013045975 0.051068407 0.16243368 0.016451983
0.006391272 -0.046889037 -0.13542065 0.09094147 -0.008320615 -0.05574191 -0.022941729 -0.016358659
-0.051113036 0.039432004 -0.04291939 -0.13076277 0.05905377 0.06790608 0.04312221 0.013526963
0.14843477 0.13184349 -0.09433579 0.08626661 0.06169296 0.033920504 0.021387994 0.09383004
0.018762747 -0.024056386 -0.025165627 -0.0850275 -0.02488547 -0.024084443 -0.017659493 0.019247558
0.04486415 0.080434166 -0.02417992 0.07961694 -0.019158993 -0.017742416 -0.053539254 -0.0011225414
0.052435532 -0.0371683 -0.0066882237 -0.038254067 0.07873985 0.062506154 0.031210052 -0.03904239
-0.08581 -0.029065603 -0.030989531 -0.050401863 0.012089777 -0.10193036 -0.07657731 0.13115962
-0.011625728 0.009903891 0.054531727 -0.04075153 -0.01809804 0.07452676 -0.010107521 -0.00430171
-0.056691382 0.119355254 -0.17561716 -0.17143513 0.17197129 0.09019213 0.059417777 -0.038230784
-2.9452225e-05 0.10146917 0.046661332 -0.03054683 -0.015070184 -0.07782597 -0.064268395 0.0055339076

network_body._body_endoder.seq_layers.2.bias f4 [256]
00000000: 0000 0000 0000 0000 0000 0000 0000 0000
00000010: 0000 0000 0000 0000 0000 0000 0000 0000
00000020: 0000 0000 0000 0000 0000 0000 0000 0000
00000030: 0000 0000 0000 0000 0000 0000 0000 0000
00000040: 0000 0000 0000 0000 0000 0000 0000 0000
00000050: 0000 0000 0000 0000 0000 0000 0000 0000
00000060: 0000 0000 0000 0000 0000 0000 0000 0000
00000070: 0000 0000 0000 0000 0000 0000 0000 0000
00000080: 0000 0000 0000 0000 0000 0000 0000 0000
00000090: 0000 0000 0000 0000 0000 0000 0000 0000
000000a0: 0000 0000 0000 0000 0000 0000 0000 0000
000000b0: 0000 0000 0000 0000 0000 0000 0000 0000
000000c0: 0000 0000 0000 0000 0000 0000 0000 0000
000000d0: 0000 0000 0000 0000 0000 0000 0000 0000
000000e0: 0000 0000 0000 0000 0000 0000 0000 0000
000000f0: 0000 0000 0000 0000 0000 0000 0000 0000
00000100: 0000 0000 0000 0000 0000 0000 0000 0000
00000110: 0000 0000 0000 0000 0000 0000 0000 0000
00000120: 0000 0000 0000 0000 0000 0000 0000 0000
00000130: 0000 0000 0000 0000 0000 0000 0000 0000
00000140: 0000 0000 0000 0000 0000 0000 0000 0000
00000150: 0000 0000 0000 0000 0000 0000 0000 0000
00000160: 0000 0000 0000 0000 0000 0000 0000 0000
00000170: 0000 0000 0000 0000 0000 0000 0000 0000
00000180: 0000 0000 0000 0000 0000 0000 0000 0000
00000190: 0000 0000 0000 0000 0000 0000 0000 0000
000001a0: 0000 0000 0000 0000 0000 0000 0000 0000
000001b0: 0000 0000 0000 0000 0000 0000 0000 0000
000001c0: 0000 0000 0000 0000 0000 0000 0000 0000
000001d0: 0000 0000 0000 0000 0000 0000 0000 0000
000001e0: 0000 0000 0000 0000 0000 0000 0000 0000
000001f0: 0000 0000 0000 0000 0000 0000 0000 0000
00000200: 0000 0000 0000 0000 0000 0000 0000 0000
00000210: 0000 0000 0000 0000 0000 0000 0000 0000
00000220: 0000 0000 0000 0000 0000 0000 0000 0000
00000230: 0000 0000 0000 0000 0000 0000 0000 0000
00000240: 0000 0000 0000 0000 0000 0000 0000 0000
00000250: 0000 0000 0000 0000 0000 0000 0000 0000
00000260: 0000 0000 0000 0000 0000 0000 0000 0000
00000270: 0000 0000 0000 0000 0000 0000 0000 0000
00000280: 0000 0000 0000 0000 0000 0000 0000 0000
00000290: 0000 0000 0000 0000 0000 0000 0000 0000
000002a0: 0000 0000 0000 0000 0000 0000 0000 0000
000002b0: 0000 0000 0000 0000 0000 0000 0000 0000
000002c0: 0000 0000 0000 0000 0000 0000 0000 0000
000002d0: 0000 0000 0000 0000 0000 0000 0000 0000
000002e0: 0000 0000 0000 0000 0000 0000 0000 0000
000002f0: 0000 0000 0000 0000 0000 0000 0000 0000
00000300: 0000 0000 0000 0000 0000 0000 0000 0000
00000310: 0000 0000 0000 0000 0000 0000 0000 0000
00000320: 0000 0000 0000 0000 0000 0000 0000 0000
00000330: 0000 0000 0000 0000 0000 0000 0000 0000
00000340: 0000 0000 0000 0000 0000 0000 0000 0000
00000350: 0000 0000 0000 0000 0000 0000 0000 0000
00000360: 0000 0000 0000 0000 0000 0000 0000 0000
00000370: 0000 0000 0000 0000 0000 0000 0000 0000
00000380: 0000 0000 0000 0000 0000 0000 0000 0000
00000390: 0000 0000 0000 0000 0000 0000 0000 0000
000003a0: 0000 0000 0000 0000 0000 0000 0000 0000
000003b0: 0000 0000 0000 0000 0000 0000 0000 0000
000003c0: 0000 0000 0000 0000 0000 0000 0000 0000
000003d0: 0000 0000 0000 0000 0000 0000 0000 0000
000003e0: 0000 0000 0000 0000 0000 0000 0000 0000
000003f0: 0000 0000 0000 0000 0000 0000 0000 0000
0.0 0.0 0.0 0.0 0.0 0.0 0.0 0.0
0.0 0.0 0.0 0.0 0.0 0.0 0.0 0.0
0.0 0.0 0.0 0.0 0.0 0.0 0.0 0.0
0.0 0.0 0.0 0.0 0.0 0.0 0.0 0.0
0.0 0.0 0.0 0.0 0.0 0.0 0.0 0.0
0.0 0.0 0.0 0.0 0.0 0.0 0.0 0.0
0.0 0.0 0.0 0.0 0.0 0.0 0.0 0.0
0.0 0.0 0.0 0.0 0.0 0.0 0.0 0.0
0.0 0.0 0.0 0.0 0.0 0.0 0.0 0.0
0.0 0.0 0.0 0.0 0.0 0.0 0.0 0.0
0.0 0.0 0.0 0.0 0.0 0.0 0.0 0.0
0.0 0.0 0.0 0.0 0.0 0.0 0.0 0.0
0.0 0.0 0.0 0.0 0.0 0.0 0.0 0.0
0.0 0.0 0.0 0.0 0.0 0.0 0.0 0.0
0.0 0.0 0.0 0.0 0.0 0.0 0.0 0.0
0.0 0.0 0.0 0.0 0.0 0.0 0.0 0.0
0.0 0.0 0.0 0.0 0.0 0.0 0.0 0.0
0.0 0.0 0.0 0.0 0.0 0.0 0.0 0.0
0.0 0.0 0.0 0.0 0.0 0.0 0.0 0.0
0.0 0.0 0.0 0.0 0.0 0.0 0.0 0.0
0.0 0.0 0.0 0.0 0.0 0.0 0.0 0.0
0.0 0.0 0.0 0.0 0.0 0.0 0.0 0.0
0.0 0.0 0.0 0.0 0.0 0.0 0.0 0.0
0.0 0.0 0.0 0.0 0.0 0.0 0.0 0.0
0.0 0.0 0.0 0.0 0.0 0.0 0.0 0.0
0.0 0.0 0.0 0.0 0.0 0.0 0.0 0.0
0.0 0.0 0.0 0.0 0.0 0.0 0.0 0.0
0.0 0.0 0.0 0.0 0.0 0.0 0.0 0.0
0.0 0.0 0.0 0.0 0.0 0.0 0.0 0.0
0.0 0.0 0.0 0.0 0.0 0.0 0.0 0.0
0.0 0.0 0.0 0.0 0.0 0.0 0.0 0.0
0.0 0.0 0.0 0.0 0.0 0.0 0.0 0.0

action_model._continuous_distribution.log_sigma f4 [1, 3]
00000000: 0000 0000 0000 0000 0000 0000
0.0 0.0 0.0

action_model._continuous_distribution.mu.weight f4 [3, 256]
00000000: bdf4 a63b 942d 303b b5a1 4b3c cfa7 b93c
00000010: d53a 56bc d364 c439 f34c 38bc d835 b73c
00000020: 7a29 423c 6a9b c9bb 905a ddbb 944e 973c
00000030: dbf9 22bb a8fd 333c bb91 1cbc 2d42 6f3c
00000040: 2fd6 e03b e356 0ebc db3a 9e3b 03c6 0f3b
00000050: e3cc 1e3a 9ffe 7a3c f36c 603b 8e12 87bc
00000060: 3f9e 12ba 6d22 d93a 4ae1 4cb8 b99b 8fbb
00000070: c5ef 33bb 57e7 243c 63b1 3cbc 6f1f 873b
00000080: aa16 10bb 9003 de3b a72d 83bc a1fd ba3b
00000090: 7774 6fbc 4ec3 b1bc eed6 3e3c b8ac 93bc
000000a0: 8906 a4ba d7eb d53c b7ca 9eb8 3b23 7ebb
000000b0: 33cd e13c 8a3e b7bc bf33 853c f162 2fbc
000000c0: 27b8 40bc 4abc 50ba 849b 923c 189c e73b
000000d0: 132c 133c 4f49 b6bb b3e3 a23c c597 e83b
000000e0: 9b3e 6b3c a241 2b3c a4ac af3b e08c c43c
000000f0: 47dc 433c 5617 04bc 32a0 87bc 11d4 99b9
00000100: df85 66ba ad68 52bb 984f 6a3b 607a f1ba
00000110: fa07 d1bc fa0b e2bb 8642 a03a d052 e13a
00000120: 1b2c 9d3c a85d 6d3c b2f4 78bc 87bb 6c3c
00000130: 49d7 2c3b 2120 963c fda8 0d3c c0e2 db3b
00000140: 63f3 c63c 5bc1 a3bb 70ed a5bb eb08 aeba
00000150: a570 b7bc 23d8 503c 40b9 fdbc 036e 83bc
00000160: 810e 813b ef9c 1cbc f78b 86bc 1bde d13b
00000170: 01c7 363c d238 33bb f4ab 26bc 76e2 373b
00000180: c526 05bc db09 1cbb 2bd8 2ebc 825c 4bbc
00000190: a7cd 50bb f3ca 1bbc 8249 f13b 697b 91bc
000001a0: bf9f 1dbc bf55 12bd f436 8b3c a7ff 3bbb
000001b0: a2b9 3bbc d592 0e3b 9dc9 e9bc a76e abbb
000001c0: c4f7 3abc 7f4b f03b 53b4 a63b 6b24 0c3c
000001d0: 8e02 8f3c 9f3b 9f3b 5b2d bfbb 6b2d 51bc
000001e0: afc3 c73c 3be1 9bbb 09c3 acbb a301 1b3b
000001f0: 5ba8 92bb 6b10 943a 6035 cf3a 2d4e 2e3c
00000200: 5097 233c 9fcc 623c 0278 56ba 38c9 653b
00000210: f720 11bc 973d 983b e9d7 c0bc f373 fb3b
00000220: 95e6 18bc a0a3 66bb 191d bb3b 28be 15bc
00000230: 075b 61bc 77c0 e73a ead9 423a 95c2 00bc
00000240: b137 98bc be2e 003d 63e3 1ebc c96a 0b3c
00000250: 5316 8bba 6d35 d5bb 6fcd 9f3b 8fab 513b
00000260: 9081 70bb 0cc2 4c3b 0d62 593a 59bf 033c
00000270: 9ec8 b4bb aa96 8e3b a11f 18bb d9bb 343c
00000280: 8634 26bb 69ac 423c eaec bb3c 63b7 b93b
00000290: a165 9d3a 5bad 79bc 6c95 883c 778d bc3a
000002a0: f092 703c ca2b 723c 0de9 51bc 58c7 74bc
000002b0: 9725 bf3b 4d30 dabb 72e0 9d3c c325 4b3c
000002c0: aac9 48bc a767 67bc 9913 983c 03ca 07bd
000002d0: 7848 e43b 37ea 273b 8f40 83bc f5d0 fa3c
000002e0: 729f 853c 8722 38bc fd47 edbc 5f5a ac3a
000002f0: 05b3 a13a 33bf d1bc df2a 873b 17f9 933c
00000300: ba1f 47bb d2d6 ff3a 3b07 07bc 3bac bb3b
00000310: 38d2 ebbb 3147 393c e3ad 8cbb b32a 0abc
00000320: f285 d8bc e331 4bbc 25ef 8a3c 70f8 5abc
00000330: 003a 98bc 53dc adbb 3a20 f93b 58ce 6f3c
00000340: 1914 87bb 5f48 8d3b 475b c63b d490 10bc
00000350: 07cd dc3b cd24 dabb f7f4 eebb 42c7 633c
00000360: 734a 7f3c 6f78 223c 3bba 09bb 362a 113c
00000370: 646d beba e37d 333b 27b4 de3b 8e0b 163c
00000380: 3803 213c 896f 403c e39d eaba 75c3 963b
00000390: e731 adbc a8c9 4d3b 8813 273b 33ef 8c3b
000003a0: 9314 8d3c 98c5 563c 8721 dcbb 1db8 34bb
000003b0: ba1c d03b 6320 773b 36dc 023b d53b 663c
000003c0: ed22 aa3a 2db5 51bb a9d5 84bc d7d0 0d3c
000003d0: 5f53 b5bb c8e0 233b d696 403c 87d8 acbc
000003e0: 751a f03b b6c8 21bc ff8f 8c3b a07e 09bc
000003f0: e3f5 373c f498 a1bc ba79 f8bb 2be3 0cbc
0.005095093 0.0026882635 0.012428691 0.022663025 -0.01307555 0.00037459153 -0.011248815 0.022364542
0.011850709 -0.00615256 -0.0067551807 0.018470086 -0.0024868164 0.010985769 -0.009556229 0.01460318
0.00686147 -0.008687708 0.0048287935 0.0021938093 0.0006057752 0.015319495 0.0034244626 -0.01648834
-0.00055930385 0.0016566046 -4.8847207e-05 -0.0043825773 -0.0027456146 0.010064921 -0.011516902 0.00412362
-0.0021986165 0.006775327 -0.01601298 0.0057065045 -0.01461517 -0.021699574 0.011647923 -0.018026695
-0.0012514155 0.026113434 -7.571786e-05 -0.0038778323 0.027563667 -0.022368688 0.016260026 -0.010704742
-0.011762655 -0.00079626276 0.017896421 0.0070681684 0.008982676 -0.0055629383 0.019883966 0.0070981705
0.014358188 0.01045266 0.0053611565 0.023992956 0.011954374 -0.008062204 -0.01655588 -0.00029340436
-0.0008793752 -0.0032105849 0.0035753008 -0.0018423311 -0.025516499 -0.0068984004 0.0012226857 0.0017190818
0.01918607 0.014487661 -0.015195059 0.014449007 0.0026373437 0.018325867 0.008646247 0.0067103803
0.024285978 -0.004997415 -0.005063705 -0.0013277804 -0.02239258 0.0127468435 -0.030972123 -0.016043669
0.0039384966 -0.0095589 -0.016424162 0.006404651 0.011155845 -0.00273471 -0.010172833 0.0028058565
-0.008126919 -0.0023809585 -0.010671656 -0.012412192 -0.003186086 -0.009508836 0.007363499 -0.017759042
-0.009620606 -0.035726305 0.016993977 -0.0028686316 -0.0114578325 0.0021755 -0.02853852 -0.0052316966
-0.011411611 0.0073332186 0.0050874143 0.008553605 0.017457273 0.0048594023 -0.005834264 -0.012767176
0.024385301 -0.004757074 -0.0052722734 0.0023652099 -0.004475636 0.0011296397 0.0015808754 0.010638756
0.009984806 0.013842731 -0.00081813347 0.0035062563 -0.008857957 0.004646014 -0.023540454 0.0076737343
-0.009332319 -0.0035192743 0.005710256 -0.009139575 -0.013754613 0.001768126 0.00074329844 -0.007858892
-0.018581243 0.031294577 -0.009697768 0.008509346 -0.0010611512 -0.006506613 0.0048767845 0.0031993126
-0.003669832 0.003124359 0.0008292504 0.008041226 -0.0055170795 0.0043514566 -0.0023212212 0.0110311145
-0.0025360896 0.011881926 0.022940118 0.0056676134 0.0012008437 -0.015239085 0.016672812 0.0014385422
0.01468347 0.014780948 -0.012811911 -0.014940105 0.0058333385 -0.00665859 0.019272063 0.01239914
-0.012255112 -0.014123834 0.018564032 -0.033151638 0.0069666468 0.002562178 -0.016021995 0.030617217
0.016311381 -0.011238701 -0.02896499 0.0013149491 0.0012336677 -0.025603866 0.0041249837 0.018063111
-0.00303839 0.0019518977 -0.00824147 0.0057273186 -0.007196691 0.011308477 -0.00429319 -0.008433032
-0.026431058 -0.012402031 0.016959736 -0.013364896 -0.018582344 -0.0053058057 0.0076027187 0.0146365985
-0.004122269 0.004311606 0.0060533616 -0.008823592 0.0067383084 -0.006657219 -0.0072923857 0.013902487
0.015581715 0.009916409 -0.0021015543 0.0088601615 -0.001452845 0.0027388267 0.006796378 0.009158028
0.009827428 0.011745342 -0.0017899837 0.004600937 -0.02114196 0.0031400714 0.002549382 0.0043009757
0.017221725 0.013108633 -0.006717864 -0.002757556 0.0063510807 0.0037708513 0.0019967682 0.014052351
0.0012980379 -0.0031998858 -0.016215162 0.008655748 -0.0055336202 0.0025005806 0.011754712 -0.021099342
0.0073273727 -0.009874513 0.0042896266 -0.008392006 0.011228058 -0.019726254 -0.0075828703 -0.008599083

action_model._continuous_distribution.mu.bias f4 [3]
00000000: 0000 0000 0000 0000 0000 0000
0.0 0.0 0.0

network_body._body_endoder.seq_layers.0.weight f4 [256, 1]
00000000: 964d f4be 98e7 a03e 9eff 1c3f 27a8 bbbf
00000010: cf24 c9be 316e 8c3f 6906 22bf 7b13 84be
00000020: 20a7 313f 2099 21be d165 f4bd 33ba 013f
00000030: 3d83 8f3f f944 0b3f a815 843f c224 16c0
00000040: f38b bf3f c92c 81be a194 7dbf 0589 c23d
00000050: af0c 87bf ba3d ebbe d351 6bbf 7788 96bd
00000060: 3f8c c03f 593f 14be c53b a7bf 37f2 0fbe
00000070: 0c58 06bf 80ed 2abf cb3e bbbe 6b25 5a3e
00000080: 2374 b13e 3df3 0a3f 80e5 fa3e d040 c33c
00000090: 8c9c 83be a542 043f 5d4e 853d 260b 36be
000000a0: 2a03 8cbf 6e9a 0b3f 772f f93e 39be d0bf
000000b0: 8619 2abf 4e51 b03f 2ba4 2cbf ac29 29bf
000000c0: d557 fa3f f3f9 cf3f ff30 39bf 5ec4 36bf
000000d0: b9e1 93bf 6047 093f 48d6 b1bf 5ab0 f5bf
000000e0: 42d3 973f 2b2b 9b3f ca8b db3f 519a 3640
000000f0: c115 d9be 960f acbf 20fc 943e 0b24 35bf
00000100: eb31 9cbf 9a6c c7be 89e2 f4bf e4d3 793e
00000110: a311 e43d 8322 b53f f9f1 dcbd 7623 f4bf
00000120: 5fda bd3e f0b5 373e 2f23 84bf 5fa8 6abb
00000130: 375b 983e d248 bdbf 00b0 59bf 2aa8 12c0
00000140: 78e6 23bf 68c3 0740 80f1 8a3e ad89 783f
00000150: 7363 373e a5c5 60be 8475 593f 3f2d d73d
00000160: 493a dbbd 2f0e 463f 2b29 393f d5d0 433f
00000170: 9e79 253f b003 a93f 663f 53bf 733d 753e
00000180: 76c5 233f 6d65 cc3f 988c 53bf bd4d e9be
00000190: a97f d63f c603 c03f 736f b43f 8951 fb3e
000001a0: 7c46 76bf 3ca6 7abf 14a6 313e 18ee 83be
000001b0: 598b 4abf 57d2 a2bf 5e00 6a3f ea23 7cbf
000001c0: 0c4a e23d f91d fc3f 4ec7 8dbf 54e9 763f
000001d0: 99a3 ad3e 09c1 bb3e ccff 31bd 7c1f 963d
000001e0: d06f 0640 87e0 a9bf d8f7 fbbe 4664 36bf
000001f0: 5b85 adbe 372d 933f 7596 59bf fd85 0dbe
00000200: 121a 833c b902 1d3f 772d 9abe 4e14 91bf
00000210: 495f d23d d6db 02c0 660e 98bf 522d 6dbf
00000220: 6c7b 28bf c8a1 663f 887e 483f d2d6 523f
00000230: abe4 413f efcc 5c3f 19bd 0140 e895 0b40
00000240: 3469 9bbf f932 61bf 7994 573f 0ac3 56bf
00000250: 9b24 5abf c1d5 573d 1dbe a0be 3a4b 1a40
00000260: 325f a6bf 9550 2b40 57e7 57be 9c53 fe3c
00000270: af36 8fbf 0ee6 9fbe a097 703e c801 5b3e
00000280: 4e26 35c0 cf58 a33f 61cd 383d d35f 1fbe
00000290: 9315 cabe 3122 ecbf 1c9e 1c3e 4b37 3f3e
000002a0: d586 e83f c867 0240 400f 29bf 3317 b03f
000002b0: 881c a43e 6158 c83e 159f e6be a93e b1bd
000002c0: 6d70 ec3f 7325 1f3e 76d3 69bf c9ca 16bf
000002d0: dc9b 843f 9363 673f a9d8 d23e 2dd2 e7bd
000002e0: 6f87 c23f c681 f23d 50c1 4fbe 0353 c3bf
000002f0: 4f1c a2be a428 e1bf ef74 a1bc d4b0 05be
00000300: fa03 783f c6d5 7d3e 1bd2 9b3f e0a9 84bf
00000310: 7fd8 1c3f c2a2 163e 4009 e8bf 30e6 0e3e
00000320: 915a a23e ecbb 763f d9cb d2bf 8369 63be
00000330: a1fd eebf ac3d d9bf 8d21 483f 258f bd3e
00000340: 88d8 283e cf1e 1b3f 2c45 98bf cee7 30be
00000350: 4d3b a83e 8267 9bbd 91e6 91bf fdc4 793f
00000360: fb2b 7cbf 6be3 c83d 5168 b83e 4c19 1fc0
00000370: 0909 963f d5fe 173e c05c f3bd 05ba 2dbd
00000380: 8229 2ebe 3b2f 79bd 92a5 e93f 06a4 d03f
00000390: 6446 c0be 1da4 e83b 44c5 8abf 2979 89bf
000003a0: ffd6 93bf f881 b1bf 0e06 ea3f e0b4 20c0
000003b0: e0da c7be c951 4b3f 10e7 cabf 6f74 11bf
000003c0: 858a 133f 03fb de3f 5939 3dbf 6a4c 963e
000003d0: 4e9d 1c3f 96ab 54be 1c97 b2bf 1eeb 35bf
000003e0: 7e86 c2bf 9b9e d73e 5fbe 3cbf 916e 523f
000003f0: 21c4 c0be 9746 fb3e 7b3a 6540 23f2 4d3f
-0.47715443 0.31426692 0.6132754 -1.4660691 -0.39285895 1.0971128 -0.6329103 -0.25796112
0.6939564 -0.15781069 -0.119334824 0.5067474 1.1211926 0.5440212 1.0319109 -2.3459935
1.4964584 -0.2522948 -0.99054915 0.09498791 -1.0550746 -0.4594553 -0.9192173 -0.07350247
1.50428 -0.1447729 -1.3065115 -0.14057241 -0.524781 -0.66768646 -0.36571345 0.21303336
0.34658918 0.542774 0.4900322 0.023834616 -0.25705373 0.5166419 0.06509087 -0.1777769
-1.0938466 0.54532516 0.48669025 -1.6308051 -0.66445196 1.3774812 -0.67438 -0.6607921
1.9558054 1.6248153 -0.7234039 -0.7139338 -1.155326 0.53624535 -1.3893518 -1.9194443
1.1861346 1.2122549 1.7152035 2.8531687 -0.4239941 -1.3442256 0.29098606 -0.7075812
-1.2202734 -0.38950044 -1.9131633 0.24397236 0.111361764 1.4151157 -0.1078834 -1.9073322
0.37080666 0.17940497 -1.0323237 -0.0035805923 0.2975709 -1.4787848 -0.8503418 -2.291514
-0.6402354 2.1213017 0.27137375 0.97085077 0.1790903 -0.21950395 0.8494494 0.10506677
-0.107044764 0.7736539 0.7232844 0.7649053 0.646387 1.320425 -0.82518613 0.23949222
0.63973176 1.5968453 -0.82636404 -0.45567122 1.6757709 1.5001152 1.4096512 0.49085644
-0.962013 -0.97909904 0.1734851 -0.2576759 -0.7911888 -1.2720441 0.9140681 -0.984923
0.110492796 1.9696647 -1.1076448 0.9644978 0.33913878 0.36670712 -0.043456838 0.07330224
2.1005745 -1.3271645 -0.49212527 -0.71246755 -0.33890805 1.1498173 -0.84995204 -0.13820644
0.016003642 0.6133228 -0.30112812 -1.1334321 0.102720805 -2.0446677 -1.1879394 -0.9264728
-0.65813327 0.9009061 0.7831807 0.8235904 0.75739545 0.86250204 2.0271666 2.1810246
-1.214148 -0.87968403 0.84210926 -0.83891356 -0.85212106 0.052694086 -0.31395045 2.4108415
-1.2997801 2.6767933 -0.21084343 0.031045727 -1.1188563 -0.31230205 0.2349534 0.21387398
-2.830463 1.2761477 0.04511774 -0.15563898 -0.39469585 -1.8447934 0.15294689 0.18673436
1.8166147 2.0375843 -0.66038895 1.375708 0.32053018 0.39129928 -0.45043245 -0.086545296
1.847181 0.1554163 -0.9133829 -0.58903176 1.0360065 0.90386313 0.41180924 -0.11319385
1.5197581 0.118411586 -0.20288587 -1.5259708 -0.31662223 -1.7590528 -0.019709079 -0.13055736
0.9688107 0.2478858 1.2173494 -1.0364342 0.61267847 0.14710525 -1.8127823 0.13954997
0.31709722 0.96380496 -1.6468459 -0.22208218 -1.8671151 -1.6971946 0.78176194 0.37023273
0.1648885 0.60593885 -1.189611 -0.17275926 0.32857743 -0.07588102 -1.1398488 0.97566205
-0.9850461 0.098090015 0.36017087 -2.485919 1.1721507 0.14843304 -0.11882925 -0.04241373
-0.17008021 -0.060836058 1.8253653 1.6300056 -0.37553704 0.007099642 -1.0841451 -1.07401
-1.1549987 -1.3867788 1.8283098 -2.5110397 -0.39034176 0.7942167 -1.5851765 -0.5681829
0.5763324 1.7420353 -0.7391563 0.29355174 0.6117753 -0.2076858 -1.3952365 -0.71061885
-1.5197294 0.42113194 -0.73727983 0.8219996 -0.37649634 0.49077293 3.5816944 0.80447596

network_body._body_endoder.seq_layers.0.bias f4 [256]
00000000: 0000 0000 0000 0000 0000 0000 0000 0000
00000010: 0000 0000 0000 0000 0000 0000 0000 0000
00000020: 0000 0000 0000 0000 0000 0000 0000 0000
00000030: 0000 0000 0000 0000 0000 0000 0000 0000
00000040: 0000 0000 0000 0000 0000 0000 0000 0000
00000050: 0000 0000 0000 0000 0000 0000 0000 0000
00000060: 0000 0000 0000 0000 0000 0000 0000 0000
00000070: 0000 0000 0000 0000 0000 0000 0000 0000
00000080: 0000 0000 0000 0000 0000 0000 0000 0000
00000090: 0000 0000 0000 0000 0000 0000 0000 0000
000000a0: 0000 0000 0000 0000 0000 0000 0000 0000
000000b0: 0000 0000 0000 0000 0000 0000 0000 0000
000000c0: 0000 0000 0000 0000 0000 0000 0000 0000
000000d0: 0000 0000 0000 0000 0000 0000 0000 0000
000000e0: 0000 0000 0000 0000 0000 0000 0000 0000
000000f0: 0000 0000 0000 0000 0000 0000 0000 0000
00000100: 0000 0000 0000 0000 0000 0000 0000 0000
00000110: 0000 0000 0000 0000 0000 0000 0000 0000
00000120: 0000 0000 0000 0000 0000 0000 0000 0000
00000130: 0000 0000 0000 0000 0000 0000 0000 0000
00000140: 0000 0000 0000 0000 0000 0000 0000 0000
00000150: 0000 0000 0000 0000 0000 0000 0000 0000
00000160: 0000 0000 0000 0000 0000 0000 0000 0000
00000170: 0000 0000 0000 0000 0000 0000 0000 0000
00000180: 0000 0000 0000 0000 0000 0000 0000 0000
00000190: 0000 0000 0000 0000 0000 0000 0000 0000
000001a0: 0000 0000 0000 0000 0000 0000 0000 0000
000001b0: 0000 0000 0000 0000 0000 0000 0000 0000
000001c0: 0000 0000 0000 0000 0000 0000 0000 0000
000001d0: 0000 0000 0000 0000 0000 0000 0000 0000
000001e0: 0000 0000 0000 0000 0000 0000 0000 0000
000001f0: 0000 0000 0000 0000 0000 0000 0000 0000
00000200: 0000 0000 0000 0000 0000 0000 0000 0000
00000210: 0000 0000 0000 0000 0000 0000 0000 0000
00000220: 0000 0000 0000 0000 0000 0000 0000 0000
00000230: 0000 0000 0000 0000 0000 0000 0000 0000
00000240: 0000 0000 0000 0000 0000 0000 0000 0000
00000250: 0000 0000 0000 0000 0000 0000 0000 0000
00000260: 0000 0000 0000 0000 0000 0000 0000 0000
00000270: 0000 0000 0000 0000 0000 0000 0000 0000
00000280: 0000 0000 0000 0000 0000 0000 0000 0000
00000290: 0000 0000 0000 0000 0000 0000 0000 0000
000002a0: 0000 0000 0000 0000 0000 0000 0000 0000
000002b0: 0000 0000 0000 0000 0000 0000 0000 0000
000002c0: 0000 0000 0000 0000 0000 0000 0000 0000
000002d0: 0000 0000 0000 0000 0000 0000 0000 0000
000002e0: 0000 0000 0000 0000 0000 0000 0000 0000
000002f0: 0000 0000 0000 0000 0000 0000 0000 0000
00000300: 0000 0000 0000 0000 0000 0000 0000 0000
00000310: 0000 0000 0000 0000 0000 0000 0000 0000
00000320: 0000 0000 0000 0000 0000 0000 0000 0000
00000330: 0000 0000 0000 0000 0000 0000 0000 0000
00000340: 0000 0000 0000 0000 0000 0000 0000 0000
00000350: 0000 0000 0000 0000 0000 0000 0000 0000
00000360: 0000 0000 0000 0000 0000 0000 0000 0000
00000370: 0000 0000 0000 0000 0000 0000 0000 0000
00000380: 0000 0000 0000 0000 0000 0000 0000 0000
00000390: 0000 0000 0000 0000 0000 0000 0000 0000
000003a0: 0000 0000 0000 0000 0000 0000 0000 0000
000003b0: 0000 0000 0000 0000 0000 0000 0000 0000
000003c0: 0000 0000 0000 0000 0000 0000 0000 0000
000003d0: 0000 0000 0000 0000 0000 0000 0000 0000
000003e0: 0000 0000 0000 0000 0000 0000 0000 0000
000003f0: 0000 0000 0000 0000 0000 0000 0000 0000
0.0 0.0 0.0 0.0 0.0 0.0 0.0 0.0
0.0 0.0 0.0 0.0 0.0 0.0 0.0 0.0
0.0 0.0 0.0 0.0 0.0 0.0 0.0 0.0
0.0 0.0 0.0 0.0 0.0 0.0 0.0 0.0
0.0 0.0 0.0 0.0 0.0 0.0 0.0 0.0
0.0 0.0 0.0 0.0 0.0 0.0 0.0 0.0
0.0 0.0 0.0 0.0 0.0 0.0 0.0 0.0
0.0 0.0 0.0 0.0 0.0 0.0 0.0 0.0
0.0 0.0 0.0 0.0 0.0 0.0 0.0 0.0
0.0 0.0 0.0 0.0 0.0 0.0 0.0 0.0
0.0 0.0 0.0 0.0 0.0 0.0 0.0 0.0
0.0 0.0 0.0 0.0 0.0 0.0 0.0 0.0
0.0 0.0 0.0 0.0 0.0 0.0 0.0 0.0
0.0 0.0 0.0 0.0 0.0 0.0 0.0 0.0
0.0 0.0 0.0 0.0 0.0 0.0 0.0 0.0
0.0 0.0 0.0 0.0 0.0 0.0 0.0 0.0
0.0 0.0 0.0 0.0 0.0 0.0 0.0 0.0
0.0 0.0 0.0 0.0 0.0 0.0 0.0 0.0
0.0 0.0 0.0 0.0 0.0 0.0 0.0 0.0
0.0 0.0 0.0 0.0 0.0 0.0 0.0 0.0
0.0 0.0 0.0 0.0 0.0 0.0 0.0 0.0
0.0 0.0 0.0 0.0 0.0 0.0 0.0 0.0
0.0 0.0 0.0 0.0 0.0 0.0 0.0 0.0
0.0 0.0 0.0 0.0 0.0 0.0 0.0 0.0
0.0 0.0 0.0 0.0 0.0 0.0 0.0 0.0
0.0 0.0 0.0 0.0 0.0 0.0 0.0 0.0
0.0 0.0 0.0 0.0 0.0 0.0 0.0 0.0
0.0 0.0 0.0 0.0 0.0 0.0 0.0 0.0
0.0 0.0 0.0 0.0 0.0 0.0 0.0 0.0
0.0 0.0 0.0 0.0 0.0 0.0 0.0 0.0
0.0 0.0 0.0 0.0 0.0 0.0 0.0 0.0
0.0 0.0 0.0 0.0 0.0 0.0 0.0 0.0

network_body._body_endoder.seq_layers.2.weight f4 [256, 256]
00000000: d628 c03c 22d9 603c 3263 243e 0bfe 163e
00000010: 008c a93d 02fc af3d 12d6 fe3b a6ea 053c
00000020: 0b3e a63d 1d5c 68bd aa1d 08be 1c64 d93c
00000030: 465e e7bd 8539 b13c 3b21 e33d d0e5 adbd
00000040: 53da 9c3d 355c f13c 3e53 c7bd 6673 3abd
00000050: 70f7 c7bd 8bd9 a839 75b2 e73d 1a72 4fbc
00000060: 2108 f3bb e576 adbd b385 353d 0cf5 4dbd
00000070: 78d2 8abc 458e 2cbd 4cbc c53d 6be2 1cbd
00000080: 0e9b 1d3b 299e 90bd f6d0 b73b 01b5 0b3e
00000090: e1d3 93bd eef9 953b abad d8bb 5168 1ebc
000000a0: 1ae7 56bd 1760 bebd b0a4 873d 8b02 60bd
000000b0: b825 05bd 2272 21bc 254f 81bc 3201 d73c
000000c0: b10c d83d d658 7d3d 4c84 093e df90 96bd
000000d0: b3a5 d2bc 7115 2ebd ba0c 26bd 9dad 253c
000000e0: ccb4 4f3d 83d2 fabc 0d78 f5bc f647 91bc
000000f0: 960c ed3c 69ae 08be d399 493d 1472 29bd
00000100: 07fe 1a3e d01c e43c e5d5 853d 12fe c0bc
00000110: 0e4a 803c 6132 e4bd 897a 933d 8e9e be3c
00000120: 9497 12bc bbb1 d83d b5c7 6f3d 0bfe 313c
00000130: dfe7 29bd 5735 cc3d 49c4 b13c 5b08 253e
00000140: 8616 6b3d 3cb5 22bc d923 c4bb 3c80 e83d
00000150: 0b76 28bd 75c7 f2bc ff04 eabc 13dd 15bc
00000160: 7be0 3e3d 5066 8d3c 1ff2 4bbd a1df 8bbc
00000170: 7c0d 1abc 157f b53b e997 153c aa21 4cbd
00000180: 7a3f bb3c a0c4 bfbc 1e16 963d 688e 4a3b
00000190: 6519 873d 408f 0bbd bb42 0bbd cfdc d63c
000001a0: a18f a63d 0ae6 1abd 6eea 1e3d 834c babd
000001b0: baea 9bbc 3d17 17bd 7557 bdbb 6641 04bd
000001c0: 7e32 88bd 5785 1e3c 2cbc 553c 901f b83c
000001d0: 0250 4c3d 3a59 00bd 2218 8c3d feb3 79bd
000001e0: 52bf 673d 6057 7cbc 7b2a 1abd 735c 7bbd
000001f0: 7e87 303d 262a a23c 1e3b 76bd 6240 83bd
00000200: 6d47 ac3c e28a cbbc 2f52 86bd 7feb 2bbd
00000210: ed84 d2bc 25a2 60bd 6fa6 813c bd59 a63d
00000220: 3389 2c3d caf9 7d3d fda4 993d 5423 903d
00000230: 9ec5 5d3d 064d fd3d a377 e9bb 303c dd3c
00000240: f10e a43d 1df2 3dbd 3b82 58bc 16bb 303d
00000250: 4319 953c 1533 863d 61cc a13d dbd5 0dbc
00000260: 1b57 77bd c199 8bbd e785 cabc a3af 67bd
00000270: 3f8b 2ebe 549b b33c 7931 29bd fbf0 c63d
00000280: 7bad 94bc 6930 fd3c 3961 483d 779f 5abd
00000290: cd5a 8c3d 0f16 c6bb 30c9 41bd 678a a53d
000002a0: be1b 063c 3098 4d3d fcad 56bd 61e8 30bb
000002b0: 7281 e53c 22b2 72bd 6daf 713d 8455 fe3d
000002c0: 9d21 763d 0c36 143d 8cb7 243d 6329 65bd
000002d0: 9770 fc3c 3dab e7bd 3f48 a3bd 1f57 bf3a
000002e0: ff20 d53c 3616 4bbd 2124 04bd 6b3a d33c
000002f0: 9e50 f7bd 5269 af3c 74b2 c23d a2d1 dcbb
00000300: 5521 c8bc b0b4 a23d 229f a43d de0d 54bd
00000310: 2450 60bd bdde 4cbd 7dda debc 8efd 18bd
00000320: 1bc9 793b 11b4 40bd 316f 813d 5018 c2bd
00000330: 6f94 a8bd cf02 813d e662 b3ba 26d4 98bd
00000340: 13af 80bd 2486 a8bd 2329 8ebd 25f2 c73b
00000350: 6246 10be f28f a13d 8f1d 1cbe 40e4 b1bc
00000360: 5c02 e93d 2ef5 b639 bb45 14bd 05d5 463d
00000370: ea84 34bd ba2e c63c 7da9 28bd f9e4 6ebd
00000380: 1b87 a13c 77e2 aa3d fe18 03bd 83a7 98bd
00000390: e128 183b 3762 c43d 7a6f 983d ef2c 00bd
000003a0: d41f 633d 3b23 a33b db4b 0bbd 9a6c a23b
000003b0: d3a1 e03c ba7e 9d3c 1799 4abc a6f9 68bd
000003c0: 6d61 8f3d 326f 503c 910d 22ba d88e 8f3d
000003d0: d43e 3d3c 74e9 02bd cc2a 9bbd bbb3 7d3d
000003e0: d50f 8dbd d64c edbd 45ba f23c 9791 db3b
000003f0: 3a9f b5bd 4350 d6bd 2b62 0a3c 49c7 ce3d
0.023456972 0.0137236435 0.16053465 0.14745347 0.08278656 0.085929886 0.007776984 0.00817362
0.081173025 -0.05672847 -0.13292566 0.026536994 -0.11297278 0.021633873 0.110903226 -0.08491099
0.076588295 0.029462913 -0.09732674 -0.04552021 -0.09763992 0.0003220554 0.11313335 -0.012661481
-0.0074167405 -0.08469943 0.04431696 -0.050282523 -0.016946062 -0.042127866 0.096550554 -0.038301867
0.0024048719 -0.07061417 0.005609627 0.13643266 -0.07218147 0.004576913 -0.0066124997 -0.009668426
-0.05246649 -0.092956714 0.066232085 -0.054689925 -0.032506675 -0.009853872 -0.01578481 0.026245687
0.10549296 0.0618523 0.13429374 -0.07351851 -0.025713777 -0.042500917 -0.04053948 0.010112193
0.05070953 -0.030617958 -0.029964471 -0.017734509 0.028936666 -0.13347782 0.049218964 -0.04136856
0.15135966 0.02784577 0.06534938 -0.02355865 0.015660312 -0.111424215 0.07201106 0.023268964
-0.008947272 0.105807744 0.058540065 0.010863791 -0.041480895 0.09971111 0.021700041 0.16116469
0.057394527 -0.009930905 -0.0059857187 0.11352584 -0.0411282 -0.029636124 -0.028566835 -0.0091469465
0.0466008 0.0172607 -0.04979145 -0.017074408 -0.009402629 0.005538831 0.0091304565 -0.049836792
0.022857416 -0.023409188 0.07328437 0.0030907635 0.065966405 -0.03407216 -0.033999186 0.026228337
0.08132864 -0.03781704 0.03879779 -0.09096625 -0.019032825 -0.036887396 -0.005778248 -0.03228893
-0.066502556 0.009675345 0.013045352 0.022475988 0.04988099 -0.031335093 0.068405405 -0.06096267
0.05657894 -0.015401691 -0.03763817 -0.061367463 0.043097965 0.019795489 -0.060114972 -0.064087644
0.021030152 -0.024846498 -0.06558644 -0.041972633 -0.02569815 -0.054842133 0.015826432 0.08122585
0.04212303 0.062005796 0.07502172 0.07037988 0.05414354 0.12368207 -0.0071248575 0.027006239
0.08010662 -0.046373475 -0.013214643 0.04314717 0.018200522 0.06552712 0.0790031 -0.008656944
-0.060385805 -0.068164356 -0.024722053 -0.056563985 -0.17045306 0.021924652 -0.041306946 0.09713932
-0.018149128 0.030906873 0.048920844 -0.053374734 0.068532564 -0.00604511 -0.047311008 0.08083039
0.008185325 0.050193965 -0.05241202 -0.0026993977 0.028015826 -0.059251912 0.05900519 0.124186546
0.06009065 0.036184356 0.040214106 -0.055947673 0.030815406 -0.11311958 -0.07972764 0.0014598108
0.02601671 -0.04958173 -0.032261018 0.025784692 -0.120759234 0.021412525 0.095066935 -0.0067388574
-0.024429956 0.0794462 0.08038165 -0.051771037 -0.054763928 -0.050017107 -0.027203793 -0.037351184
0.0038114253 -0.047046725 0.06320036 -0.094772935 -0.082314365 0.06299364 -0.001368609 -0.07462339
-0.06283393 -0.0822871 -0.0694144 0.006101864 -0.14089349 0.078887835 -0.1524565 -0.021715283
0.11377403 0.00034896418 -0.036199313 0.048542995 -0.04407207 0.024192203 -0.04117726 -0.058323834
0.019717744 0.08343976 -0.032006256 -0.07453825 0.0023217725 0.095890455 0.074431375 -0.031292852
0.055450276 0.004978565 -0.03400789 0.004956794 0.027420914 0.019225467 -0.012365601 -0.05687871
0.07001004 0.0127218235 -0.0006181831 0.07009667 0.011550624 -0.03196092 -0.07576522 0.061938982
-0.06887785 -0.11586921 0.029629836 0.0067007053 -0.08868261 -0.104645275 0.008446257 0.100966044

network_body._body_endoder.seq_layers.2.bias f4 [256]
00000000: 0000 0000 0000 0000 0000 0000 0000 0000
00000010: 0000 0000 0000 0000 0000 0000 0000 0000
00000020: 0000 0000 0000 0000 0000 0000 0000 0000
00000030: 0000 0000 0000 0000 0000 0000 0000 0000
00000040: 0000 0000 0000 0000 0000 0000 0000 0000
00000050: 0000 0000 0000 0000 0000 0000 0000 0000
00000060: 0000 0000 0000 0000 0000 0000 0000 0000
00000070: 0000 0000 0000 0000 0000 0000 0000 0000
00000080: 0000 0000 0000 0000 0000 0000 0000 0000
00000090: 0000 0000 0000 0000 0000 0000 0000 0000
000000a0: 0000 0000 0000 0000 0000 0000 0000 0000
000000b0: 0000 0000 0000 0000 0000 0000 0000 0000
000000c0: 0000 0000 0000 0000 0000 0000 0000 0000
000000d0: 0000 0000 0000 0000 0000 0000 0000 0000
000000e0: 0000 0000 0000 0000 0000 0000 0000 0000
000000f0: 0000 0000 0000 0000 0000 0000 0000 0000
00000100: 0000 0000 0000 0000 0000 0000 0000 0000
00000110: 0000 0000 0000 0000 0000 0000 0000 0000
00000120: 0000 0000 0000 0000 0000 0000 0000 0000
00000130: 0000 0000 0000 0000 0000 0000 0000 0000
00000140: 0000 0000 0000 0000 0000 0000 0000 0000
00000150: 0000 0000 0000 0000 0000 0000 0000 0000
00000160: 0000 0000 0000 0000 0000 0000 0000 0000
00000170: 0000 0000 0000 0000 0000 0000 0000 0000
00000180: 0000 0000 0000 0000 0000 0000 0000 0000
00000190: 0000 0000 0000 0000 0000 0000 0000 0000
000001a0: 0000 0000 0000 0000 0000 0000 0000 0000
000001b0: 0000 0000 0000 0000 0000 0000 0000 0000
000001c0: 0000 0000 0000 0000 0000 0000 0000 0000
000001d0: 0000 0000 0000 0000 0000 0000 0000 0000
000001e0: 0000 0000 0000 0000 0000 0000 0000 0000
000001f0: 0000 0000 0000 0000 0000 0000 0000 0000
00000200: 0000 0000 0000 0000 0000 0000 0000 0000
00000210: 0000 0000 0000 0000 0000 0000 0000 0000
00000220: 0000 0000 0000 0000 0000 0000 0000 0000
00000230: 0000 0000 0000 0000 0000 0000 0000 0000
00000240: 0000 0000 0000 0000 0000 0000 0000 0000
00000250: 0000 0000 0000 0000 0000 0000 0000 0000
00000260: 0000 0000 0000 0000 0000 0000 0000 0000
00000270: 0000 0000 0000 0000 0000 0000 0000 0000
00000280: 0000 0000 0000 0000 0000 0000 0000 0000
00000290: 0000 0000 0000 0000 0000 0000 0000 0000
000002a0: 0000 0000 0000 0000 0000 0000 0000 0000
000002b0: 0000 0000 0000 0000 0000 0000 0000 0000
000002c0: 0000 0000 0000 0000 0000 0000 0000 0000
000002d0: 0000 0000 0000 0000 0000 0000 0000 0000
000002e0: 0000 0000 0000 0000 0000 0000 0000 0000
000002f0: 0000 0000 0000 0000 0000 0000 0000 0000
00000300: 0000 0000 0000 0000 0000 0000 0000 0000
00000310: 0000 0000 0000 0000 0000 0000 0000 0000
00000320: 0000 0000 0000 0000 0000 0000 0000 0000
00000330: 0000 0000 0000 0000 0000 0000 0000 0000
00000340: 0000 0000 0000 0000 0000 0000 0000 0000
00000350: 0000 0000 0000 0000 0000 0000 0000 0000
00000360: 0000 0000 0000 0000 0000 0000 0000 0000
00000370: 0000 0000 0000 0000 0000 0000 0000 0000
00000380: 0000 0000 0000 0000 0000 0000 0000 0000
00000390: 0000 0000 0000 0000 0000 0000 0000 0000
000003a0: 0000 0000 0000 0000 0000 0000 0000 0000
000003b0: 0000 0000 0000 0000 0000 0000 0000 0000
000003c0: 0000 0000 0000 0000 0000 0000 0000 0000
000003d0: 0000 0000 0000 0000 0000 0000 0000 0000
000003e0: 0000 0000 0000 0000 0000 0000 0000 0000
000003f0: 0000 0000 0000 0000 0000 0000 0000 0000
0.0 0.0 0.0 0.0 0.0 0.0 0.0 0.0
0.0 0.0 0.0 0.0 0.0 0.0 0.0 0.0
0.0 0.0 0.0 0.0 0.0 0.0 0.0 0.0
0.0 0.0 0.0 0.0 0.0 0.0 0.0 0.0
0.0 0.0 0.0 0.0 0.0 0.0 0.0 0.0
0.0 0.0 0.0 0.0 0.0 0.0 0.0 0.0
0.0 0.0 0.0 0.0 0.0 0.0 0.0 0.0
0.0 0.0 0.0 0.0 0.0 0.0 0.0 0.0
0.0 0.0 0.0 0.0 0.0 0.0 0.0 0.0
0.0 0.0 0.0 0.0 0.0 0.0 0.0 0.0
0.0 0.0 0.0 0.0 0.0 0.0 0.0 0.0
0.0 0.0 0.0 0.0 0.0 0.0 0.0 0.0
0.0 0.0 0.0 0.0 0.0 0.0 0.0 0.0
0.0 0.0 0.0 0.0 0.0 0.0 0.0 0.0
0.0 0.0 0.0 0.0 0.0 0.0 0.0 0.0
0.0 0.0 0.0 0.0 0.0 0.0 0.0 0.0
0.0 0.0 0.0 0.0 0.0 0.0 0.0 0.0
0.0 0.0 0.0 0.0 0.0 0.0 0.0 0.0
0.0 0.0 0.0 0.0 0.0 0.0 0.0 0.0
0.0 0.0 0.0 0.0 0.0 0.0 0.0 0.0
0.0 0.0 0.0 0.0 0.0 0.0 0.0 0.0
0.0 0.0 0.0 0.0 0.0 0.0 0.0 0.0
0.0 0.0 0.0 0.0 0.0 0.0 0.0 0.0
0.0 0.0 0.0 0.0 0.0 0.0 0.0 0.0
0.0 0.0 0.0 0.0 0.0 0.0 0.0 0.0
0.0 0.0 0.0 0.0 0.0 0.0 0.0 0.0
0.0 0.0 0.0 0.0 0.0 0.0 0.0 0.0
0.0 0.0 0.0 0.0 0.0 0.0 0.0 0.0
0.0 0.0 0.0 0.0 0.0 0.0 0.0 0.0
0.0 0.0 0.0 0.0 0.0 0.0 0.0 0.0
0.0 0.0 0.0 0.0 0.0 0.0 0.0 0.0
0.0 0.0 0.0 0.0 0.0 0.0 0.0 0.0
