UnityEnv/results/drone_goal_005/DroneAgent/DroneAgent-3900.onnx (onnx, 272677 bytes, 6 tensors)

network_body._body_endoder.seq_layers.0.weight f4 [256, 1]
000000 a3 29 af 3f 68 bf 59 3f 94 e6 0f 3e 88 0a 9f 3f
       1.3684582 0.8505769 0.14052802 1.2425089
000010 72 58 24 40 78 a1 96 bf b2 51 14 3f 4c 89 65 3f
       2.5678983 -1.1768026 0.5793716 0.89662623
000020 c9 24 8b bf 0e c1 22 3f 28 2d 17 3e 1d 30 14 bf
       -1.0870601 0.6357583 0.1476332 -0.57885915
000030 f5 1c 71 bd a7 ae 97 3e 48 1e 1d 40 f8 de 39 3d
       -0.058865506 0.29625437 2.4549732 0.045378655
000040 e1 f6 3a bf 8e 99 9d bc ba 0d 28 3f fe b6 f4 3f
       -0.7303296 -0.01923826 0.65645945 1.9118345
000050 03 f1 fe 3d b8 9f 86 3e ce be 18 bc 92 37 8a bf
       0.12448313 0.2629373 -0.009322835 -1.0798209
000060 2d 97 87 be be 54 85 be a8 13 8a bb 1b bf d9 3d
       -0.26482525 -0.26041216 -0.004213769 0.106321536
000070 1a 0c 9c 3c a9 fd 9e 3f 32 4b bb 3f 77 19 b5 3f
       0.01904874 1.2421161 1.4632323 1.4148396
000080 8f 05 f1 3e a6 2a a3 3f f7 6b 1c 40 7e 0b 30 be
       0.47074553 1.274739 2.4440897 -0.17191884
000090 26 cb ec bf 34 33 bf 3f bd 61 6a be 31 af 3b bf
       -1.8499496 1.4937501 -0.22888847 -0.73314196
0000a0 68 29 eb bd c5 97 22 bf d1 00 a5 bf e6 68 ae bf
       -0.11482507 -0.6351283 -1.2890874 -1.3625762
0000b0 61 1c 12 3e ca 00 42 be cf 3c 0f 3e 35 f4 04 3f
       0.14268638 -0.18945614 0.1398804 0.5193513
0000c0 c5 3b da bf 45 26 fb bd f3 93 5e bf c2 81 aa bf
       -1.704949 -0.12263159 -0.869445 -1.3320849
0000d0 67 8b 1b 3e bb 23 b4 3f be 8d 92 3e 94 79 52 bf
       0.15189897 1.4073404 0.28623766 -0.82216763
0000e0 32 44 82 bf 30 41 ef 3e 0c 34 d2 bf 56 d3 c5 3f
       -1.0177062 0.46729422 -1.6422133 1.545512
0000f0 d9 a7 fa be 1f 26 33 3f 11 0a 3e 3f b0 4e cb 3e
       -0.48956183 0.69980043 0.7423411 0.3970847
000100 6e c3 96 bf 4d ea 5d bd 46 84 09 3f c9 d0 39 3e
       -1.177839 -0.054178525 0.5371746 0.18146051
000110 91 e1 4f be 8c 90 f5 be 8f 14 be be 81 24 f8 3f
       -0.2030089 -0.47961843 -0.3712506 1.938614
000120 7b 8c 1d 40 a4 8d 2f bf be 87 8b 3f e4 58 63 3f
       2.4616992 -0.685755 1.09008 0.8880751
000130 3b d2 62 3f 9b 57 13 3f 8b be 2e 3d b3 a8 6b bc
       0.88602036 0.5755555 0.042662185 -0.014383483
000140 53 97 d6 bf de ce a3 be 3f a1 3d 3f b2 ad e6 bf
       -1.676493 -0.31993765 0.74074167 -1.8021758
000150 53 2d 94 3e ab 91 be be b1 03 d4 bf 81 23 ea bf
       0.2894083 -0.3722051 -1.6563627 -1.8292085
000160 2e be e9 bf 55 bb 40 3f 15 c0 b3 3e af 60 0d 40
       -1.8261163 0.75285846 0.35107484 2.209026
000170 fa 8f a0 bf 41 1f 83 3f 34 71 89 3e 2c b4 f6 be
       -1.2543938 1.0243913 0.2684418 -0.48184335
000180 7f fb b3 3e 76 ac 46 3f 3b 53 ad 3f 56 f4 7d 3f
       0.35152814 0.77606905 1.3541025 0.9920095
000190 26 3f 62 3f 47 9f 9a 3e 75 44 2c be 96 a2 e2 3e
       0.88377607 0.30199644 -0.1682299 0.44264668
0001a0 44 91 47 3f 5e fc 06 3e 66 87 61 be 5a a3 60 bd
       0.7795603 0.13182208 -0.22024307 -0.054843284
0001b0 b2 83 04 c0 4c 76 99 bf 19 5d 18 bf 66 86 80 bd
       -2.070538 -1.1989226 -0.59517056 -0.062756345
0001c0 77 e3 77 bf bb 74 90 bf ed 7a e6 be e3 dd 2b 3f
       -0.9683146 -1.1285623 -0.4501566 0.6713545
0001d0 ad 39 8f 3f 16 f7 5f bf 95 35 33 bf b8 6f 79 3f
       1.1189476 -0.874864 -0.70003635 0.97436094
0001e0 8b 46 fe be d5 30 0a bf d2 2d c1 3c 67 2c 89 3f
       -0.49663195 -0.5398076 0.02358142 1.0716676
0001f0 8f f1 3d 3f 20 d6 a9 be c2 46 07 bf a5 6f b1 bd
       0.74196714 -0.33171177 -0.5284234 -0.08663873
000200 03 87 0d bf 59 e5 a6 3f 08 ed 40 3f c4 22 bb 3e
       -0.55284137 1.3038741 0.7536168 0.36549962
000210 30 2f c6 3f 94 7b d3 3f c2 5f 94 be 88 f9 47 3e
       1.548315 1.6522088 -0.28979307 0.19528782
000220 c4 7e a7 3f 23 04 26 bd 28 54 cc 3e 23 55 19 be
       1.3085561 -0.04053129 0.39907956 -0.14973883
000230 92 04 01 bf 23 e6 8e bf f7 37 e8 be 2b 1f a7 be
       -0.503976 -1.1163982 -0.45355198 -0.32640967
000240 75 10 1e bd eb 52 67 3f 6d c2 2e bf bf 5a 83 bd
       -0.038589913 0.903609 -0.6826542 -0.06413793
000250 9d 14 59 bf ff 50 08 be fc 92 2f bf 4d 1d 99 3d
       -0.8479708 -0.13312148 -0.68583655 0.07476292
000260 4f a6 24 bf 0d 70 81 3f 7b 79 99 3d e2 e0 23 bf
       -0.64316267 1.011232 0.07493874 -0.6401502
000270 50 46 57 bd 8f 82 3e 3e 8c 50 b1 bf 13 96 b2 3f
       -0.05255729 0.18604492 -1.3852706 1.3952049
000280 c7 42 a4 be e3 2f 89 be eb a7 0a be 1d ba 54 3f
       -0.32082197 -0.26794347 -0.13540618 0.83096486
000290 e0 2c 78 bd 7d 04 ca bf 79 9e 8a bf 62 66 7b 3f
       -0.06058967 -1.578262 -1.0829612 0.982031
0002a0 55 d6 e3 be 7b 31 c2 3f 8e 75 0b c0 14 8d 16 bf
       -0.4449946 1.517135 -2.17905 -0.5880902
0002b0 3a 10 a5 be 58 53 43 bf c4 8b b6 be da 55 d0 3f
       -0.32238942 -0.7629905 -0.35653508 1.62762
0002c0 41 fe ca 3d af fe 2c bf ca 9f 7a bf 2c 04 0e bf
       0.09911776 -0.67576116 -0.9790007 -0.55475116
0002d0 f9 82 0b 3f c2 ed f0 3f ea 8e 1c 3f 81 a8 d9 be
       0.54496723 1.8822558 0.6115557 -0.4251137
0002e0 c2 7f 07 c0 f6 15 40 be 55 64 a2 be 3f e2 4e be
       -2.1171727 -0.18758377 -0.31717172 -0.20203494
0002f0 60 9d 77 3e 57 9e 03 c0 a1 09 96 3e 25 5d 98 3f
       0.24181128 -2.0565393 0.2930422 1.1903425
000300 32 2e cd be 67 ab 38 3f e5 22 26 bf 7b c5 df 3e
       -0.40074307 0.7213654 -0.64896995 0.43705353
000310 60 6b 37 bf 5e 30 e5 bc 13 e8 10 40 ae c7 0e c0
       -0.71648216 -0.027977165 2.2641647 -2.2309375
000320 e1 b5 f3 bf 22 3f b7 be 60 64 ca 3e ea a3 ee be
       -1.903988 -0.35790354 0.39529705 -0.46609432
000330 f8 96 b7 3c 4f cb ec be 7b a9 c7 be 68 c8 fb bf
       0.022410855 -0.46248862 -0.3899649 -1.9670534
000340 5d 8e bb be a9 2a 19 c0 19 0a b6 3e 7a 8e 08 c0
       -0.36632052 -2.3932288 0.3555458 -2.133696
000350 de 1e 38 bf 90 3a e3 be 1c 70 3b be c5 11 af 3e
       -0.719221 -0.44380617 -0.18304485 0.34193245
000360 0f e7 19 40 03 26 a2 bd 90 3d 47 bd 89 ce 5d bf
       2.4047277 -0.079174064 -0.048642695 -0.8664327
000370 26 ef a8 bf d7 70 ad be 5d 8b 2d be f9 92 15 3f
       -1.3197982 -0.33875152 -0.16947694 0.5842739
000380 2e 6a 83 3f c7 bc b1 3d 6a 62 f0 be b5 0b 12 c0
       1.0266778 0.086785845 -0.46950084 -2.2819645
000390 c7 67 d5 3e 1c b2 38 3f b8 cc 65 bf 66 5d ee be
       0.41680738 0.72146773 -0.897655 -0.46555632
0003a0 d2 a9 a1 bf 49 f3 9c be d5 c3 bb bf cb 58 59 bf
       -1.262995 -0.30654362 -1.4669138 -0.8490111
0003b0 35 07 17 40 4e a6 9f be d3 1a 22 3f e8 c6 05 40
       2.359815 -0.31181568 0.6332218 2.0902653
0003c0 5d d5 af bf d3 0b 9e bf b8 80 3b 3f 31 43 7c bd
       -1.3736988 -1.2347358 0.73243284 -0.061587516
0003d0 0e 5e 60 3f fe 8e 26 3f 0a c0 18 3e 3d 5f b6 be
       0.87643516 0.6506194 0.14917007 -0.35619536
0003e0 02 f6 0e 3f 2a 8d 96 bf 21 47 5e bf 20 f1 50 bf
       0.5584413 -1.176183 -0.86827284 -0.8161793
0003f0 ef d8 25 40 8b 98 1d 3c ed b0 fa 3e 8a 30 4c bf
       2.5913656 0.009618889 0.4896311 -0.79761565

network_body._body_endoder.seq_layers.0.bias f4 [256]
000000 00 00 00 00 00 00 00 00 00 00 00 00 00 00 00 00
       0.0 0.0 0.0 0.0
000010 00 00 00 00 00 00 00 00 00 00 00 00 00 00 00 00
       0.0 0.0 0.0 0.0
000020 00 00 00 00 00 00 00 00 00 00 00 00 00 00 00 00
       0.0 0.0 0.0 0.0
000030 00 00 00 00 00 00 00 00 00 00 00 00 00 00 00 00
       0.0 0.0 0.0 0.0
000040 00 00 00 00 00 00 00 00 00 00 00 00 00 00 00 00
       0.0 0.0 0.0 0.0
000050 00 00 00 00 00 00 00 00 00 00 00 00 00 00 00 00
       0.0 0.0 0.0 0.0
000060 00 00 00 00 00 00 00 00 00 00 00 00 00 00 00 00
       0.0 0.0 0.0 0.0
000070 00 00 00 00 00 00 00 00 00 00 00 00 00 00 00 00
       0.0 0.0 0.0 0.0
000080 00 00 00 00 00 00 00 00 00 00 00 00 00 00 00 00
       0.0 0.0 0.0 0.0
000090 00 00 00 00 00 00 00 00 00 00 00 00 00 00 00 00
       0.0 0.0 0.0 0.0
0000a0 00 00 00 00 00 00 00 00 00 00 00 00 00 00 00 00
       0.0 0.0 0.0 0.0
0000b0 00 00 00 00 00 00 00 00 00 00 00 00 00 00 00 00
       0.0 0.0 0.0 0.0
0000c0 00 00 00 00 00 00 00 00 00 00 00 00 00 00 00 00
       0.0 0.0 0.0 0.0
0000d0 00 00 00 00 00 00 00 00 00 00 00 00 00 00 00 00
       0.0 0.0 0.0 0.0
0000e0 00 00 00 00 00 00 00 00 00 00 00 00 00 00 00 00
       0.0 0.0 0.0 0.0
0000f0 00 00 00 00 00 00 00 00 00 00 00 00 00 00 00 00
       0.0 0.0 0.0 0.0
000100 00 00 00 00 00 00 00 00 00 00 00 00 00 00 00 00
       0.0 0.0 0.0 0.0
000110 00 00 00 00 00 00 00 00 00 00 00 00 00 00 00 00
       0.0 0.0 0.0 0.0
000120 00 00 00 00 00 00 00 00 00 00 00 00 00 00 00 00
       0.0 0.0 0.0 0.0
000130 00 00 00 00 00 00 00 00 00 00 00 00 00 00 00 00
       0.0 0.0 0.0 0.0
000140 00 00 00 00 00 00 00 00 00 00 00 00 00 00 00 00
       0.0 0.0 0.0 0.0
000150 00 00 00 00 00 00 00 00 00 00 00 00 00 00 00 00
       0.0 0.0 0.0 0.0
000160 00 00 00 00 00 00 00 00 00 00 00 00 00 00 00 00
       0.0 0.0 0.0 0.0
000170 00 00 00 00 00 00 00 00 00 00 00 00 00 00 00 00
       0.0 0.0 0.0 0.0
000180 00 00 00 00 00 00 00 00 00 00 00 00 00 00 00 00
       0.0 0.0 0.0 0.0
000190 00 00 00 00 00 00 00 00 00 00 00 00 00 00 00 00
       0.0 0.0 0.0 0.0
0001a0 00 00 00 00 00 00 00 00 00 00 00 00 00 00 00 00
       0.0 0.0 0.0 0.0
0001b0 00 00 00 00 00 00 00 00 00 00 00 00 00 00 00 00
       0.0 0.0 0.0 0.0
0001c0 00 00 00 00 00 00 00 00 00 00 00 00 00 00 00 00
       0.0 0.0 0.0 0.0
0001d0 00 00 00 00 00 00 00 00 00 00 00 00 00 00 00 00
       0.0 0.0 0.0 0.0
0001e0 00 00 00 00 00 00 00 00 00 00 00 00 00 00 00 00
       0.0 0.0 0.0 0.0
0001f0 00 00 00 00 00 00 00 00 00 00 00 00 00 00 00 00
       0.0 0.0 0.0 0.0
000200 00 00 00 00 00 00 00 00 00 00 00 00 00 00 00 00
       0.0 0.0 0.0 0.0
000210 00 00 00 00 00 00 00 00 00 00 00 00 00 00 00 00
       0.0 0.0 0.0 0.0
000220 00 00 00 00 00 00 00 00 00 00 00 00 00 00 00 00
       0.0 0.0 0.0 0.0
000230 00 00 00 00 00 00 00 00 00 00 00 00 00 00 00 00
       0.0 0.0 0.0 0.0
000240 00 00 00 00 00 00 00 00 00 00 00 00 00 00 00 00
       0.0 0.0 0.0 0.0
000250 00 00 00 00 00 00 00 00 00 00 00 00 00 00 00 00
       0.0 0.0 0.0 0.0
000260 00 00 00 00 00 00 00 00 00 00 00 00 00 00 00 00
       0.0 0.0 0.0 0.0
000270 00 00 00 00 00 00 00 00 00 00 00 00 00 00 00 00
       0.0 0.0 0.0 0.0
000280 00 00 00 00 00 00 00 00 00 00 00 00 00 00 00 00
       0.0 0.0 0.0 0.0
000290 00 00 00 00 00 00 00 00 00 00 00 00 00 00 00 00
       0.0 0.0 0.0 0.0
0002a0 00 00 00 00 00 00 00 00 00 00 00 00 00 00 00 00
       0.0 0.0 0.0 0.0
0002b0 00 00 00 00 00 00 00 00 00 00 00 00 00 00 00 00
       0.0 0.0 0.0 0.0
0002c0 00 00 00 00 00 00 00 00 00 00 00 00 00 00 00 00
       0.0 0.0 0.0 0.0
0002d0 00 00 00 00 00 00 00 00 00 00 00 00 00 00 00 00
       0.0 0.0 0.0 0.0
0002e0 00 00 00 00 00 00 00 00 00 00 00 00 00 00 00 00
       0.0 0.0 0.0 0.0
0002f0 00 00 00 00 00 00 00 00 00 00 00 00 00 00 00 00
       0.0 0.0 0.0 0.0
000300 00 00 00 00 00 00 00 00 00 00 00 00 00 00 00 00
       0.0 0.0 0.0 0.0
000310 00 00 00 00 00 00 00 00 00 00 00 00 00 00 00 00
       0.0 0.0 0.0 0.0
000320 00 00 00 00 00 00 00 00 00 00 00 00 00 00 00 00
       0.0 0.0 0.0 0.0
000330 00 00 00 00 00 00 00 00 00 00 00 00 00 00 00 00
       0.0 0.0 0.0 0.0
000340 00 00 00 00 00 00 00 00 00 00 00 00 00 00 00 00
       0.0 0.0 0.0 0.0
000350 00 00 00 00 00 00 00 00 00 00 00 00 00 00 00 00
       0.0 0.0 0.0 0.0
000360 00 00 00 00 00 00 00 00 00 00 00 00 00 00 00 00
       0.0 0.0 0.0 0.0
000370 00 00 00 00 00 00 00 00 00 00 00 00 00 00 00 00
       0.0 0.0 0.0 0.0
000380 00 00 00 00 00 00 00 00 00 00 00 00 00 00 00 00
       0.0 0.0 0.0 0.0
000390 00 00 00 00 00 00 00 00 00 00 00 00 00 00 00 00
       0.0 0.0 0.0 0.0
0003a0 00 00 00 00 00 00 00 00 00 00 00 00 00 00 00 00
       0.0 0.0 0.0 0.0
0003b0 00 00 00 00 00 00 00 00 00 00 00 00 00 00 00 00
       0.0 0.0 0.0 0.0
0003c0 00 00 00 00 00 00 00 00 00 00 00 00 00 00 00 00
       0.0 0.0 0.0 0.0
0003d0 00 00 00 00 00 00 00 00 00 00 00 00 00 00 00 00
       0.0 0.0 0.0 0.0
0003e0 00 00 00 00 00 00 00 00 00 00 00 00 00 00 00 00
       0.0 0.0 0.0 0.0
0003f0 00 00 00 00 00 00 00 00 00 00 00 00 00 00 00 00
       0.0 0.0 0.0 0.0

network_body._body_endoder.seq_layers.2.weight f4 [256, 256]
000000 30 4b 22 be 7a 17 25 bd 44 3f 09 bd b4 08 ef bc
       -0.15848994 -0.040305592 -0.0335076 -0.029178955
000010 19 27 fe 39 c9 e9 00 3d 24 0b f9 bb db a1 30 bd
       0.00048475785 0.031472955 -0.007600205 -0.043123107
000020 d7 ce 41 3c 04 0e e9 bc 70 bb a7 bb 47 5c b8 3c
       0.0118291 -0.028449066 -0.00511878 0.022504939
000030 74 8f da bd f5 ae 73 3d 79 73 14 3e 6f 2f 49 3c
       -0.10671893 0.059493024 0.14497174 0.012279375
000040 12 78 2a bd 63 3c 44 3c 49 96 19 3c 50 00 a4 bd
       -0.041618414 0.011977288 0.00937421 -0.08007872
000050 f8 4f d6 3c 56 7f d7 3a b9 7f 4b 3b 34 94 79 3c
       0.026161179 0.0016441147 0.003105147 0.015233088
000060 43 08 51 3d 74 67 a7 3c a2 b9 de bc d9 de cd bd
       0.05103327 0.020435072 -0.027188126 -0.100522704
000070 71 e9 ba 3d 61 a9 b9 3b 6f e9 83 bd 55 9e f7 3c
       0.09126557 0.0056659435 -0.06441008 0.030226866
000080 3a 97 a9 bc 9f f2 8e bd d6 f5 dd bd 6a 1d e3 bc
       -0.020701993 -0.0697987 -0.10837905 -0.027723987
000090 ee de 68 bd 85 e6 f1 3a d8 99 fa bd 14 3b f0 3c
       -0.056853227 0.0018455541 -0.122363746 0.029325046
0000a0 2d e2 9e 3d ab 5d 07 bb 22 dd 77 3d 69 4f d9 3d
       0.07757983 -0.0020655196 0.060513623 0.106108494
0000b0 7d 09 85 3d 92 13 19 3e f5 d2 f8 3d 46 e4 21 3d
       0.0649595 0.14948872 0.12149612 0.03952434
0000c0 ff 63 77 3c 20 f7 99 3d 4a c7 d4 bb 07 b1 1e bc
       0.0150995245 0.075178385 -0.0064934837 -0.009685761
0000d0 e3 ea 52 bd a5 97 f6 bd d1 c8 4c 3d 24 62 f8 bc
       -0.051493537 -0.12040643 0.0499962 -0.030320235
0000e0 bb b6 e5 bc af bd 35 3d 68 3e 10 3e 2c ab 87 3d
       -0.028041234 0.04437035 0.14086306 0.06624445
0000f0 6f 0d cd bc 33 be b2 3d 4b af bf bc b5 9f bc 3d
       -0.02503082 0.08727684 -0.023399016 0.09210149
000100 54 bd ba bd 58 f1 1c bc 72 c9 14 3d 55 3c 48 bd
       -0.09118143 -0.009579025 0.036324926 -0.048885662
000110 31 81 1f bc 19 42 eb 3a 8d 25 92 3d d1 05 bf bd
       -0.0097353915 0.0017948776 0.071360685 -0.09327281
000120 58 39 82 bd 79 67 ab bc 3e ac 09 3e 13 83 dd 3c
       -0.06358594 -0.020923363 0.13444611 0.02704004
000130 42 17 57 bd 16 b8 ba bd 63 95 84 3d 07 76 db 3b
       -0.052512415 -0.09117143 0.06473806 0.0066974196
000140 2f 4a 6c 3d 41 da d0 bc be 69 30 3c 05 ad 2a bc
       0.057687934 -0.025494697 0.010767398 -0.010417228
000150 ad 22 7b 3b c2 22 df bd 33 09 b0 bd 03 db 21 3d
       0.003832023 -0.108953014 -0.085955046 0.039515506
000160 69 2b b0 bd 02 37 fd 3d a5 21 d0 bd 92 ac 48 3d
       -0.0860203 0.123640075 -0.10162667 0.0489927
000170 10 ec 0f 3d 6e 19 8e bd 2d 66 ef 3c de 52 59 3a
       0.035137236 -0.06938444 0.029223526 0.0008290241
000180 5d 34 9c bd f4 1e 87 bc 2d 9c 56 3d 16 e0 4a 3d
       -0.07627175 -0.016494252 0.052395035 0.04953011
000190 d7 a7 5b bc 1b 4e 05 3c 7b e5 c7 bd 71 4c d0 bd
       -0.013406715 0.008136298 -0.09760567 -0.1017083
0001a0 a8 eb bb 3b 32 46 b2 3d a5 3f 39 3b e8 d6 9c bd
       0.0057348795 0.08704795 0.0028266695 -0.076581776
0001b0 5b ca d2 39 b0 b6 cd bc 6e 7f ab bd 79 15 5e bd
       0.00040205088 -0.025111526 -0.08373915 -0.054219697
0001c0 59 86 43 3d e5 d3 96 3c cf 89 32 3d 12 4e 9e bc
       0.047735546 0.018411586 0.043588456 -0.019324336
0001d0 46 88 34 3d d8 7c 81 3d 27 9e 50 bd 7a c6 57 3d
       0.044075273 0.0632264 -0.050932076 0.052679516
0001e0 9b d7 87 3c 8a 32 1d 3d 0a f6 5d bd d6 c6 b3 3d
       0.0165823 0.038378276 -0.05418972 0.08778159
0001f0 be a0 79 bd 33 66 6c 3a a3 be 6e bc 6d e5 03 be
       -0.06094431 0.00090179144 -0.0145718185 -0.12880488
000200 82 86 24 3c d0 a9 0f 3c fe 55 48 bd 08 20 c2 bc
       0.010041835 0.008768514 -0.048910134 -0.023696914
000210 74 4f 8f b9 f1 b7 91 bc 94 af 0f ba 14 cb f8 bc
       -0.00027334283 -0.017787905 -0.000548118 -0.030370273
000220 86 e2 31 bd 1f 7d 39 bd f5 19 ed bc 71 4d 73 3c
       -0.04342892 -0.04528534 -0.028943041 0.014850006
000230 8f 9d 86 3c ec 74 cf 3c 1d e9 90 3d 38 47 82 bd
       0.016432552 0.025324307 0.07075713 -0.0636124
000240 8a 9f 2b bd 49 d6 ab 3d 25 2b e2 bc 74 99 bb 3c
       -0.041900195 0.08390481 -0.027608464 0.02290032
000250 97 59 ba bb 25 95 8b bc e2 0c 17 3e ac c8 a0 bd
       -0.0056869495 -0.017038891 0.14751008 -0.07850775
000260 09 55 bf 3c a6 6e 62 3d 3c 64 ec 3d d4 8a 3e 3d
       0.023355978 0.055281304 0.11542556 0.046519116
000270 ab 60 fe b9 45 6a 84 bc 50 f9 8f 3c d5 1c 45 3d
       -0.00048518679 -0.016163955 0.017574936 0.0481232
000280 46 68 f0 bd e5 93 e9 bb c4 a3 4b 3d 9d 1d 25 3b
       -0.117386386 -0.007128226 0.049716726 0.0025194653
000290 c1 98 fa bc 69 07 ad bb 8c 23 b3 bb 82 2d b5 3c
       -0.030590417 -0.0052804244 -0.005466884 0.022116426
0002a0 49 e5 17 3d e8 d0 1b bd 93 c2 46 3c 0f e0 06 3e
       0.037083898 -0.038041025 0.012131351 0.13171409
0002b0 07 ff aa ba 1b 2d 51 3d 04 55 26 3e 4f c6 86 3c
       -0.0013045975 0.051068407 0.16243368 0.016451983
0002c0 e0 6d d1 3b b8 0e 40 bd b6 ab 0a be 85 3f ba 3d
       0.006391272 -0.046889037 -0.13542065 0.09094147
0002d0 30 53 08 bc a1 51 64 bd 4b f0 bb bc 98 02 86 bc
       -0.008320615 -0.05574191 -0.022941729 -0.016358659
0002e0 e7 5b 51 bd 74 83 21 3d 3e cc 2f bd ad e6 05 be
       -0.051113036 0.039432004 -0.04291939 -0.13076277
0002f0 5e e2 71 3d 58 12 8b 3d ea a0 30 3d 32 a0 5d 3c
       0.05905377 0.06790608 0.04312221 0.013526963
000300 49 ff 17 3e fb 01 07 3e 1f 33 c1 bd 8c ac b0 3d
       0.14843477 0.13184349 -0.09433579 0.08626661
000310 c2 b1 7c 3d 3a f0 0a 3d e0 35 af 3c f7 29 c0 3d
       0.06169296 0.033920504 0.021387994 0.09383004
000320 55 b4 99 3c e6 11 c5 bc 25 28 ce bc e6 22 ae bd
       0.018762747 -0.024056386 -0.025165627 -0.0850275
000330 9d dc cb bc bd 4c c5 bc a4 aa 90 bc 0e ad 9d 3c
       -0.02488547 -0.024084443 -0.017659493 0.019247558
000340 79 c3 37 3d ab ba a4 3d f8 14 c6 bc 35 0e a3 3d
       0.04486415 0.080434166 -0.02417992 0.07961694
000350 52 f3 9c bc 8b 58 91 bc fa 4b 5b bd 3d 22 93 ba
       -0.019158993 -0.017742416 -0.053539254 -0.0011225414
000360 a4 c6 56 3d ca 3d 18 bd e3 28 db bb 4c b0 1c bd
       0.052435532 -0.0371683 -0.0066882237 -0.038254067
000370 5c 42 a1 3d 3a 03 80 3d 39 ac ff 3c ea ea 1f bd
       0.07873985 0.062506154 0.031210052 -0.03904239
000380 27 bd af bd fd 1a ee bc c2 dd fd bc 2f 72 4e bd
       -0.08581 -0.029065603 -0.030989531 -0.050401863
000390 33 14 46 3c dd c0 d0 bd 91 d4 9c bd b5 4e 06 3e
       0.012089777 -0.10193036 -0.07657731 0.13115962
0003a0 d6 79 3e bc ee 43 22 3c a9 5c 5f 3d 14 eb 26 bd
       -0.011625728 0.009903891 0.054531727 -0.04075153
0003b0 57 42 94 bc 7c a1 98 3d 04 9a 25 bc 5c f5 8c bb
       -0.01809804 0.07452676 -0.010107521 -0.00430171
0003c0 39 35 68 bd 87 70 f4 3d fc d4 33 be b1 8c 2f be
       -0.056691382 0.119355254 -0.17561716 -0.17143513
0003d0 3e 19 30 3e a7 b6 b8 3d 0e 60 73 3d e2 97 1c bd
       0.17197129 0.09019213 0.059417777 -0.038230784
0003e0 2c 10 f7 b7 11 cf cf 3d f4 1f 3f 3d 58 3d fa bc
       -2.9452225e-05 0.10146917 0.046661332 -0.03054683
0003f0 ef e8 76 bc 39 63 9f bd 26 9f 83 bd c8 55 b5 3b
       -0.015070184 -0.07782597 -0.064268395 0.0055339076

action_model._continuous_distribution.log_sigma f4 [1, 3]
000000 00 00 00 00 00 00 00 00 00 00 00 00
       0.0 0.0 0.0

action_model._continuous_distribution.mu.weight f4 [3, 256]
000000 bd f4 a6 3b 94 2d 30 3b b5 a1 4b 3c cf a7 b9 3c
       0.005095093 0.0026882635 0.012428691 0.022663025
000010 d5 3a 56 bc d3 64 c4 39 f3 4c 38 bc d8 35 b7 3c
       -0.01307555 0.00037459153 -0.011248815 0.022364542
000020 7a 29 42 3c 6a 9b c9 bb 90 5a dd bb 94 4e 97 3c
       0.011850709 -0.00615256 -0.0067551807 0.018470086
000030 db f9 22 bb a8 fd 33 3c bb 91 1c bc 2d 42 6f 3c
       -0.0024868164 0.010985769 -0.009556229 0.01460318
000040 2f d6 e0 3b e3 56 0e bc db 3a 9e 3b 03 c6 0f 3b
       0.00686147 -0.008687708 0.0048287935 0.0021938093
000050 e3 cc 1e 3a 9f fe 7a 3c f3 6c 60 3b 8e 12 87 bc
       0.0006057752 0.015319495 0.0034244626 -0.01648834
000060 3f 9e 12 ba 6d 22 d9 3a 4a e1 4c b8 b9 9b 8f bb
       -0.00055930385 0.0016566046 -4.8847207e-05 -0.0043825773
000070 c5 ef 33 bb 57 e7 24 3c 63 b1 3c bc 6f 1f 87 3b
       -0.0027456146 0.010064921 -0.011516902 0.00412362
000080 aa 16 10 bb 90 03 de 3b a7 2d 83 bc a1 fd ba 3b
       -0.0021986165 0.006775327 -0.01601298 0.0057065045
000090 77 74 6f bc 4e c3 b1 bc ee d6 3e 3c b8 ac 93 bc
       -0.01461517 -0.021699574 0.011647923 -0.018026695
0000a0 89 06 a4 ba d7 eb d5 3c b7 ca 9e b8 3b 23 7e bb
       -0.0012514155 0.026113434 -7.571786e-05 -0.0038778323
0000b0 33 cd e1 3c 8a 3e b7 bc bf 33 85 3c f1 62 2f bc
       0.027563667 -0.022368688 0.016260026 -0.010704742
0000c0 27 b8 40 bc 4a bc 50 ba 84 9b 92 3c 18 9c e7 3b
       -0.011762655 -0.00079626276 0.017896421 0.0070681684
0000d0 13 2c 13 3c 4f 49 b6 bb b3 e3 a2 3c c5 97 e8 3b
       0.008982676 -0.0055629383 0.019883966 0.0070981705
0000e0 9b 3e 6b 3c a2 41 2b 3c a4 ac af 3b e0 8c c4 3c
       0.014358188 0.01045266 0.0053611565 0.023992956
0000f0 47 dc 43 3c 56 17 04 bc 32 a0 87 bc 11 d4 99 b9
       0.011954374 -0.008062204 -0.01655588 -0.00029340436
000100 df 85 66 ba ad 68 52 bb 98 4f 6a 3b 60 7a f1 ba
       -0.0008793752 -0.0032105849 0.0035753008 -0.0018423311
000110 fa 07 d1 bc fa 0b e2 bb 86 42 a0 3a d0 52 e1 3a
       -0.025516499 -0.0068984004 0.0012226857 0.0017190818
000120 1b 2c 9d 3c a8 5d 6d 3c b2 f4 78 bc 87 bb 6c 3c
       0.01918607 0.014487661 -0.015195059 0.014449007
000130 49 d7 2c 3b 21 20 96 3c fd a8 0d 3c c0 e2 db 3b
       0.0026373437 0.018325867 0.008646247 0.0067103803
000140 63 f3 c6 3c 5b c1 a3 bb 70 ed a5 bb eb 08 ae ba
       0.024285978 -0.004997415 -0.005063705 -0.0013277804
000150 a5 70 b7 bc 23 d8 50 3c 40 b9 fd bc 03 6e 83 bc
       -0.02239258 0.0127468435 -0.030972123 -0.016043669
000160 81 0e 81 3b ef 9c 1c bc f7 8b 86 bc 1b de d1 3b
       0.0039384966 -0.0095589 -0.016424162 0.006404651
000170 01 c7 36 3c d2 38 33 bb f4 ab 26 bc 76 e2 37 3b
       0.011155845 -0.00273471 -0.010172833 0.0028058565
000180 c5 26 05 bc db 09 1c bb 2b d8 2e bc 82 5c 4b bc
       -0.008126919 -0.0023809585 -0.010671656 -0.012412192
000190 a7 cd 50 bb f3 ca 1b bc 82 49 f1 3b 69 7b 91 bc
       -0.003186086 -0.009508836 0.007363499 -0.017759042
0001a0 bf 9f 1d bc bf 55 12 bd f4 36 8b 3c a7 ff 3b bb
       -0.009620606 -0.035726305 0.016993977 -0.0028686316
0001b0 a2 b9 3b bc d5 92 0e 3b 9d c9 e9 bc a7 6e ab bb
       -0.0114578325 0.0021755 -0.02853852 -0.0052316966
0001c0 c4 f7 3a bc 7f 4b f0 3b 53 b4 a6 3b 6b 24 0c 3c
       -0.011411611 0.0073332186 0.0050874143 0.008553605
0001d0 8e 02 8f 3c 9f 3b 9f 3b 5b 2d bf bb 6b 2d 51 bc
       0.017457273 0.0048594023 -0.005834264 -0.012767176
0001e0 af c3 c7 3c 3b e1 9b bb 09 c3 ac bb a3 01 1b 3b
       0.024385301 -0.004757074 -0.0052722734 0.0023652099
0001f0 5b a8 92 bb 6b 10 94 3a 60 35 cf 3a 2d 4e 2e 3c
       -0.004475636 0.0011296397 0.0015808754 0.010638756
000200 50 97 23 3c 9f cc 62 3c 02 78 56 ba 38 c9 65 3b
       0.009984806 0.013842731 -0.00081813347 0.0035062563
000210 f7 20 11 bc 97 3d 98 3b e9 d7 c0 bc f3 73 fb 3b
       -0.008857957 0.004646014 -0.023540454 0.0076737343
000220 95 e6 18 bc a0 a3 66 bb 19 1d bb 3b 28 be 15 bc
       -0.009332319 -0.0035192743 0.005710256 -0.009139575
000230 07 5b 61 bc 77 c0 e7 3a ea d9 42 3a 95 c2 00 bc
       -0.013754613 0.001768126 0.00074329844 -0.007858892
000240 b1 37 98 bc be 2e 00 3d 63 e3 1e bc c9 6a 0b 3c
       -0.018581243 0.031294577 -0.009697768 0.008509346
000250 53 16 8b ba 6d 35 d5 bb 6f cd 9f 3b 8f ab 51 3b
       -0.0010611512 -0.006506613 0.0048767845 0.0031993126
000260 90 81 70 bb 0c c2 4c 3b 0d 62 59 3a 59 bf 03 3c
       -0.003669832 0.003124359 0.0008292504 0.008041226
000270 9e c8 b4 bb aa 96 8e 3b a1 1f 18 bb d9 bb 34 3c
       -0.0055170795 0.0043514566 -0.0023212212 0.0110311145
000280 86 34 26 bb 69 ac 42 3c ea ec bb 3c 63 b7 b9 3b
       -0.0025360896 0.011881926 0.022940118 0.0056676134
000290 a1 65 9d 3a 5b ad 79 bc 6c 95 88 3c 77 8d bc 3a
       0.0012008437 -0.015239085 0.016672812 0.0014385422
0002a0 f0 92 70 3c ca 2b 72 3c 0d e9 51 bc 58 c7 74 bc
       0.01468347 0.014780948 -0.012811911 -0.014940105
0002b0 97 25 bf 3b 4d 30 da bb 72 e0 9d 3c c3 25 4b 3c
       0.0058333385 -0.00665859 0.019272063 0.01239914
0002c0 aa c9 48 bc a7 67 67 bc 99 13 98 3c 03 ca 07 bd
       -0.012255112 -0.014123834 0.018564032 -0.033151638
0002d0 78 48 e4 3b 37 ea 27 3b 8f 40 83 bc f5 d0 fa 3c
       0.0069666468 0.002562178 -0.016021995 0.030617217
0002e0 72 9f 85 3c 87 22 38 bc fd 47 ed bc 5f 5a ac 3a
       0.016311381 -0.011238701 -0.02896499 0.0013149491
0002f0 05 b3 a1 3a 33 bf d1 bc df 2a 87 3b 17 f9 93 3c
       0.0012336677 -0.025603866 0.0041249837 0.018063111
000300 ba 1f 47 bb d2 d6 ff 3a 3b 07 07 bc 3b ac bb 3b
       -0.00303839 0.0019518977 -0.00824147 0.0057273186
000310 38 d2 eb bb 31 47 39 3c e3 ad 8c bb b3 2a 0a bc
       -0.007196691 0.011308477 -0.00429319 -0.008433032
000320 f2 85 d8 bc e3 31 4b bc 25 ef 8a 3c 70 f8 5a bc
       -0.026431058 -0.012402031 0.016959736 -0.013364896
000330 00 3a 98 bc 53 dc ad bb 3a 20 f9 3b 58 ce 6f 3c
       -0.018582344 -0.0053058057 0.0076027187 0.0146365985
000340 19 14 87 bb 5f 48 8d 3b 47 5b c6 3b d4 90 10 bc
       -0.004122269 0.004311606 0.0060533616 -0.008823592
000350 07 cd dc 3b cd 24 da bb f7 f4 ee bb 42 c7 63 3c
       0.0067383084 -0.006657219 -0.0072923857 0.013902487
000360 73 4a 7f 3c 6f 78 22 3c 3b ba 09 bb 36 2a 11 3c
       0.015581715 0.009916409 -0.0021015543 0.0088601615
000370 64 6d be ba e3 7d 33 3b 27 b4 de 3b 8e 0b 16 3c
       -0.001452845 0.0027388267 0.006796378 0.009158028
000380 38 03 21 3c 89 6f 40 3c e3 9d ea ba 75 c3 96 3b
       0.009827428 0.011745342 -0.0017899837 0.004600937
000390 e7 31 ad bc a8 c9 4d 3b 88 13 27 3b 33 ef 8c 3b
       -0.02114196 0.0031400714 0.002549382 0.0043009757
0003a0 93 14 8d 3c 98 c5 56 3c 87 21 dc bb 1d b8 34 bb
       0.017221725 0.013108633 -0.006717864 -0.002757556
0003b0 ba 1c d0 3b 63 20 77 3b 36 dc 02 3b d5 3b 66 3c
       0.0063510807 0.0037708513 0.0019967682 0.014052351
0003c0 ed 22 aa 3a 2d b5 51 bb a9 d5 84 bc d7 d0 0d 3c
       0.0012980379 -0.0031998858 -0.016215162 0.008655748
0003d0 5f 53 b5 bb c8 e0 23 3b d6 96 40 3c 87 d8 ac bc
       -0.0055336202 0.0025005806 0.011754712 -0.021099342
0003e0 75 1a f0 3b b6 c8 21 bc ff 8f 8c 3b a0 7e 09 bc
       0.0073273727 -0.009874513 0.0042896266 -0.008392006
0003f0 e3 f5 37 3c f4 98 a1 bc ba 79 f8 bb 2b e3 0c bc
       0.011228058 -0.019726254 -0.0075828703 -0.008599083

action_model._continuous_distribution.mu.bias f4 [3]
000000 00 00 00 00 00 00 00 00 00 00 00 00
       0.0 0.0 0.0
