UnityEnv/results/drone_goal_012/DroneAgent/DroneAgent-9856.pt (torch, 546744 bytes, 12 tensors)

network_body._body_endoder.seq_layers.0.weight f4 [256, 1]
0	0xbf452572	-0.7701026
1	0xbfbc4d90	-1.471117
2	0xbda9c6fd	-0.08289907
3	0x3fa9a857	1.3254498
4	0x3fb30935	1.3987185
5	0x3c07589e	0.008260874
6	0x3f9420d4	1.1572518
7	0x3efcfc8e	0.49411434
8	0xbf4912a1	-0.7854405
9	0xbf18a575	-0.5962747
10	0x3f444909	0.7667394
11	0xbfd9b662	-1.7008784
12	0xbf4b93a5	-0.7952216
13	0xbf344ecb	-0.7043273
14	0xbf469aa2	-0.775797
15	0x3fcee5af	1.6163844
16	0x3fb43a55	1.4080302
17	0x3f9868e2	1.1907008
18	0xc0245d3a	-2.56819
19	0x3faa8615	1.3322169
20	0x3f9cd65b	1.2252916
21	0xbdb70d8e	-0.08938132
22	0xbe075ab7	-0.13218199
23	0xbf1773d8	-0.5916114
24	0xbf30133c	-0.6877935
25	0xbe3b7b5f	-0.18308781
26	0x3f0c96b9	0.54917485
27	0x3ef4e273	0.47829017
28	0x3ebfbeb5	0.37450185
29	0xbf8d2cd5	-1.1029307
30	0xbe75009e	-0.23926017
31	0xbdda7e6f	-0.106686465
32	0xbf9f1e36	-1.2431095
33	0x3ebab2ab	0.36464438
34	0xbdb4875e	-0.08814882
35	0x3f9fea39	1.2493354
36	0xbf3bf48c	-0.73420024
37	0x3ea6c40a	0.3257144
38	0xbf2f1996	-0.68398416
39	0xbe79de93	-0.24401312
40	0xc0029025	-2.040048
41	0x3f44903f	0.767826
42	0x3f03cb2b	0.51481885
43	0xbf02170b	-0.5081641
44	0x3f4cb67a	0.7996594
45	0xbecdc216	-0.40187138
46	0x3f200963	0.62514323
47	0x3ff0fd7d	1.8827358
48	0x3f8e64d2	1.1124518
49	0xbf0190f6	-0.5061182
50	0xbe95fe11	-0.292954
51	0xbff9a65e	-1.9503896
52	0x3f3719a4	0.715235
53	0x3f5d1ebb	0.86375016
54	0xbeb409ab	-0.35163626
55	0xbf7ee97a	-0.99575007
56	0x3e18fc9a	0.1494011
57	0xbf362014	-0.711427
58	0xbf0bea8b	-0.5465476
59	0x3ea26885	0.31720367
60	0x3f436b35	0.7633546
61	0x3fa00bac	1.2503562
62	0x3f81ab5e	1.0130422
63	0xc01269a2	-2.2876973
64	0xbd010d98	-0.031507105
65	0xbf12f60c	-0.5740669
66	0xbecbbdbb	-0.3979319
67	0x3fa70623	1.3048748
68	0x3fa8d589	1.3190166
69	0x3ec5ce2f	0.38633868
70	0xbfede769	-1.8586246
71	0xbecc5507	-0.3990862
72	0xbfb94619	-1.4474517
73	0xbfd6ea1e	-1.6790197
74	0xc00cc327	-2.1994112
75	0xbe40c639	-0.18825616
76	0xc01a817b	-2.4141529
77	0xbbf1605a	-0.0073662223
78	0x3f3927ee	0.7232655
79	0x3e896ace	0.26839298
80	0x3f22b50e	0.6355752
81	0x3d25e9a1	0.04050601
82	0xbe58cfca	-0.21173015
83	0xbe0b4cfa	-0.13603583
84	0x3f3cf27e	0.73807514
85	0xbe8081ac	-0.25098932
86	0xbeabdf5d	-0.3356885
87	0x3f1572ef	0.583785
88	0xbf4b2a93	-0.7936184
89	0xbf584665	-0.84482414
90	0x3ecf215e	0.40455145
91	0xbe262bdc	-0.16227669
92	0x3eb07cee	0.34470314
93	0x3ecf34eb	0.4047006
94	0xbf13bdca	-0.5771147
95	0x3ec0f4cc	0.37686765
96	0xbe005826	-0.12533626
97	0x3efaa21c	0.48951805
98	0x3f9e7fe5	1.238278
99	0xbfdda27e	-1.7315214
100	0x3fb8209b	1.438495
101	0x3f95bf91	1.1699086
102	0xbfe31cb2	-1.7743132
103	0x3f9ab7c9	1.2087337
104	0x3e947c5e	0.29001135
105	0x3e8dab62	0.27669817
106	0x3d7b51d7	0.061357345
107	0x3f7a26b7	0.97715324
108	0xbf0655d5	-0.5247472
109	0x3fab11ca	1.3364804
110	0xc044933e	-3.071487
111	0xbf05e0a3	-0.52295893
112	0x3fcff9fa	1.6248162
113	0x3f4afb41	0.79289633
114	0x3d330d4a	0.043713845
115	0x3d1e01e0	0.038576007
116	0x3f5dc137	0.8662295
117	0xbe55ff11	-0.20898081
118	0x3ebe343a	0.3714922
119	0xbf32a787	-0.69786876
120	0x3f6da40d	0.92828447
121	0x3fa12877	1.2590474
122	0xbedf671a	-0.43633348
123	0x3fdda598	1.731616
124	0xbf80188b	-1.000749
125	0xbf6ed731	-0.93297106
126	0x3eccc072	0.39990574
127	0xbf03d2ac	-0.51493335
128	0x3ee6da25	0.45088306
129	0xbfed44f3	-1.8536667
130	0x3fdb28f6	1.7121875
131	0xbf132e9d	-0.57493
132	0x3f4e1566	0.805014
133	0x3d443b92	0.047908373
134	0x3fbfa5ff	1.4972533
135	0x3bc84b16	0.0061124666
136	0xbfa5a1a8	-1.2939959
137	0x3f08c164	0.5342009
138	0x3f8ded91	1.1088125
139	0x3f8a177a	1.0788414
140	0x3f1f464a	0.6221663
141	0xbde35ba5	-0.11101464
142	0xbe37c6f6	-0.17946991
143	0xbe4510ff	-0.19244765
144	0x3f1a3aa3	0.6024572
145	0x3ea38350	0.3193612
146	0xbdd4dbff	-0.103935234
147	0xbf9f6ba1	-1.2454721
148	0xbf149420	-0.5803852
149	0x3e5bc76a	0.21462789
150	0x3e4afbce	0.19822618
151	0x3fb7b30b	1.4351515
152	0xbecfe884	-0.40607083
153	0x3f9e7f6c	1.2382636
154	0xbf7345a3	-0.9502813
155	0x3f6bd6e1	0.92124754
156	0xbd89ed4d	-0.06734715
157	0xbd11feb7	-0.035643306
158	0xbdd8a4db	-0.10578319
159	0xbf4452bb	-0.76688737
160	0xbf7ffa95	-0.9999173
161	0x3dc56e9b	0.09640237
162	0x3ed8f50f	0.42374465
163	0xbfc1451c	-1.5099216
164	0xbf3f5eb8	-0.74753904
165	0x3faf0797	1.3674191
166	0x3f4deda6	0.8044075
167	0x3f107c7e	0.5643996
168	0xbf6f4bdb	-0.9347512
169	0x3f46c7c6	0.7764858
170	0x3f12649e	0.5718478
171	0xbfaa0a30	-1.3284359
172	0xbf4578ea	-0.77137625
173	0xbf46b532	-0.7762023
174	0x3f36e8bb	0.7144887
175	0x3fc28624	1.5197186
176	0x3f38a00f	0.7211923
177	0xbfcdabcb	-1.6068052
178	0xbf5a0b56	-0.8517355
179	0x3f6c70cd	0.9235962
180	0x3cd958a8	0.026531532
181	0x3edd5dcd	0.43235627
182	0x3f32e06d	0.69873697
183	0xbf058b4b	-0.5216567
184	0x3ee9933c	0.45620143
185	0xbe188ab9	-0.14896668
186	0x3f9a262b	1.2042898
187	0x3f0422c4	0.5161555
188	0x3fdbbf4a	1.7167752
189	0xbddbd691	-0.10734285
190	0xbf3eedca	-0.7458159
191	0x3f80fc22	1.0076945
192	0x3ed212c5	0.41029945
193	0x3f20d88c	0.62830424
194	0x3f7f8e46	0.9982647
195	0x3f0f8494	0.56061673
196	0x3f32c950	0.6983843
197	0xbf9a3cd9	-1.2049819
198	0xbf14c214	-0.5810864
199	0xbf4d764e	-0.80258644
200	0x3f7abc0d	0.9794319
201	0x3db6a4c1	0.08918143
202	0x3bc70905	0.0060740733
203	0xbe6050f4	-0.21905881
204	0x3ff37ebc	1.9023051
205	0x3f4bc6ae	0.79600036
206	0xbcd1d1d8	-0.025612757
207	0x3f826435	1.0186831
208	0xbf622cbc	-0.8834951
209	0x3f8b99dc	1.0906329
210	0xbebc611b	-0.36792836
211	0xbe64aed6	-0.2233232
212	0xbea09c67	-0.31369326
213	0x3fb9acec	1.4505897
214	0xbea5fb1b	-0.3241814
215	0xbef78280	-0.4834175
216	0xbf456d7d	-0.7712019
217	0x3e71f06a	0.23626867
218	0xbf93f268	-1.1558352
219	0xbe77087d	-0.24124332
220	0x3c7e9dbb	0.015540536
221	0xc00c894c	-2.19588
222	0xbd69e7e9	-0.057105932
223	0x3fb59942	1.4187396
224	0xbe996fe7	-0.29968187
225	0xbfbd5f5f	-1.479473
226	0x3e0279b0	0.12741733
227	0x3f486eaf	0.7829389
228	0x3f861ba1	1.0477182
229	0x3ff9e906	1.9524238
230	0xbfa39c78	-1.2782125
231	0xbe3b2997	-0.18277584
232	0x3fa8a541	1.3175431
233	0xbf805762	-1.0026667
234	0x3f7f42c1	0.99711233
235	0xbf0c04d3	-0.5469486
236	0x3d62cc9a	0.055370905
237	0x401fe4d2	2.498341
238	0x3f05897d	0.52162915
239	0x3f1c413f	0.6103706
240	0xbe710416	-0.23536715
241	0xbf0cc509	-0.5498815
242	0x3f721132	0.9455749
243	0x3f0f5724	0.5599234
244	0x3ece8ed7	0.40343353
245	0x3ea76a45	0.32698265
246	0x3f086c44	0.532902
247	0xbf28cb51	-0.65935236
248	0x3e163c6f	0.14671491
249	0x3e67a4df	0.22621487
250	0x3f952a64	1.1653562
251	0x3e414dd8	0.18877351
252	0xbf71d742	-0.9446908
253	0xbee1f286	-0.44130343
254	0x3f585c3c	0.8451574
255	0x40290123	2.6406944

network_body._body_endoder.seq_layers.0.bias f4 [256]
0	0x00000000	0.0
1	0x00000000	0.0
2	0x00000000	0.0
3	0x00000000	0.0
4	0x00000000	0.0
5	0x00000000	0.0
6	0x00000000	0.0
7	0x00000000	0.0
8	0x00000000	0.0
9	0x00000000	0.0
10	0x00000000	0.0
11	0x00000000	0.0
12	0x00000000	0.0
13	0x00000000	0.0
14	0x00000000	0.0
15	0x00000000	0.0
16	0x00000000	0.0
17	0x00000000	0.0
18	0x00000000	0.0
19	0x00000000	0.0
20	0x00000000	0.0
21	0x00000000	0.0
22	0x00000000	0.0
23	0x00000000	0.0
24	0x00000000	0.0
25	0x00000000	0.0
26	0x00000000	0.0
27	0x00000000	0.0
28	0x00000000	0.0
29	0x00000000	0.0
30	0x00000000	0.0
31	0x00000000	0.0
32	0x00000000	0.0
33	0x00000000	0.0
34	0x00000000	0.0
35	0x00000000	0.0
36	0x00000000	0.0
37	0x00000000	0.0
38	0x00000000	0.0
39	0x00000000	0.0
40	0x00000000	0.0
41	0x00000000	0.0
42	0x00000000	0.0
43	0x00000000	0.0
44	0x00000000	0.0
45	0x00000000	0.0
46	0x00000000	0.0
47	0x00000000	0.0
48	0x00000000	0.0
49	0x00000000	0.0
50	0x00000000	0.0
51	0x00000000	0.0
52	0x00000000	0.0
53	0x00000000	0.0
54	0x00000000	0.0
55	0x00000000	0.0
56	0x00000000	0.0
57	0x00000000	0.0
58	0x00000000	0.0
59	0x00000000	0.0
60	0x00000000	0.0
61	0x00000000	0.0
62	0x00000000	0.0
63	0x00000000	0.0
64	0x00000000	0.0
65	0x00000000	0.0
66	0x00000000	0.0
67	0x00000000	0.0
68	0x00000000	0.0
69	0x00000000	0.0
70	0x00000000	0.0
71	0x00000000	0.0
72	0x00000000	0.0
73	0x00000000	0.0
74	0x00000000	0.0
75	0x00000000	0.0
76	0x00000000	0.0
77	0x00000000	0.0
78	0x00000000	0.0
79	0x00000000	0.0
80	0x00000000	0.0
81	0x00000000	0.0
82	0x00000000	0.0
83	0x00000000	0.0
84	0x00000000	0.0
85	0x00000000	0.0
86	0x00000000	0.0
87	0x00000000	0.0
88	0x00000000	0.0
89	0x00000000	0.0
90	0x00000000	0.0
91	0x00000000	0.0
92	0x00000000	0.0
93	0x00000000	0.0
94	0x00000000	0.0
95	0x00000000	0.0
96	0x00000000	0.0
97	0x00000000	0.0
98	0x00000000	0.0
99	0x00000000	0.0
100	0x00000000	0.0
101	0x00000000	0.0
102	0x00000000	0.0
103	0x00000000	0.0
104	0x00000000	0.0
105	0x00000000	0.0
106	0x00000000	0.0
107	0x00000000	0.0
108	0x00000000	0.0
109	0x00000000	0.0
110	0x00000000	0.0
111	0x00000000	0.0
112	0x00000000	0.0
113	0x00000000	0.0
114	0x00000000	0.0
115	0x00000000	0.0
116	0x00000000	0.0
117	0x00000000	0.0
118	0x00000000	0.0
119	0x00000000	0.0
120	0x00000000	0.0
121	0x00000000	0.0
122	0x00000000	0.0
123	0x00000000	0.0
124	0x00000000	0.0
125	0x00000000	0.0
126	0x00000000	0.0
127	0x00000000	0.0
128	0x00000000	0.0
129	0x00000000	0.0
130	0x00000000	0.0
131	0x00000000	0.0
132	0x00000000	0.0
133	0x00000000	0.0
134	0x00000000	0.0
135	0x00000000	0.0
136	0x00000000	0.0
137	0x00000000	0.0
138	0x00000000	0.0
139	0x00000000	0.0
140	0x00000000	0.0
141	0x00000000	0.0
142	0x00000000	0.0
143	0x00000000	0.0
144	0x00000000	0.0
145	0x00000000	0.0
146	0x00000000	0.0
147	0x00000000	0.0
148	0x00000000	0.0
149	0x00000000	0.0
150	0x00000000	0.0
151	0x00000000	0.0
152	0x00000000	0.0
153	0x00000000	0.0
154	0x00000000	0.0
155	0x00000000	0.0
156	0x00000000	0.0
157	0x00000000	0.0
158	0x00000000	0.0
159	0x00000000	0.0
160	0x00000000	0.0
161	0x00000000	0.0
162	0x00000000	0.0
163	0x00000000	0.0
164	0x00000000	0.0
165	0x00000000	0.0
166	0x00000000	0.0
167	0x00000000	0.0
168	0x00000000	0.0
169	0x00000000	0.0
170	0x00000000	0.0
171	0x00000000	0.0
172	0x00000000	0.0
173	0x00000000	0.0
174	0x00000000	0.0
175	0x00000000	0.0
176	0x00000000	0.0
177	0x00000000	0.0
178	0x00000000	0.0
179	0x00000000	0.0
180	0x00000000	0.0
181	0x00000000	0.0
182	0x00000000	0.0
183	0x00000000	0.0
184	0x00000000	0.0
185	0x00000000	0.0
186	0x00000000	0.0
187	0x00000000	0.0
188	0x00000000	0.0
189	0x00000000	0.0
190	0x00000000	0.0
191	0x00000000	0.0
192	0x00000000	0.0
193	0x00000000	0.0
194	0x00000000	0.0
195	0x00000000	0.0
196	0x00000000	0.0
197	0x00000000	0.0
198	0x00000000	0.0
199	0x00000000	0.0
200	0x00000000	0.0
201	0x00000000	0.0
202	0x00000000	0.0
203	0x00000000	0.0
204	0x00000000	0.0
205	0x00000000	0.0
206	0x00000000	0.0
207	0x00000000	0.0
208	0x00000000	0.0
209	0x00000000	0.0
210	0x00000000	0.0
211	0x00000000	0.0
212	0x00000000	0.0
213	0x00000000	0.0
214	0x00000000	0.0
215	0x00000000	0.0
216	0x00000000	0.0
217	0x00000000	0.0
218	0x00000000	0.0
219	0x00000000	0.0
220	0x00000000	0.0
221	0x00000000	0.0
222	0x00000000	0.0
223	0x00000000	0.0
224	0x00000000	0.0
225	0x00000000	0.0
226	0x00000000	0.0
227	0x00000000	0.0
228	0x00000000	0.0
229	0x00000000	0.0
230	0x00000000	0.0
231	0x00000000	0.0
232	0x00000000	0.0
233	0x00000000	0.0
234	0x00000000	0.0
235	0x00000000	0.0
236	0x00000000	0.0
237	0x00000000	0.0
238	0x00000000	0.0
239	0x00000000	0.0
240	0x00000000	0.0
241	0x00000000	0.0
242	0x00000000	0.0
243	0x00000000	0.0
244	0x00000000	0.0
245	0x00000000	0.0
246	0x00000000	0.0
247	0x00000000	0.0
248	0x00000000	0.0
249	0x00000000	0.0
250	0x00000000	0.0
251	0x00000000	0.0
252	0x00000000	0.0
253	0x00000000	0.0
254	0x00000000	0.0
255	0x00000000	0.0

network_body._body_endoder.seq_layers.2.weight f4 [256, 256]
0	0x3d6f74e6	0.058461092
1	0x3d4d72e1	0.050158385
2	0x3b510a41	0.003189698
3	0x3d71c738	0.05902788
4	0xbe13e646	-0.14443311
5	0x3d9ef083	0.07760718
6	0xbcddcb4d	-0.02707448
7	0xbe0cf1d7	-0.1376413
8	0xbbc370ff	-0.005964398
9	0x3d75ee20	0.060041547
10	0xbe1e0e88	-0.1543523
11	0x3ddd8ed4	0.10818258
12	0x3d254b75	0.040355165
13	0xbd4fb2ea	-0.050707735
14	0xbc7d67cc	-0.015466642
15	0xbd9ba33e	-0.07599495
16	0x3d155180	0.036454678
17	0xbda93fdd	-0.08264134
18	0x3e159ecc	0.14611357
19	0x3c627734	0.013822366
20	0x3d76b041	0.060226683
21	0x3d7fb893	0.062431883
22	0xbd21584f	-0.03939086
23	0xbcf4e1e5	-0.029892871
24	0x3c2b83a1	0.0104683945
25	0x3debba88	0.115101874
26	0x3c5c2f2a	0.013438979
27	0xbc300697	-0.010743759
28	0xbd443346	-0.04790046
29	0xbcdad2b5	-0.026711801
30	0x3aeb408b	0.0017948312
31	0x3b8a66be	0.0042236736
32	0x3e1c646b	0.15272681
33	0x3d790c5b	0.0608028
34	0x3dd78bb7	0.10524695
35	0x3d293fb7	0.04132053
36	0xbe28a21c	-0.1646809
37	0x3c93734e	0.017999317
38	0xbcb22356	-0.021745365
39	0xbd0a1ecf	-0.033720788
40	0x3dc4cf58	0.0960986
41	0xbd650080	-0.05590868
42	0x3dc39f7b	0.09551903
43	0xbb70d026	-0.003674516
44	0xbd52fa0b	-0.05150799
45	0xbd64b8d0	-0.055840313
46	0x3d8ba48c	0.06818494
47	0xbabb32a5	-0.0014282061
48	0xbce003b8	-0.027345523
49	0xbc7d8616	-0.015473863
50	0x3d344a62	0.04401625
51	0xbd561707	-0.052268054
52	0x3d3164ea	0.04330913
53	0xbd011a57	-0.03151926
54	0xbdd33d4f	-0.10314428
55	0xbd1be847	-0.038063314
56	0xbd261613	-0.040548395
57	0x3cc17517	0.023615403
58	0x3b57c84e	0.0032925787
59	0xbdb166be	-0.08662175
60	0x3c9e0e0b	0.019293806
61	0xbd0b53b5	-0.034015376
62	0xbc0f6179	-0.008751267
63	0xbce5de33	-0.028060054
64	0xbd3fbbbe	-0.046809904
65	0xbcd3c3c9	-0.025850194
66	0x3d643ce7	0.055722144
67	0xbd26b4a7	-0.040699627
68	0x3e1b7a50	0.15183377
69	0x3d591471	0.05299801
70	0xbc60af89	-0.013713726
71	0xbcd0e6cd	-0.02550068
72	0x3a8a4650	0.0010549519
73	0x3ce227ea	0.027606923
74	0xbd35f522	-0.04442323
75	0x3deeb931	0.11656416
76	0xbd9c6ed8	-0.07638329
77	0x3d38cba8	0.045116097
78	0xbca150bf	-0.019691823
79	0x3df2f224	0.11862591
80	0x3ccaf1b0	0.024773449
81	0x3da7534b	0.08170184
82	0xbd68d873	-0.056847047
83	0x3da42711	0.08015264
84	0x3d9007f1	0.07032765
85	0xbdb029aa	-0.08601697
86	0xbd8bae82	-0.06820394
87	0x3b922c99	0.004460883
88	0x3b19f52f	0.0023492088
89	0x3d1d549f	0.03841078
90	0xbc5b925f	-0.013401597
91	0xbd104f0b	-0.03523163
92	0xbdeb16ab	-0.11478933
93	0x3d7f1226	0.062273167
94	0x3d781cc1	0.060574297
95	0x3b0f14f9	0.002183257
96	0xbd8b8e90	-0.06814301
97	0xbb129cdb	-0.0022371325
98	0x3d421ffd	0.047393788
99	0x3d2052f6	0.039141618
100	0xbd94c427	-0.072639756
101	0x3c46cd5a	0.012133921
102	0xbd87edc9	-0.06637151
103	0xbd158e5d	-0.03651272
104	0xbd22d6cf	-0.03975564
105	0xbc511a47	-0.012762613
106	0xbcc93f40	-0.024566293
107	0xbd04b73f	-0.03240132
108	0x3d9e694a	0.07734926
109	0x3d857e8a	0.06518276
110	0x3d91d783	0.07121184
111	0xbcaa870c	-0.020816348
112	0xbe022e9e	-0.12713096
113	0x3b917d42	0.0044399807
114	0x3c38687a	0.011255378
115	0x3bf2b2e3	0.007406579
116	0x3bd8cfd5	0.0066165724
117	0xbd455c5e	-0.04818379
118	0x3ceef203	0.029168135
119	0xbd2331c4	-0.039842382
120	0xbb8e1ada	-0.004336697
121	0xbd1078ec	-0.03527157
122	0xbd8bca46	-0.0682569
123	0xbd31fd0e	-0.043454222
124	0x3cde5622	0.02714068
125	0xbc082de0	-0.008311719
126	0xbd64cd4d	-0.055859853
127	0x3d89940c	0.06717691
128	0xbbd44c96	-0.0064788563
129	0xbd0ff1b7	-0.035142627
130	0x3df8e362	0.12152745
131	0x3d3a4f7d	0.045485962
132	0xbc5d6674	-0.013513196
133	0x3da04047	0.0782476
134	0x3d386f81	0.045028213
135	0xbd1b7c3c	-0.037960276
136	0xbdaf7339	-0.08566899
137	0x3cfe77de	0.031063017
138	0x3db700db	0.0893571
139	0xbd816d3e	-0.063196644
140	0x3ca19d26	0.019728255
141	0xbc75a253	-0.014992314
142	0x3c385eec	0.0112531
143	0x3d19cb0e	0.037547164
144	0x3857aeb1	5.142269e-05
145	0x3ca3ff85	0.020019302
146	0x3d9ae3e7	0.07563
147	0x3c330725	0.010926996
148	0x3da296f0	0.07938945
149	0x3cd9a14b	0.026566168
150	0xbaca28b4	-0.0015423507
151	0xbcfe7713	-0.031062638
152	0xbd6919b2	-0.05690927
153	0xbc1ebdd8	-0.009688817
154	0xbd2833b7	-0.041064944
155	0x3d108c39	0.035289977
156	0x3c965c68	0.01835461
157	0xbcb5eecd	-0.022208596
158	0x3ca64722	0.02029759
159	0x3db99e91	0.09063447
160	0xbb56ccbe	-0.0032775844
161	0xbd457dcf	-0.048215684
162	0xbcc7606a	-0.024337966
163	0xbd3dd0e8	-0.046341807
164	0x3d2df43f	0.04246926
165	0xbd99bb2c	-0.07506403
166	0x3c7e654d	0.015527082
167	0x3da475eb	0.080303036
168	0xbd13b84a	-0.036064424
169	0x3b8e2d4e	0.004338897
170	0x3ab2d209	0.0013642918
171	0xbd138968	-0.036019713
172	0xbd5e14b2	-0.054218955
173	0x3b8d722e	0.00431659
174	0xbd32eee5	-0.04368486
175	0xbd09ce87	-0.033644225
176	0x3c2b45f6	0.010453692
177	0xbc5fed44	-0.013667408
178	0xbc40ec98	-0.011775158
179	0x3d4a8d1f	0.04945099
180	0xb968b0ce	-0.00022191109
181	0x3dbd8a73	0.09254923
182	0xbcd4dc8e	-0.025984075
183	0xbd8ae232	-0.067814246
184	0xbdce6e6d	-0.10079656
185	0xbde00fd3	-0.10940518
186	0xbcfcb0a5	-0.03084595
187	0x3c3ece68	0.011645891
188	0xbbc5f4e3	-0.0060411557
189	0xbd80f02a	-0.06295808
190	0x3dc08a15	0.09401337
191	0x3d805f57	0.06268185
192	0x3d6daae9	0.05802432
193	0x3e302bf0	0.17204261
194	0x3d4cbef1	0.049986783
195	0x3d920457	0.07129734
196	0xbc6314a5	-0.0138599025
197	0x3cfa400a	0.030548114
198	0xbb2c50d7	-0.0026293301
199	0xbdbc3774	-0.09190264
200	0x3d5a7c49	0.053341184
201	0x3cca0392	0.024659906
202	0x3db52fbe	0.08846997
203	0x3b152743	0.0022758998
204	0xbe4d864b	-0.2007076
205	0xbbcb1b3a	-0.006198314
206	0x3ce6e692	0.028186116
207	0x3de78238	0.11304134
208	0x3d25e9e9	0.040506277
209	0xbad4ec31	-0.0016244707
210	0x3d791aca	0.060816564
211	0xbadbd1af	-0.0016770865
212	0x3db4fe68	0.08837587
213	0x3e153e56	0.1457456
214	0x379b3e97	1.8506586e-05
215	0xbd49faa7	-0.049311306
216	0x3d27c574	0.04095979
217	0x3c9f1d91	0.019423278
218	0xbdd27826	-0.10276823
219	0x3d9e8a41	0.077412136
220	0x3cfffdcd	0.031248951
221	0x3d2c01ad	0.041993786
222	0x3b3732b1	0.0027953798
223	0xbd80b7f3	-0.062850855
224	0xb916d948	-0.00014386058
225	0x3d422e52	0.047407456
226	0x3c1faf6a	0.009746412
227	0x3d9b0a7c	0.07570359
228	0xbcdd0bd7	-0.026983185
229	0xbc9e126f	-0.0192959
230	0x3ad03102	0.0015883746
231	0xbc318ffe	-0.010837553
232	0x3cba60a8	0.022751167
233	0x3d36d96a	0.044640936
234	0x3a47e2e3	0.00076250563
235	0x3dcfaa78	0.10139936
236	0xbdb71842	-0.08940174
237	0x3d939c8e	0.07207595
238	0x3cf5c182	0.029999498
239	0x3d24d8a3	0.040245663
240	0x3d81f44e	0.063454255
241	0xbd38907a	-0.04505966
242	0xbdcc4518	-0.09974116
243	0x3a0209c3	0.0004960561
244	0x3bc26f97	0.0059337127
245	0xbc56b51d	-0.013104704
246	0xbc4194a6	-0.011815226
247	0x3d2c1a69	0.042017374
248	0xbd659a02	-0.056055076
249	0x3dd7c68a	0.10535915
250	0x3d99304d	0.07479916
251	0xbcdc3c2c	-0.026884161
252	0x3de84575	0.11341373
253	0x3cd3af7a	0.02584051
254	0xbdd5610b	-0.104189
255	0xbd03096d	-0.03199141

network_body._body_endoder.seq_layers.2.bias f4 [256]
0	0x00000000	0.0
1	0x00000000	0.0
2	0x00000000	0.0
3	0x00000000	0.0
4	0x00000000	0.0
5	0x00000000	0.0
6	0x00000000	0.0
7	0x00000000	0.0
8	0x00000000	0.0
9	0x00000000	0.0
10	0x00000000	0.0
11	0x00000000	0.0
12	0x00000000	0.0
13	0x00000000	0.0
14	0x00000000	0.0
15	0x00000000	0.0
16	0x00000000	0.0
17	0x00000000	0.0
18	0x00000000	0.0
19	0x00000000	0.0
20	0x00000000	0.0
21	0x00000000	0.0
22	0x00000000	0.0
23	0x00000000	0.0
24	0x00000000	0.0
25	0x00000000	0.0
26	0x00000000	0.0
27	0x00000000	0.0
28	0x00000000	0.0
29	0x00000000	0.0
30	0x00000000	0.0
31	0x00000000	0.0
32	0x00000000	0.0
33	0x00000000	0.0
34	0x00000000	0.0
35	0x00000000	0.0
36	0x00000000	0.0
37	0x00000000	0.0
38	0x00000000	0.0
39	0x00000000	0.0
40	0x00000000	0.0
41	0x00000000	0.0
42	0x00000000	0.0
43	0x00000000	0.0
44	0x00000000	0.0
45	0x00000000	0.0
46	0x00000000	0.0
47	0x00000000	0.0
48	0x00000000	0.0
49	0x00000000	0.0
50	0x00000000	0.0
51	0x00000000	0.0
52	0x00000000	0.0
53	0x00000000	0.0
54	0x00000000	0.0
55	0x00000000	0.0
56	0x00000000	0.0
57	0x00000000	0.0
58	0x00000000	0.0
59	0x00000000	0.0
60	0x00000000	0.0
61	0x00000000	0.0
62	0x00000000	0.0
63	0x00000000	0.0
64	0x00000000	0.0
65	0x00000000	0.0
66	0x00000000	0.0
67	0x00000000	0.0
68	0x00000000	0.0
69	0x00000000	0.0
70	0x00000000	0.0
71	0x00000000	0.0
72	0x00000000	0.0
73	0x00000000	0.0
74	0x00000000	0.0
75	0x00000000	0.0
76	0x00000000	0.0
77	0x00000000	0.0
78	0x00000000	0.0
79	0x00000000	0.0
80	0x00000000	0.0
81	0x00000000	0.0
82	0x00000000	0.0
83	0x00000000	0.0
84	0x00000000	0.0
85	0x00000000	0.0
86	0x00000000	0.0
87	0x00000000	0.0
88	0x00000000	0.0
89	0x00000000	0.0
90	0x00000000	0.0
91	0x00000000	0.0
92	0x00000000	0.0
93	0x00000000	0.0
94	0x00000000	0.0
95	0x00000000	0.0
96	0x00000000	0.0
97	0x00000000	0.0
98	0x00000000	0.0
99	0x00000000	0.0
100	0x00000000	0.0
101	0x00000000	0.0
102	0x00000000	0.0
103	0x00000000	0.0
104	0x00000000	0.0
105	0x00000000	0.0
106	0x00000000	0.0
107	0x00000000	0.0
108	0x00000000	0.0
109	0x00000000	0.0
110	0x00000000	0.0
111	0x00000000	0.0
112	0x00000000	0.0
113	0x00000000	0.0
114	0x00000000	0.0
115	0x00000000	0.0
116	0x00000000	0.0
117	0x00000000	0.0
118	0x00000000	0.0
119	0x00000000	0.0
120	0x00000000	0.0
121	0x00000000	0.0
122	0x00000000	0.0
123	0x00000000	0.0
124	0x00000000	0.0
125	0x00000000	0.0
126	0x00000000	0.0
127	0x00000000	0.0
128	0x00000000	0.0
129	0x00000000	0.0
130	0x00000000	0.0
131	0x00000000	0.0
132	0x00000000	0.0
133	0x00000000	0.0
134	0x00000000	0.0
135	0x00000000	0.0
136	0x00000000	0.0
137	0x00000000	0.0
138	0x00000000	0.0
139	0x00000000	0.0
140	0x00000000	0.0
141	0x00000000	0.0
142	0x00000000	0.0
143	0x00000000	0.0
144	0x00000000	0.0
145	0x00000000	0.0
146	0x00000000	0.0
147	0x00000000	0.0
148	0x00000000	0.0
149	0x00000000	0.0
150	0x00000000	0.0
151	0x00000000	0.0
152	0x00000000	0.0
153	0x00000000	0.0
154	0x00000000	0.0
155	0x00000000	0.0
156	0x00000000	0.0
157	0x00000000	0.0
158	0x00000000	0.0
159	0x00000000	0.0
160	0x00000000	0.0
161	0x00000000	0.0
162	0x00000000	0.0
163	0x00000000	0.0
164	0x00000000	0.0
165	0x00000000	0.0
166	0x00000000	0.0
167	0x00000000	0.0
168	0x00000000	0.0
169	0x00000000	0.0
170	0x00000000	0.0
171	0x00000000	0.0
172	0x00000000	0.0
173	0x00000000	0.0
174	0x00000000	0.0
175	0x00000000	0.0
176	0x00000000	0.0
177	0x00000000	0.0
178	0x00000000	0.0
179	0x00000000	0.0
180	0x00000000	0.0
181	0x00000000	0.0
182	0x00000000	0.0
183	0x00000000	0.0
184	0x00000000	0.0
185	0x00000000	0.0
186	0x00000000	0.0
187	0x00000000	0.0
188	0x00000000	0.0
189	0x00000000	0.0
190	0x00000000	0.0
191	0x00000000	0.0
192	0x00000000	0.0
193	0x00000000	0.0
194	0x00000000	0.0
195	0x00000000	0.0
196	0x00000000	0.0
197	0x00000000	0.0
198	0x00000000	0.0
199	0x00000000	0.0
200	0x00000000	0.0
201	0x00000000	0.0
202	0x00000000	0.0
203	0x00000000	0.0
204	0x00000000	0.0
205	0x00000000	0.0
206	0x00000000	0.0
207	0x00000000	0.0
208	0x00000000	0.0
209	0x00000000	0.0
210	0x00000000	0.0
211	0x00000000	0.0
212	0x00000000	0.0
213	0x00000000	0.0
214	0x00000000	0.0
215	0x00000000	0.0
216	0x00000000	0.0
217	0x00000000	0.0
218	0x00000000	0.0
219	0x00000000	0.0
220	0x00000000	0.0
221	0x00000000	0.0
222	0x00000000	0.0
223	0x00000000	0.0
224	0x00000000	0.0
225	0x00000000	0.0
226	0x00000000	0.0
227	0x00000000	0.0
228	0x00000000	0.0
229	0x00000000	0.0
230	0x00000000	0.0
231	0x00000000	0.0
232	0x00000000	0.0
233	0x00000000	0.0
234	0x00000000	0.0
235	0x00000000	0.0
236	0x00000000	0.0
237	0x00000000	0.0
238	0x00000000	0.0
239	0x00000000	0.0
240	0x00000000	0.0
241	0x00000000	0.0
242	0x00000000	0.0
243	0x00000000	0.0
244	0x00000000	0.0
245	0x00000000	0.0
246	0x00000000	0.0
247	0x00000000	0.0
248	0x00000000	0.0
249	0x00000000	0.0
250	0x00000000	0.0
251	0x00000000	0.0
252	0x00000000	0.0
253	0x00000000	0.0
254	0x00000000	0.0
255	0x00000000	0.0

action_model._continuous_distribution.log_sigma f4 [1, 3]
0	0x00000000	0.0
1	0x00000000	0.0
2	0x00000000	0.0

action_model._continuous_distribution.mu.weight f4 [3, 256]
0	0x3c8212f3	0.015878176
1	0xbcbc885d	-0.023014242
2	0x3c94b1f5	0.018151263
3	0xbc5f390f	-0.013624444
4	0xba8f0d1b	-0.001091394
5	0x3bf01508	0.007326726
6	0xbc62bb32	-0.013838576
7	0xbb987cb7	-0.004653539
8	0x3c9bda33	0.019024944
9	0xbc9da1eb	-0.019242248
10	0xb9f86ce7	-0.00047383385
11	0xbb03cd59	-0.002011141
12	0xbbedb722	-0.007254497
13	0xbbdd5298	-0.0067542307
14	0xbbd26d3b	-0.0064217127
15	0x3bb48b13	0.005509743
16	0xbae34f6b	-0.0017342394
17	0xbc4f6dfa	-0.012660498
18	0x3c3735b4	0.011182237
19	0xbc944853	-0.018100893
20	0x3c1b9971	0.0094970325
21	0x3c15d88b	0.009145866
22	0x3b34160e	0.0027478966
23	0x3c0b8bef	0.0085172495
24	0x3c22c5f3	0.00993489
25	0xbce18775	-0.027530411
26	0xbacb066d	-0.0015489586
27	0xbb2f0430	-0.0026705377
28	0xba4e5a20	-0.0007871706
29	0x3ba9f172	0.005186253
30	0x3c724db3	0.014789033
31	0x3a67e642	0.0008846262
32	0x3c8d5694	0.017253198
33	0x3c9b3a95	0.018948833
34	0x3c15c492	0.009141104
35	0xbc45e480	-0.012078404
36	0xbc04c864	-0.0081044175
37	0xbc1d2b57	-0.009592853
38	0xbd00b124	-0.031418934
39	0xbb00964e	-0.0019620839
40	0xbc4a4029	-0.012344399
41	0x3c207aa6	0.009794867
42	0xbc291016	-0.010318777
43	0x3bf28d45	0.0074020945
44	0x3bb1a543	0.005421312
45	0x3c4d0e7f	0.012515663
46	0x3cdbaefd	0.02681684
47	0xbbc7aaa7	-0.0060933414
48	0x3bf0a1b8	0.007343497
49	0x3b534e47	0.0032242702
50	0x3cd5654f	0.026049284
51	0x39c9ee3b	0.00038515203
52	0xbbba8227	-0.005691785
53	0xbc142632	-0.00904231
54	0x3c8823d0	0.01661864
55	0x3ca4e938	0.020130739
56	0xba1e105f	-0.0006029661
57	0x3bfb261b	0.0076644546
58	0xbc54c342	-0.012986006
59	0xbc0c9675	-0.008580794
60	0xbd0b9164	-0.034074202
61	0xbc3ef1f5	-0.011654367
62	0xbc10773b	-0.008817489
63	0xbbeb257d	-0.0071761
64	0x3b464d0b	0.0030258324
65	0xbc03a38e	-0.0080346
66	0x3bfb3e83	0.007667364
67	0xbc8c0b15	-0.017095128
68	0x3ac895b0	0.0015303399
69	0xbb8d89f9	-0.004319426
70	0x3c1c5263	0.009541127
71	0xbcb082eb	-0.021546802
72	0xbb8aa03d	-0.0042305277
73	0x3c2b2710	0.010446325
74	0xbc1c8a5e	-0.009554474
75	0xbb5880ab	-0.0033035676
76	0x3b11cf37	0.0022248754
77	0xbc53e6dd	-0.01293346
78	0xbc382c01	-0.01124096
79	0x3c864a26	0.016392779
80	0xbc5622b7	-0.0130698
81	0x3c2ff72c	0.010740083
82	0x3ba3f0a4	0.005003052
83	0xbb84daf2	-0.0040544206
84	0x3c0dafdb	0.008647884
85	0x3b03023f	0.0019990352
86	0x3b3e44ff	0.0029032824
87	0x3c78ea0f	0.015192523
88	0x3ad91462	0.0016561861
89	0x3c884f2e	0.016639318
90	0xbbb1cc31	-0.005425953
91	0xbabea745	-0.00145457
92	0xbb335873	-0.0027365952
93	0x3ca60373	0.020265317
94	0xbb88bfef	-0.004173271
95	0x3c65f16b	0.014034609
96	0x3c538ddd	0.012912241
97	0xbaae0c99	-0.0013278901
98	0x3c403c0f	0.011733069
99	0xbba665a3	-0.005078034
100	0xbbb91029	-0.0056476784
101	0xbc2f6b7e	-0.0107067805
102	0x3b3b82cd	0.00286119
103	0xbad64b82	-0.0016349407
104	0xbbb51613	-0.005526313
105	0x39c3d6f6	0.00037353457
106	0xbc54a22a	-0.012978116
107	0x3c141724	0.00903872
108	0xbc53192a	-0.012884418
109	0xba245a17	-0.0006269528
110	0x3aea8d22	0.0017894844
111	0x3c802824	0.01564414
112	0x3c849e57	0.016188784
113	0xbb36b723	-0.0027880154
114	0x3b83778f	0.004012055
115	0x3bf6cc5f	0.007531687
116	0x3bc39ca3	0.0059696003
117	0x3c8124b9	0.015764581
118	0x3b863d1c	0.0040966403
119	0x3cb104e7	0.021608783
120	0xbc702e67	-0.014659501
121	0xbb600d27	-0.0034187527
122	0xbc00a256	-0.007851204
123	0xbc20ad2c	-0.009806912
124	0xbbc544e7	-0.0060201767
125	0xbb5791e7	-0.003289336
126	0x3c141533	0.009038257
127	0x3c004bc3	0.007830563
128	0xbc5ec887	-0.013597614
129	0x3c188b0b	0.009310494
130	0x3c0b6710	0.008508459
131	0x3c0d200c	0.008613598
132	0xbbace203	-0.005275966
133	0xbb5d7867	-0.003379369
134	0x3beb2b23	0.007176773
135	0x3c83ff8b	0.016113063
136	0x3bb4d45f	0.0055184807
137	0x3ba6032d	0.0050662966
138	0x3be520df	0.006992444
139	0xb9ba0f76	-0.00035488204
140	0x3b27bec0	0.0025595874
141	0xbc8837e1	-0.016628208
142	0x3c59647f	0.013268589
143	0x3bbeb763	0.0058202012
144	0x3c11604a	0.008873055
145	0xbc68f8f5	-0.014219512
146	0x3c621645	0.013799255
147	0xba0c1f2c	-0.0005345221
148	0x3cdf6508	0.027269855
149	0x3b8f0030	0.004364036
150	0xbce725c7	-0.028216256
151	0xbcf27fe2	-0.029601995
152	0x3c014553	0.007890063
153	0xbb2ac75d	-0.0026058771
154	0x399453cd	0.00028291196
155	0xbc56244b	-0.013070176
156	0x3c9a4b4a	0.018834729
157	0x3c197ec3	0.009368601
158	0x3be032db	0.006842
159	0x3b9120dc	0.004428966
160	0xbb8e0f98	-0.004335355
161	0xbd10228e	-0.035189204
162	0x3b1140f3	0.0022163957
163	0xbb517c1d	-0.0031964846
164	0xbb6e0b58	-0.003632268
165	0x3c263af3	0.0101458905
166	0xbb868c42	-0.0041060755
167	0xbc81f988	-0.015866056
168	0xbc3e1ccc	-0.011603545
169	0x3c5dc25a	0.013535107
170	0x38d130ad	9.974963e-05
171	0xbbd495e8	-0.006487597
172	0xbb018eb3	-0.0019768893
173	0x3c60198b	0.013677965
174	0x3a0cd97c	0.0005372984
175	0x3b0dc44c	0.0021631895
176	0x3ba77078	0.005109843
177	0x3ca3299d	0.019917304
178	0x3bd158b3	0.0063887476
179	0x3c041ee7	0.008064008
180	0xbca45f54	-0.020064987
181	0xbb8c6341	-0.004284293
182	0xbbead365	-0.0071663135
183	0xbbb2658f	-0.0054442356
184	0x3c3f0e1e	0.011661081
185	0x3c91fb47	0.017820014
186	0xbcba81f0	-0.022767037
187	0x3b0dce85	0.0021637988
188	0x3c10787b	0.008817787
189	0xbc0b3471	-0.00849639
190	0xbbd08197	-0.0063631046
191	0xbb40b2dc	-0.0029403483
192	0x3abed063	0.0014557954
193	0xbbf82875	-0.007573182
194	0xbc566a55	-0.013086875
195	0x3af507fb	0.0018694395
196	0x3c466726	0.012109553
197	0xba02a550	-0.000498374
198	0x3b4b162d	0.003098856
199	0xbc3c9755	-0.01151069
200	0x3be7be97	0.0070722806
201	0x3c05de32	0.008170651
202	0xbb1e9bfd	-0.0024201863
203	0xb9a4f7e7	-0.0003146522
204	0x3c55d007	0.013050086
205	0x3d0baca1	0.03410018
206	0xbc0124b5	-0.007882287
207	0xbbc16b70	-0.0059027
208	0xbc0d3b11	-0.00862004
209	0xbb9852f3	-0.00464856
210	0xbba15837	-0.004923846
211	0xbcc225ba	-0.02369963
212	0xbbaeb3db	-0.005331499
213	0x3ad6db93	0.0016392343
214	0x3c5a2468	0.013314344
215	0xba07e683	-0.000518419
216	0xbc106491	-0.008813039
217	0x3c3773bd	0.011197028
218	0x3a28eb19	0.00064437237
219	0xbc7931ed	-0.015209657
220	0x3c39ae76	0.011333099
221	0xbb68cd93	-0.0035522922
222	0xbc118263	-0.008881184
223	0x3bc2b30b	0.0059417537
224	0xbc321dac	-0.010871332
225	0x3c44b9ec	0.012007218
226	0xbc7d5bcf	-0.015463783
227	0x3bdb9e30	0.006702207
228	0x3a1b025f	0.0005913134
229	0xbcad1118	-0.021126315
230	0x3acbcc2d	0.001554852
231	0x3c132852	0.008981781
232	0xbb950f5e	-0.004548951
233	0x3b0363b3	0.002004844
234	0xbbdb652d	-0.0066954107
235	0x3cffa9fb	0.031208983
236	0x3c4b1dba	0.012397224
237	0x3b8a6e83	0.0042246
238	0xbb2819ef	-0.0025650223
239	0x3a47dc4d	0.0007624075
240	0x3bd0310f	0.0063535045
241	0xbc5af9ad	-0.013365191
242	0x3ba68542	0.0050818035
243	0x3c1d9337	0.009617618
244	0x3c4c9c9f	0.012488513
245	0x3c3ed3ac	0.011647146
246	0xba4cc701	-0.00078116363
247	0xbb31e79e	-0.0027146111
248	0x3c3a5765	0.011373376
249	0x3b4d9e0f	0.0031374728
250	0x3c8a51f4	0.016884781
251	0xbbb58f77	-0.005540784
252	0xbc5bd5af	-0.013417645
253	0x3b39268b	0.0028251733
254	0x3c5315bf	0.012883603
255	0xbbc7a92a	-0.006093164

action_model._continuous_distribution.mu.bias f4 [3]
0	0x00000000	0.0
1	0x00000000	0.0
2	0x00000000	0.0

network_body._body_endoder.seq_layers.0.weight f4 [256, 1]
0	0x402e01d6	2.718862
1	0x3ecd15d7	0.40055725
2	0x3f9c084d	1.2190033
3	0x3fef5339	1.8697273
4	0xbf80c231	-1.0059263
5	0xbe225aae	-0.15854904
6	0xbfb20fbe	-1.3911054
7	0x3fddaab9	1.7317725
8	0x3fbf799c	1.4958987
9	0x3f402da6	0.75069654
10	0xbf909f20	-1.1298561
11	0xbe1a11e0	-0.15045881
12	0xbfd75e3b	-1.6825632
13	0x3fc9bc1c	1.5760531
14	0xbf2907c9	-0.66027504
15	0xbe07c1df	-0.1325755
16	0x3fdd973b	1.7311777
17	0x3ee9b8ec	0.45648897
18	0x3e0ed0d5	0.1394685
19	0x3f7acd19	0.97969204
20	0xbeaa1bc5	-0.3322431
21	0x3eccbeb0	0.39989233
22	0xbffde37b	-1.9835047
23	0x3f46b128	0.7761407
24	0x3fe10d28	1.758214
25	0x3f12c1d0	0.57326984
26	0x3f058c79	0.5216747
27	0x3e465f2d	0.19372244
28	0xbea1775d	-0.3153638
29	0xbf67d5d8	-0.90560675
30	0xbf01b280	-0.50662994
31	0x3fd61250	1.6724339
32	0xbe07bfe6	-0.13256797
33	0x3d83c3a5	0.064338006
34	0x3ed14a79	0.4087713
35	0x3f55e932	0.8355895
36	0xbd1d8313	-0.03845508
37	0xbf151c84	-0.58246636
38	0x3f1558ae	0.5833844
39	0x3e4c326a	0.19941106
40	0x40067cc4	2.101365
41	0xbfbce5fb	-1.4757684
42	0xbe0d2b6b	-0.13786094
43	0xbfe17330	-1.7613277
44	0xbf7cc1dc	-0.98733306
45	0xbf344b1e	-0.7042712
46	0x3f4cf9a0	0.800684
47	0x3f5aa354	0.8540547
48	0x3f882e7a	1.0639184
49	0xbef1430b	-0.47121462
50	0x3f57d7b2	0.843135
51	0x3f24cb38	0.6437259
52	0xbf4ab89c	-0.7918794
53	0xbf48fcdf	-0.7851085
54	0xbf351ed9	-0.70750195
55	0x3fa83ac6	1.3142936
56	0xbe145a71	-0.14487626
57	0x4000f23d	2.014785
58	0x3f30262d	0.6880825
59	0x3d495875	0.049156625
60	0xbf7801c3	-0.9687769
61	0x3ef0af88	0.4700892
62	0xbb26c273	-0.002544549
63	0x3fee096a	1.8596623
64	0xbf9c0225	-1.2188154
65	0x40005b8f	2.0055883
66	0x3ee954a3	0.45572385
67	0xbf81c7cb	-1.0139097
68	0x3f9fa018	1.2470732
69	0xbe1abc0b	-0.15110795
70	0xbd52c869	-0.051460657
71	0x3c796fe3	0.01522443
72	0x3fb2c541	1.3966447
73	0xbff4a41a	-1.911258
74	0x3f8edabf	1.1160506
75	0x3ef00a98	0.46883082
76	0x40183b20	2.3786087
77	0xbdc2f61b	-0.09519597
78	0xbfdb4544	-1.7130513
79	0x3fe262af	1.7686366
80	0xbfe4ac82	-1.7865145
81	0xbfd9ba43	-1.7009968
82	0x3eadbc6c	0.33932817
83	0x3f88266d	1.0636727
84	0xbf65e218	-0.89798117
85	0x3f848e0a	1.0355847
86	0xbf9923c5	-1.1964041
87	0x3f32b5ad	0.69808465
88	0x3f934865	1.1506468
89	0xbf6a4c9c	-0.91523147
90	0x3f539dc7	0.82662624
91	0xbf2f63a3	-0.6851141
92	0xbef9406a	-0.48681957
93	0x3fab01d4	1.3359933
94	0x401f86c1	2.4925997
95	0xbf5499d3	-0.8304722
96	0xbec54eae	-0.3853659
97	0x3f659c20	0.8969135
98	0x3f015a77	0.50528663
99	0x3eaca71f	0.33721253
100	0x3ef1230e	0.47097057
101	0x3e1682ce	0.14698336
102	0x3ec89c83	0.3918191
103	0xbf21bac0	-0.6317558
104	0xbf77f302	-0.96855175
105	0x3f139619	0.57650906
106	0x3f850681	1.039261
107	0x3f839bf5	1.0281969
108	0xbfaad25b	-1.3345445
109	0x3fbfd1c5	1.4985892
110	0xbf08d521	-0.5345021
111	0xbf05aa88	-0.52213335
112	0xbff56c64	-1.9173703
113	0xbebbc298	-0.366719
114	0xbf3b3572	-0.73128426
115	0x3f251e71	0.64499575
116	0x3f40c32f	0.75297827
117	0xbf78a958	-0.971334
118	0x3f8465ce	1.0343568
119	0xbef9c2bf	-0.48781392
120	0xbfef7945	-1.8708884
121	0xbf4f109c	-0.8088472
122	0x3f8be5d8	1.0929518
123	0x3d10dcf7	0.03536698
124	0x3f2dad30	0.6784239
125	0xbe40c961	-0.1882682
126	0xbf92502e	-1.1430719
127	0xbed20e27	-0.41026422
128	0x3e93802b	0.28808722
129	0x401e113a	2.4698014
130	0x3eaad7aa	0.33367664
131	0xbfac94ae	-1.3482873
132	0x3fd3187b	1.6491846
133	0xbea6d131	-0.32581475
134	0x3f1cc10c	0.61232066
135	0x3fa6868f	1.3009814
136	0xbe972dba	-0.29527074
137	0xc036e75a	-2.8578706
138	0x3f099969	0.5374971
139	0xbe64149a	-0.22273484
140	0x3eeb8ede	0.46007437
141	0xbf78f405	-0.97247344
142	0xbe527c8a	-0.2055532
143	0xbe5ee85c	-0.21768326
144	0xbe73f9b8	-0.23825729
145	0xbeeda1bb	-0.46412453
146	0x3f2d4b70	0.67693233
147	0xbf148048	-0.5800824
148	0x3f3ac5ac	0.72957873
149	0xbe08ed3d	-0.13371749
150	0xc015aa07	-2.3385026
151	0xbf1ae381	-0.60503393
152	0xbf58eb9a	-0.847345
153	0x3e2db26e	0.16962597
154	0x3f0df85c	0.5545709
155	0x3ed4bac7	0.4154875
156	0x3fb519d6	1.414851
157	0x3f2f8dd0	0.68575764
158	0xbdcad2b0	-0.09903467
159	0xbf39fb01	-0.72648627
160	0xbfe01dad	-1.7509056
161	0xbf897ebb	-1.07418
162	0x3dd5afeb	0.10433944
163	0x3f1139f5	0.5672906
164	0xbee768a3	-0.4519702
165	0xbf4e3deb	-0.8056323
166	0xbe1bbea9	-0.1520945
167	0xbf027bde	-0.50970256
168	0x3efc2fc9	0.49255207
169	0xbfa758ba	-1.3073952
170	0x3fd0f340	1.6324234
171	0x3e08d215	0.1336139
172	0x3fc7f1fc	1.5620723
173	0x3fb94823	1.4475139
174	0x3f825658	1.01826
175	0xbfbaf521	-1.4606057
176	0xbfb3b6ec	-1.4040198
177	0xbfafa321	-1.3721658
178	0x3f5eb051	0.8698779
179	0xbe315d74	-0.17320806
180	0xc00023f5	-2.0021946
181	0xbe72d0a5	-0.23712404
182	0xbdf6e806	-0.12055974
183	0xbf2946b7	-0.6612353
184	0x3f1992d6	0.5998968
185	0x3f274180	0.6533432
186	0xbf6b3706	-0.91880834
187	0x3fc0031d	1.500095
188	0x3e331b6f	0.17490934
189	0x3f8a7bf3	1.0819076
190	0x3f35750f	0.7088174
191	0xc0274847	-2.6137865
192	0x403550d8	2.8330593
193	0x3faf1922	1.3679545
194	0x3e99e877	0.3006017
195	0xbfe9d6e5	-1.8268706
196	0xbe2e4e93	-0.17022161
197	0x3fcfb3d5	1.6226755
198	0x3e7ad1f4	0.24494153
199	0xbe88d382	-0.26723868
200	0xbd89c305	-0.0672665
201	0x3f9b6034	1.2138734
202	0x3fb0add9	1.3803054
203	0xbfb6f23b	-1.4292673
204	0x3f2bf220	0.6716633
205	0x3fa60592	1.297045
206	0x3f233f73	0.6376869
207	0xbf849e53	-1.0360817
208	0xbf8566bc	-1.0421977
209	0x3d760312	0.06006152
210	0x3f7c46d1	0.9854556
211	0xbffee267	-1.9912843
212	0x3f597b5f	0.84953874
213	0xbeccea10	-0.40022326
214	0x3f7d4032	0.9892608
215	0x3f988dff	1.1918334
216	0x3fcb8220	1.5899086
217	0x3fb15918	1.3855314
218	0xbf47d329	-0.7805658
219	0x3f062e75	0.5241464
220	0x3f93bb20	1.1541481
221	0xbf118f1e	-0.56859004
222	0x3e4e00bf	0.20117472
223	0xbf1caf62	-0.6120511
224	0x3ee488bc	0.4463557
225	0xbf4f4316	-0.8096174
226	0x3ea658ca	0.32489616
227	0xc010ee2f	-2.2645376
228	0xbf429af7	-0.7601771
229	0x3ff17630	1.8864193
230	0x3e5d3752	0.21603134
231	0xbf4922f0	-0.78568935
232	0x3fedc1ba	1.8574746
233	0xbf9fff57	-1.2499799
234	0xbe25f3ad	-0.16206236
235	0xbf023f0d	-0.5087746
236	0xbf866db0	-1.0502224
237	0x3eefe8d3	0.46857318
238	0x3f99607d	1.1982571
239	0xbfb6a945	-1.4270407
240	0xbf8aa187	-1.0830544
241	0xbf1242fb	-0.57133454
242	0x3f98a723	1.1926006
243	0x3f545bf1	0.8295279
244	0xbe719d1e	-0.23595092
245	0xbf4444cf	-0.76667494
246	0x3f1aa8a7	0.60413593
247	0x3dc53a89	0.09630305
248	0x3f97445e	1.1817739
249	0xbf72b176	-0.94802034
250	0xbe9492b7	-0.29018185
251	0x3db87abf	0.09007787
252	0x3f557c6b	0.8339297
253	0xbcd302ed	-0.025758231
254	0x3e986cbe	0.29770464
255	0x3f955ae1	1.1668359

network_body._body_endoder.seq_layers.0.bias f4 [256]
0	0x00000000	0.0
1	0x00000000	0.0
2	0x00000000	0.0
3	0x00000000	0.0
4	0x00000000	0.0
5	0x00000000	0.0
6	0x00000000	0.0
7	0x00000000	0.0
8	0x00000000	0.0
9	0x00000000	0.0
10	0x00000000	0.0
11	0x00000000	0.0
12	0x00000000	0.0
13	0x00000000	0.0
14	0x00000000	0.0
15	0x00000000	0.0
16	0x00000000	0.0
17	0x00000000	0.0
18	0x00000000	0.0
19	0x00000000	0.0
20	0x00000000	0.0
21	0x00000000	0.0
22	0x00000000	0.0
23	0x00000000	0.0
24	0x00000000	0.0
25	0x00000000	0.0
26	0x00000000	0.0
27	0x00000000	0.0
28	0x00000000	0.0
29	0x00000000	0.0
30	0x00000000	0.0
31	0x00000000	0.0
32	0x00000000	0.0
33	0x00000000	0.0
34	0x00000000	0.0
35	0x00000000	0.0
36	0x00000000	0.0
37	0x00000000	0.0
38	0x00000000	0.0
39	0x00000000	0.0
40	0x00000000	0.0
41	0x00000000	0.0
42	0x00000000	0.0
43	0x00000000	0.0
44	0x00000000	0.0
45	0x00000000	0.0
46	0x00000000	0.0
47	0x00000000	0.0
48	0x00000000	0.0
49	0x00000000	0.0
50	0x00000000	0.0
51	0x00000000	0.0
52	0x00000000	0.0
53	0x00000000	0.0
54	0x00000000	0.0
55	0x00000000	0.0
56	0x00000000	0.0
57	0x00000000	0.0
58	0x00000000	0.0
59	0x00000000	0.0
60	0x00000000	0.0
61	0x00000000	0.0
62	0x00000000	0.0
63	0x00000000	0.0
64	0x00000000	0.0
65	0x00000000	0.0
66	0x00000000	0.0
67	0x00000000	0.0
68	0x00000000	0.0
69	0x00000000	0.0
70	0x00000000	0.0
71	0x00000000	0.0
72	0x00000000	0.0
73	0x00000000	0.0
74	0x00000000	0.0
75	0x00000000	0.0
76	0x00000000	0.0
77	0x00000000	0.0
78	0x00000000	0.0
79	0x00000000	0.0
80	0x00000000	0.0
81	0x00000000	0.0
82	0x00000000	0.0
83	0x00000000	0.0
84	0x00000000	0.0
85	0x00000000	0.0
86	0x00000000	0.0
87	0x00000000	0.0
88	0x00000000	0.0
89	0x00000000	0.0
90	0x00000000	0.0
91	0x00000000	0.0
92	0x00000000	0.0
93	0x00000000	0.0
94	0x00000000	0.0
95	0x00000000	0.0
96	0x00000000	0.0
97	0x00000000	0.0
98	0x00000000	0.0
99	0x00000000	0.0
100	0x00000000	0.0
101	0x00000000	0.0
102	0x00000000	0.0
103	0x00000000	0.0
104	0x00000000	0.0
105	0x00000000	0.0
106	0x00000000	0.0
107	0x00000000	0.0
108	0x00000000	0.0
109	0x00000000	0.0
110	0x00000000	0.0
111	0x00000000	0.0
112	0x00000000	0.0
113	0x00000000	0.0
114	0x00000000	0.0
115	0x00000000	0.0
116	0x00000000	0.0
117	0x00000000	0.0
118	0x00000000	0.0
119	0x00000000	0.0
120	0x00000000	0.0
121	0x00000000	0.0
122	0x00000000	0.0
123	0x00000000	0.0
124	0x00000000	0.0
125	0x00000000	0.0
126	0x00000000	0.0
127	0x00000000	0.0
128	0x00000000	0.0
129	0x00000000	0.0
130	0x00000000	0.0
131	0x00000000	0.0
132	0x00000000	0.0
133	0x00000000	0.0
134	0x00000000	0.0
135	0x00000000	0.0
136	0x00000000	0.0
137	0x00000000	0.0
138	0x00000000	0.0
139	0x00000000	0.0
140	0x00000000	0.0
141	0x00000000	0.0
142	0x00000000	0.0
143	0x00000000	0.0
144	0x00000000	0.0
145	0x00000000	0.0
146	0x00000000	0.0
147	0x00000000	0.0
148	0x00000000	0.0
149	0x00000000	0.0
150	0x00000000	0.0
151	0x00000000	0.0
152	0x00000000	0.0
153	0x00000000	0.0
154	0x00000000	0.0
155	0x00000000	0.0
156	0x00000000	0.0
157	0x00000000	0.0
158	0x00000000	0.0
159	0x00000000	0.0
160	0x00000000	0.0
161	0x00000000	0.0
162	0x00000000	0.0
163	0x00000000	0.0
164	0x00000000	0.0
165	0x00000000	0.0
166	0x00000000	0.0
167	0x00000000	0.0
168	0x00000000	0.0
169	0x00000000	0.0
170	0x00000000	0.0
171	0x00000000	0.0
172	0x00000000	0.0
173	0x00000000	0.0
174	0x00000000	0.0
175	0x00000000	0.0
176	0x00000000	0.0
177	0x00000000	0.0
178	0x00000000	0.0
179	0x00000000	0.0
180	0x00000000	0.0
181	0x00000000	0.0
182	0x00000000	0.0
183	0x00000000	0.0
184	0x00000000	0.0
185	0x00000000	0.0
186	0x00000000	0.0
187	0x00000000	0.0
188	0x00000000	0.0
189	0x00000000	0.0
190	0x00000000	0.0
191	0x00000000	0.0
192	0x00000000	0.0
193	0x00000000	0.0
194	0x00000000	0.0
195	0x00000000	0.0
196	0x00000000	0.0
197	0x00000000	0.0
198	0x00000000	0.0
199	0x00000000	0.0
200	0x00000000	0.0
201	0x00000000	0.0
202	0x00000000	0.0
203	0x00000000	0.0
204	0x00000000	0.0
205	0x00000000	0.0
206	0x00000000	0.0
207	0x00000000	0.0
208	0x00000000	0.0
209	0x00000000	0.0
210	0x00000000	0.0
211	0x00000000	0.0
212	0x00000000	0.0
213	0x00000000	0.0
214	0x00000000	0.0
215	0x00000000	0.0
216	0x00000000	0.0
217	0x00000000	0.0
218	0x00000000	0.0
219	0x00000000	0.0
220	0x00000000	0.0
221	0x00000000	0.0
222	0x00000000	0.0
223	0x00000000	0.0
224	0x00000000	0.0
225	0x00000000	0.0
226	0x00000000	0.0
227	0x00000000	0.0
228	0x00000000	0.0
229	0x00000000	0.0
230	0x00000000	0.0
231	0x00000000	0.0
232	0x00000000	0.0
233	0x00000000	0.0
234	0x00000000	0.0
235	0x00000000	0.0
236	0x00000000	0.0
237	0x00000000	0.0
238	0x00000000	0.0
239	0x00000000	0.0
240	0x00000000	0.0
241	0x00000000	0.0
242	0x00000000	0.0
243	0x00000000	0.0
244	0x00000000	0.0
245	0x00000000	0.0
246	0x00000000	0.0
247	0x00000000	0.0
248	0x00000000	0.0
249	0x00000000	0.0
250	0x00000000	0.0
251	0x00000000	0.0
252	0x00000000	0.0
253	0x00000000	0.0
254	0x00000000	0.0
255	0x00000000	0.0

network_body._body_endoder.seq_layers.2.weight f4 [256, 256]
0	0x3bf63441	0.0075135534
1	0xbdf83cf3	-0.12121
2	0xbd5226b4	-0.05130644
3	0xbd2792a1	-0.04091132
4	0xbd10f242	-0.035387285
5	0x3d5d0956	0.05396398
6	0xbd23ce8c	-0.0399919
7	0x3d06306a	0.032761015
8	0xbc0df8e0	-0.008665293
9	0xbd130ef5	-0.035902936
10	0xbb234877	-0.0024915019
11	0x3e00c9f1	0.12577035
12	0x3c0d138c	0.008610617
13	0x3cba0674	0.022708155
14	0x3d16bbf8	0.036800355
15	0x3da82d83	0.08211806
16	0x3a2497b1	0.00062787073
17	0x3d980aa4	0.074239045
18	0xbd211007	-0.039321925
19	0xbc5bc4d0	-0.013413623
20	0xbd34a030	-0.04409808
21	0x3db55763	0.08854558
22	0xbd61b9f6	-0.055108987
23	0x3c505fc2	0.012718143
24	0xbc4528d1	-0.012033657
25	0x3ca93d0e	0.020658996
26	0x3caddb83	0.021222835
27	0xbba7080f	-0.005097396
28	0xbe19e14c	-0.1502735
29	0x3dc603d2	0.096686974
30	0xbdc34d55	-0.09536234
31	0x3ac7902e	0.0015225464
32	0xbd121df0	-0.035673082
33	0x3dce9967	0.10087853
34	0x3c8539a8	0.016262844
35	0x3bf06f1d	0.0073374645
36	0xbd9e3b3f	-0.07726144
37	0xbd800c50	-0.062523484
38	0xbcafc957	-0.021458311
39	0xbd157be8	-0.03649512
40	0x3ccc01e1	0.02490324
41	0x3e199b2b	0.15000598
42	0x3d1a99c3	0.037744295
43	0x3d199c2e	0.03750246
44	0xbd2efe96	-0.04272326
45	0xbba3bc63	-0.0049968227
46	0xbd83bd15	-0.06432549
47	0x3daa161d	0.08304999
48	0xbc8d3a60	-0.01723975
49	0x3e174aa2	0.14774564
50	0xbd6629e6	-0.0561923
51	0xbb68e857	-0.0035538876
52	0x3b9a46e8	0.0047081597
53	0xbd52656b	-0.05136625
54	0x3dd63519	0.10459346
55	0x3dfe4769	0.12415964
56	0xbd9f94e3	-0.0779207
57	0xbc9f6328	-0.019456461
58	0x3d63e068	0.055633932
59	0xbc378a2a	-0.0112023745
60	0xbdc31c31	-0.095268615
61	0xbdbc2ef0	-0.0918864
62	0xbd17faec	-0.037104532
63	0x3b9fb374	0.0048736874
64	0x3db806d7	0.089856796
65	0xbd1b32dc	-0.0378903
66	0x3daa96f0	0.0832957
67	0x3d967c9e	0.073479876
68	0x3e1e982f	0.15487741
69	0xbd6d7b32	-0.057978816
70	0x3cee4c11	0.029089006
71	0xbc8661b1	-0.016404005
72	0xbd472eba	-0.048628546
73	0xbd90abff	-0.07064056
74	0xbd2641fe	-0.04059028
75	0xbd14d0a2	-0.03633178
76	0xbc861a2e	-0.016369905
77	0xbd01fda2	-0.031736024
78	0x3d57d7fb	0.05269621
79	0xbd863ee3	-0.065549634
80	0xbc8dfaa3	-0.017331427
81	0x3ce00f56	0.027351063
82	0xbbb1d40b	-0.005426889
83	0xbc21790a	-0.009855518
84	0xbbc6ddd0	-0.0060689226
85	0x3c9e8e4c	0.019354962
86	0x3d8fb193	0.070162915
87	0x3d1680f4	0.036744073
88	0x3d10cd34	0.035351947
89	0xbc52a6cc	-0.01285715
90	0xbddeee68	-0.10885316
91	0xbd296c78	-0.04136321
92	0x3d8b883d	0.06813095
93	0xbd66ddb1	-0.056363765
94	0xbd389e82	-0.04507304
95	0xbd9c685a	-0.07637091
96	0x3d62d954	0.05538304
97	0xba59cc55	-0.0008308341
98	0xbd7ff00e	-0.062484793
99	0x3baf45e6	0.0053489087
100	0xbd9b327e	-0.0757799
101	0x3cc9e9a8	0.024647549
102	0x3e04688b	0.12930505
103	0xbdab2811	-0.083572514
104	0x3c4cedc6	0.0125078615
105	0xbd81fdeb	-0.06347259
106	0xbd521ced	-0.051297117
107	0x3d92feaf	0.07177483
108	0x3c41c14c	0.011825871
109	0x3d71fab4	0.05907698
110	0x3d87112a	0.06595071
111	0x3d8bcec4	0.06826547
112	0xbd5526ce	-0.05203896
113	0xbd2002c9	-0.039065156
114	0x3aa961e5	0.0012922852
115	0x3d5f0a67	0.05445328
116	0xbd8b3bf9	-0.06798548
117	0x3d4a7f33	0.049437713
118	0xbc512025	-0.0127640115
119	0xbc93ed2d	-0.01805743
120	0x3d818eee	0.0632609
121	0xbda602d5	-0.08106009
122	0x3ab7e4fc	0.0014030035
123	0x3d2657be	0.04061102
124	0xbce6edda	-0.028189588
125	0x3d8156e0	0.06315398
126	0xbd59c7f7	-0.053169217
127	0xbd40b321	-0.04704583
128	0x3c6df1f6	0.01452302
129	0x3c58d7e5	0.013235067
130	0xbdfbf5c6	-0.12302737
131	0xbd38bf42	-0.045104273
132	0xbdcda01f	-0.10040306
133	0x3dda3f78	0.10656637
134	0xbd7d1a81	-0.061792854
135	0xbb121da2	-0.0022295495
136	0x3a8c3a5f	0.0010698548
137	0x3d80787e	0.06272982
138	0x3bb203ea	0.0054325955
139	0x3d4b3b8c	0.049617335
140	0xbd33f6f1	-0.043936674
141	0x3d25be65	0.040464777
142	0x3cdabe87	0.026702179
143	0x3c85afbe	0.016319152
144	0x3e0243f9	0.12721242
145	0xbdacf0d3	-0.08444371
146	0x3d4b1d52	0.04958851
147	0xbb94da6d	-0.00454264
148	0xbccd17b4	-0.025035717
149	0xbd57dd9a	-0.05270157
150	0x3cdda580	0.027056456
151	0xbd9fc249	-0.07800729
152	0xbde3d58e	-0.11124717
153	0xbd13702f	-0.03599566
154	0xbc3a11a8	-0.011356749
155	0xbc6a6258	-0.014305674
156	0x3c8644d2	0.016390238
157	0x3dac0fc2	0.08401443
158	0x3dd4a347	0.10382705
159	0x3db4a41a	0.088203624
160	0x3d08f412	0.03343589
161	0xbcf53249	-0.029931204
162	0x3c48f3ba	0.01226514
163	0x3daba0e2	0.08380295
164	0xbd467092	-0.0484472
165	0x3df4dd55	0.11956278
166	0x3d359e7e	0.044340603
167	0x3d8c361c	0.06846258
168	0xbd0a6392	-0.033786364
169	0x3d2b257a	0.041783787
170	0x3e39a98e	0.18131086
171	0x3c567c3e	0.013091145
172	0x3cb6fafa	0.022336472
173	0x3cb46c11	0.022024186
174	0x3c38cb13	0.011278885
175	0x3c85602a	0.016281206
176	0x3d0f7e00	0.035032272
177	0x3d826f56	0.06368892
178	0xbd9b96a6	-0.07597093
179	0x3d1a1ecb	0.037627023
180	0xbd0bf147	-0.034165647
181	0x3da3528c	0.07974729
182	0xbd4c3ac2	-0.049860723
183	0xbdb3fcff	-0.087884896
184	0x3db7d7db	0.08976718
185	0xbe11061e	-0.1416249
186	0xbd4aeb63	-0.04954089
187	0xbcf4a430	-0.029863447
188	0x3d9a0f0c	0.07522401
189	0xbd2ed12e	-0.042679958
190	0xbd5b8b85	-0.053599853
191	0xbdf4539d	-0.119300105
192	0x3d502e0b	0.05082516
193	0x3d72b432	0.05925388
194	0x3d7c7593	0.061635565
195	0xbc52c486	-0.012864238
196	0xbc48d220	-0.012257129
197	0xbdb49c92	-0.08818926
198	0x3db18018	0.0866701
199	0x3d80530b	0.06265839
200	0x3d040857	0.032234516
201	0x3cc80ffa	0.02442168
202	0x3d73976a	0.05947057
203	0xbcd6de43	-0.02622903
204	0xbd8e5cd1	-0.06951297
205	0x3d78b78a	0.06072191
206	0xbd1b848f	-0.037968215
207	0xbd809332	-0.06278075
208	0xbd753ab3	-0.059870433
209	0xbde11c4a	-0.10991724
210	0x3d6a9e4c	0.05727987
211	0xbd219d4e	-0.039456658
212	0x3cf15a76	0.02946208
213	0x3dc7aee2	0.09750153
214	0xbc9645c2	-0.01834381
215	0xbdc07d86	-0.09398942
216	0x3dc43869	0.09581072
217	0x3d561c70	0.052273214
218	0xbc722fa6	-0.014781868
219	0x3ba38373	0.004990035
220	0x3d31d8dc	0.043419704
221	0x3ccf09c1	0.025273206
222	0xbdbaf424	-0.091285974
223	0x3dc149bc	0.09437892
224	0xbc935acb	-0.01798763
225	0xbce37aa8	-0.027768448
226	0x3d59c94d	0.05317049
227	0x3dcb01dc	0.09912464
228	0x3dbf2254	0.093327194
229	0x3e02be0d	0.12767811
230	0x3cf1bfa3	0.029510325
231	0x3d285cef	0.041104253
232	0xbcb7e453	-0.02244774
233	0xbe214fd3	-0.15753107
234	0x3c7e49c2	0.015520515
235	0xbc3b4e0b	-0.011432181
236	0xbda23d93	-0.079219006
237	0xbdb3c3de	-0.08777593
238	0x3cc71eb6	0.024306636
239	0xbc6bf4fa	-0.014401669
240	0xbda37465	-0.07981185
241	0xbd63e31c	-0.05563651
242	0x3e007e8c	0.12548274
243	0xbdc4ac0c	-0.09603128
244	0x3ce17ef0	0.027526349
245	0xbdbe7580	-0.09299755
246	0x3dcf3e05	0.10119251
247	0x3d7cf063	0.06175269
248	0x3de1e934	0.11030808
249	0x3d15eaa6	0.03660073
250	0xbb2ad46a	-0.002606655
251	0x3ccb9c00	0.02485466
252	0xbd09206b	-0.03347818
253	0xbb980134	-0.0046388153
254	0xbd97f747	-0.07420211
255	0x3cdcb6f0	0.0269427
